trained.tflite (tflite, 56672 bytes, 21 tensors)

model_1/logits/Conv2D i1 [4, 1, 1, 32]
00000000: 1de3 bdd7 7fe2 0ed3 4e28 2b46 a7e2 e4eb
00000010: fdcf b71f 0726 db68 f0cd f014 3ed4 20f4
00000020: 404e aaf0 a929 7e2f ccad a022 62c4 5e81
00000030: 7da1 f998 06a6 99d2 f3a6 43c6 c193 e5e0
00000040: e866 1754 bff7 6227 a293 55b7 9e56 8146
00000050: 3352 58b1 f219 d0c0 12bd 55a4 cb0d 1f42
00000060: 42ca 3d0a ea52 1bf8 feae 183e 3bfb 81f3
00000070: 50b2 57fd ad02 ffda 4ffe b840 a654 ee29
29 -29 -67 -41 127 -30 14 -45
78 40 43 70 -89 -30 -28 -21
-3 -49 -73 31 7 38 -37 104
-16 -51 -16 20 62 -44 32 -12
64 78 -86 -16 -87 41 126 47
-52 -83 -96 34 98 -60 94 -127
125 -95 -7 -104 6 -90 -103 -46
-13 -90 67 -58 -63 -109 -27 -32
-24 102 23 84 -65 -9 98 39
-94 -109 85 -73 -98 86 -127 70
51 82 88 -79 -14 25 -48 -64
18 -67 85 -92 -53 13 31 66
66 -54 61 10 -22 82 27 -8
-2 -82 24 62 59 -5 -127 -13
80 -78 87 -3 -83 2 -1 -38
79 -2 -72 64 -90 84 -18 41

model_1/head/Conv2D i1 [32, 1, 1, 96]
00000000: ded2 47f6 2bf2 c09e 1ed1 a502 2002 e522
00000010: e1ec ccc5 c6b6 0c50 8104 37da 59e0 f6ba
00000020: 38c8 bc21 bac2 820a 37bd b54d 14a6 4df7
00000030: 04d7 d54e cfc6 c140 fc32 54ba b653 cd23
00000040: f401 3736 1543 46a5 4fa1 2f39 a715 cfff
00000050: 2105 38f0 d5dd c142 1153 eca6 fc21 090e
00000060: ca0f c8f1 d83d 1df9 3f97 a55a 28ec 1629
00000070: 55d8 0f7f ddf4 1415 131e db58 0a0b 4cc8
00000080: 3052 f709 2137 eabf ca03 e8ad e421 e6cc
00000090: e8c4 6a32 f343 cee6 ff3e 3b2f d55f cfc6
000000a0: bf1b 390f 450a f8fc a253 cd23 4bcd d92b
000000b0: b74c de94 115d b7c5 444c 5112 453d 28e6
000000c0: 3c1e b35c eeb3 444d ab56 cd54 63fc 3984
000000d0: c7e5 2209 abe4 6607 d93d 5a0b bd31 505c
000000e0: b9f2 8193 a74f 4cdd 89af 03f3 9a6c dba7
000000f0: 5926 5ba7 e642 fc11 c96c a60e f942 dd4c
-34 -46 71 -10 43 -14 -64 -98
30 -47 -91 2 32 2 -27 34
-31 -20 -52 -59 -58 -74 12 80
-127 4 55 -38 89 -32 -10 -70
56 -56 -68 33 -70 -62 -126 10
55 -67 -75 77 20 -90 77 -9
4 -41 -43 78 -49 -58 -63 64
-4 50 84 -70 -74 83 -51 35
-12 1 55 54 21 67 70 -91
79 -95 47 57 -89 21 -49 -1
33 5 56 -16 -43 -35 -63 66
17 83 -20 -90 -4 33 9 14
-54 15 -56 -15 -40 61 29 -7
63 -105 -91 90 40 -20 22 41
85 -40 15 127 -35 -12 20 21
19 30 -37 88 10 11 76 -56
48 82 -9 9 33 55 -22 -65
-54 3 -24 -83 -28 33 -26 -52
-24 -60 106 50 -13 67 -50 -26
-1 62 59 47 -43 95 -49 -58
-65 27 57 15 69 10 -8 -4
-94 83 -51 35 75 -51 -39 43
-73 76 -34 -108 17 93 -73 -59
68 76 81 18 69 61 40 -26
60 30 -77 92 -18 -77 68 77
-85 86 -51 84 99 -4 57 -124
-57 -27 34 9 -85 -28 102 7
-39 61 90 11 -67 49 80 92
-71 -14 -127 -109 -89 79 76 -35
-119 -81 3 -13 -102 108 -37 -89
89 38 91 -89 -26 66 -4 17
-55 108 -90 14 -7 66 -35 76

model_1/block_6_expand/Conv2D i1 [96, 1, 1, 16]
00000000: e85d fe81 d7d6 f5c7 f711 045b 1db5 dd2a
00000010: d21e d505 d3e7 29b4 3f52 ba0d fb14 3381
00000020: 14f5 c43d 3c0d c8b7 7fe5 ff01 0357 9827
00000030: 2fbb 09c3 0de4 fe1a 7ffc 2b51 081a fb3e
00000040: 8d30 1525 f9e7 242c 1f0c 0cf8 81f0 dc25
00000050: 2047 5c16 0d31 af35 cd2c dbe4 23bd 8101
00000060: 14c1 7981 2cf9 ce58 d088 37f2 0e66 cd3f
00000070: 2d7f eab3 5b0a 09ca 7f7a d109 16ed 6055
00000080: 0d90 14a1 1ac1 15a9 1955 49ef 237f 4051
00000090: 01ee 0d7f 2504 20dd c66c 1df5 f9d6 00f3
000000a0: eb1b cc81 170e eb27 3cd3 20fc ecd5 e7f6
000000b0: 0a21 0de2 58e0 5eaf 9c15 fe24 007f b1d4
000000c0: 390b 81dc 14a4 18fe 113e b2bf f25c f422
000000d0: f900 e714 0781 f716 fceb 01f8 0ffb 0d07
000000e0: 24e6 4ae0 5803 8199 d8d2 1b11 f6bf f3e3
000000f0: 9c44 d0c8 2424 7f2d da02 7600 ef5a 36cd
-24 93 -2 -127 -41 -42 -11 -57
-9 17 4 91 29 -75 -35 42
-46 30 -43 5 -45 -25 41 -76
63 82 -70 13 -5 20 51 -127
20 -11 -60 61 60 13 -56 -73
127 -27 -1 1 3 87 -104 39
47 -69 9 -61 13 -28 -2 26
127 -4 43 81 8 26 -5 62
-115 48 21 37 -7 -25 36 44
31 12 12 -8 -127 -16 -36 37
32 71 92 22 13 49 -81 53
-51 44 -37 -28 35 -67 -127 1
20 -63 121 -127 44 -7 -50 88
-48 -120 55 -14 14 102 -51 63
45 127 -22 -77 91 10 9 -54
127 122 -47 9 22 -19 96 85
13 -112 20 -95 26 -63 21 -87
25 85 73 -17 35 127 64 81
1 -18 13 127 37 4 32 -35
-58 108 29 -11 -7 -42 0 -13
-21 27 -52 -127 23 14 -21 39
60 -45 32 -4 -20 -43 -25 -10
10 33 13 -30 88 -32 94 -81
-100 21 -2 36 0 127 -79 -44
57 11 -127 -36 20 -92 24 -2
17 62 -78 -65 -14 92 -12 34
-7 0 -25 20 7 -127 -9 22
-4 -21 1 -8 15 -5 13 7
36 -26 74 -32 88 3 -127 -103
-40 -46 27 17 -10 -65 -13 -29
-100 68 -48 -56 36 36 127 45
-38 2 118 0 -17 90 54 -51

model_1/block_5_project/Conv2D i1 [16, 1, 1, 96]
00000000: e5f1 04dc 12f1 cff9 17fa f8f7 fceb e116
00000010: 0201 faec fbe0 fe08 f008 ec7f 27da 230f
00000020: 020b 0906 fa13 cffe d606 fe2c 1003 0a00
00000030: 1905 f005 08f0 f448 1107 e3e2 f11b 05df
00000040: d8bc e32d f313 0ff4 f1e8 faea f80b ff00
00000050: f8cf 1821 01f0 ec99 01ef 0fff 27cc e503
00000060: 3193 b1c8 70d5 532a e79b bde7 f2d7 ab22
00000070: befe 4a24 082a 068d 0ff4 dbc6 1dd9 ab44
00000080: ee4a 061c 1cfc 0024 df3a d9eb ee6c 0e03
00000090: 16ab 03c6 e135 3b25 cfdc d1cf 16d6 e9bb
000000a0: 9477 d6e9 ebb9 e820 4181 e305 35b4 2808
000000b0: 0fcb 1bf7 d632 e235 0aca 07ec 2e02 2a76
000000c0: 0231 ba07 3e5b 3d55 f28b 050c e518 2507
000000d0: f5f7 d46c 4cf0 5b14 441b 09e0 04ed 21a8
000000e0: 3913 e921 81a6 2c2e 41d7 15e1 0ff7 1742
000000f0: f127 070c 3fee f949 1313 0ff8 270b 0f02
-27 -15 4 -36 18 -15 -49 -7
23 -6 -8 -9 -4 -21 -31 22
2 1 -6 -20 -5 -32 -2 8
-16 8 -20 127 39 -38 35 15
2 11 9 6 -6 19 -49 -2
-42 6 -2 44 16 3 10 0
25 5 -16 5 8 -16 -12 72
17 7 -29 -30 -15 27 5 -33
-40 -68 -29 45 -13 19 15 -12
-15 -24 -6 -22 -8 11 -1 0
-8 -49 24 33 1 -16 -20 -103
1 -17 15 -1 39 -52 -27 3
49 -109 -79 -56 112 -43 83 42
-25 -101 -67 -25 -14 -41 -85 34
-66 -2 74 36 8 42 6 -115
15 -12 -37 -58 29 -39 -85 68
-18 74 6 28 28 -4 0 36
-33 58 -39 -21 -18 108 14 3
22 -85 3 -58 -31 53 59 37
-49 -36 -47 -49 22 -42 -23 -69
-108 119 -42 -23 -21 -71 -24 32
65 -127 -29 5 53 -76 40 8
15 -53 27 -9 -42 50 -30 53
10 -54 7 -20 46 2 42 118
2 49 -70 7 62 91 61 85
-14 -117 5 12 -27 24 37 7
-11 -9 -44 108 76 -16 91 20
68 27 9 -32 4 -19 33 -88
57 19 -23 33 -127 -90 44 46
65 -41 21 -31 15 -9 23 66
-15 39 7 12 63 -18 -7 73
19 19 15 -8 39 11 15 2

model_1/block_5_depthwise_BN/FusedBatchNormV3;model_1/block_5_depthwise/depthwise;model_1/block_6_expand/Conv2D i1 [1, 3, 3, 96]
00000000: d1ba f57f 1545 50ca f1ee effc e201 2308
00000010: f7d8 1b17 1081 7f03 a706 2fe5 8181 2613
00000020: 0d1c 3dee e4f3 1cf6 ef1b 9448 18bd 242e
00000030: ed32 e812 06f9 0f2f a9d1 c4ee f800 0826
00000040: 44ea 4e12 f80f 137f 1618 19ff f314 7ff5
00000050: f10c e314 7c17 b3f0 fee1 ecd8 01e5 ee1a
00000060: 7f81 4668 d57f 2e8f 4203 ed7f 7fa3 f212
00000070: 087f 7f96 7fba 5340 8181 bcdf c92d c6e6
00000080: a436 81ad d7f1 ca3c fd7f 7f51 cd8f 90cf
00000090: f181 2a54 45e3 2e51 d42b ae8e d7d5 c342
000000a0: 49c7 1e25 b020 ee59 757f 0e13 013b e031
000000b0: 417f 7fe8 f74a 937f 889a 0281 a581 d66a
000000c0: b7f4 19a9 0ee6 48f9 4ddd e313 ef07 f8f8
000000d0: f6f3 07ff ed92 1ffb 8464 00cb 7530 f3fd
000000e0: 010f 0de2 f91f 120e 170b 8940 11eb 2510
000000f0: f109 ef03 fb03 0012 c106 df36 0427 24fd
-47 -70 -11 127 21 69 80 -54
-15 -18 -17 -4 -30 1 35 8
-9 -40 27 23 16 -127 127 3
-89 6 47 -27 -127 -127 38 19
13 28 61 -18 -28 -13 28 -10
-17 27 -108 72 24 -67 36 46
-19 50 -24 18 6 -7 15 47
-87 -47 -60 -18 -8 0 8 38
68 -22 78 18 -8 15 19 127
22 24 25 -1 -13 20 127 -11
-15 12 -29 20 124 23 -77 -16
-2 -31 -20 -40 1 -27 -18 26
127 -127 70 104 -43 127 46 -113
66 3 -19 127 127 -93 -14 18
8 127 127 -106 127 -70 83 64
-127 -127 -68 -33 -55 45 -58 -26
-92 54 -127 -83 -41 -15 -54 60
-3 127 127 81 -51 -113 -112 -49
-15 -127 42 84 69 -29 46 81
-44 43 -82 -114 -41 -43 -61 66
73 -57 30 37 -80 32 -18 89
117 127 14 19 1 59 -32 49
65 127 127 -24 -9 74 -109 127
-120 -102 2 -127 -91 -127 -42 106
-73 -12 25 -87 14 -26 72 -7
77 -35 -29 19 -17 7 -8 -8
-10 -13 7 -1 -19 -110 31 -5
-124 100 0 -53 117 48 -13 -3
1 15 13 -30 -7 31 18 14
23 11 -119 64 17 -21 37 16
-15 9 -17 3 -5 3 0 18
-63 6 -33 54 4 39 36 -3

model_1/block_5_expand/Conv2D i1 [96, 1, 1, 16]
00000000: 0146 d613 1548 1a01 182e c25e 2a81 1683
00000010: 1441 17f1 14d2 7fa2 f548 fbdf 08d9 3e38
00000020: 810b 12f6 0632 1344 e222 75ec d728 0bc2
00000030: ed3f 233c bb47 4066 e628 81fa 4cbe 96c5
00000040: f9fa 393b bc5f fc32 1e0d 120b 0801 81e0
00000050: f9e6 4df1 18f5 f21f bc7f e486 ec1e b9e4
00000060: fbfe 3afa 465f c2b0 f3fc 52e3 7fe3 e6cf
00000070: 2214 7fe8 07f0 f7fc a32b b9c3 0bf5 1df2
00000080: 191f 6a36 d566 f366 3423 0192 c00b 81a8
00000090: f0ae 773f 11cc 0c0d 7ff3 432b db26 86c6
000000a0: eab9 28f6 d1f0 d03b 7f5a 2ae5 f365 4d09
000000b0: fdea 0eb3 0dda c381 c741 2703 f007 28bc
000000c0: 27f4 eeb2 d1e6 8fe8 a2a0 cfe5 127f 5952
000000d0: c0a1 b91d 1ad6 f4de 2619 3b0d ed27 7f33
000000e0: edb5 3d10 142e 047f f648 14e7 1243 c77c
000000f0: 22dc fd2d 11f7 5df9 fd81 11d8 1bee efe3
1 70 -42 19 21 72 26 1
24 46 -62 94 42 -127 22 -125
20 65 23 -15 20 -46 127 -94
-11 72 -5 -33 8 -39 62 56
-127 11 18 -10 6 50 19 68
-30 34 117 -20 -41 40 11 -62
-19 63 35 60 -69 71 64 102
-26 40 -127 -6 76 -66 -106 -59
-7 -6 57 59 -68 95 -4 50
30 13 18 11 8 1 -127 -32
-7 -26 77 -15 24 -11 -14 31
-68 127 -28 -122 -20 30 -71 -28
-5 -2 58 -6 70 95 -62 -80
-13 -4 82 -29 127 -29 -26 -49
34 20 127 -24 7 -16 -9 -4
-93 43 -71 -61 11 -11 29 -14
25 31 106 54 -43 102 -13 102
52 35 1 -110 -64 11 -127 -88
-16 -82 119 63 17 -52 12 13
127 -13 67 43 -37 38 -122 -58
-22 -71 40 -10 -47 -16 -48 59
127 90 42 -27 -13 101 77 9
-3 -22 14 -77 13 -38 -61 -127
-57 65 39 3 -16 7 40 -68
39 -12 -18 -78 -47 -26 -113 -24
-94 -96 -49 -27 18 127 89 82
-64 -95 -71 29 26 -42 -12 -34
38 25 59 13 -19 39 127 51
-19 -75 61 16 20 46 4 127
-10 72 20 -25 18 67 -57 124
34 -36 -3 45 17 -9 93 -7
-3 -127 17 -40 27 -18 -17 -29

model_1/block_4_project/Conv2D i1 [16, 1, 1, 96]
00000000: f603 ed17 3a45 cfd8 3212 0716 ef15 214a
00000010: 0cff fd04 62ba 02ee e1cd dfa0 eef7 3e27
00000020: 75e0 08ff fdf1 f303 dcfe 14e6 f5fb f010
00000030: e410 f3fb e4ec 02e6 171c e4dd be29 fa10
00000040: f20b 3708 fb01 feee af01 ef01 01a9 13da
00000050: 17ef d3d2 16e9 f307 fdfe 06e2 1710 f47f
00000060: 33af 2c54 05be f0d4 f9b7 fe13 1fb9 d2c6
00000070: 9ef3 0d15 f094 d718 7fd3 c201 f170 0429
00000080: 0514 bb13 eb18 39d2 0dc1 47e3 d3f7 4afd
00000090: 1f16 f1bf 4eaa 31e3 1e1e eb91 1bd0 14dc
000000a0: e495 1419 1a31 a4f6 a71d ff4a 2c59 1003
000000b0: 171f b506 943f 0d30 e836 25f1 f9ce 29f8
000000c0: 1713 fbe7 07f4 f920 32ee 103b 0d03 2efd
000000d0: dce8 12ec ddcd 1bca fcfe e022 041b 65c3
000000e0: 16c6 d540 027f e8e1 0de1 0419 e2c9 c013
000000f0: 172a ede6 0e08 04ea e70b ff1a 0500 4946
-10 3 -19 23 58 69 -49 -40
50 18 7 22 -17 21 33 74
12 -1 -3 4 98 -70 2 -18
-31 -51 -33 -96 -18 -9 62 39
117 -32 8 -1 -3 -15 -13 3
-36 -2 20 -26 -11 -5 -16 16
-28 16 -13 -5 -28 -20 2 -26
23 28 -28 -35 -66 41 -6 16
-14 11 55 8 -5 1 -2 -18
-81 1 -17 1 1 -87 19 -38
23 -17 -45 -46 22 -23 -13 7
-3 -2 6 -30 23 16 -12 127
51 -81 44 84 5 -66 -16 -44
-7 -73 -2 19 31 -71 -46 -58
-98 -13 13 21 -16 -108 -41 24
127 -45 -62 1 -15 112 4 41
5 20 -69 19 -21 24 57 -46
13 -63 71 -29 -45 -9 74 -3
31 22 -15 -65 78 -86 49 -29
30 30 -21 -111 27 -48 20 -36
-28 -107 20 25 26 49 -92 -10
-89 29 -1 74 44 89 16 3
23 31 -75 6 -108 63 13 48
-24 54 37 -15 -7 -50 41 -8
23 19 -5 -25 7 -12 -7 32
50 -18 16 59 13 3 46 -3
-36 -24 18 -20 -35 -51 27 -54
-4 -2 -32 34 4 27 101 -61
22 -58 -43 64 2 127 -24 -31
13 -31 4 25 -30 -55 -64 19
23 42 -19 -26 14 8 4 -22
-25 11 -1 26 5 0 73 70

model_1/block_4_depthwise_BN/FusedBatchNormV3;model_1/block_4_depthwise/depthwise;model_1/block_6_expand/Conv2D i1 [1, 3, 3, 96]
00000000: f004 eb68 ec17 c1cc 12fb 64f6 05f9 fc3a
00000010: 060e db03 4a01 21de 0210 2b2d 160c 1831
00000020: fa1a 0bf2 0530 c0e8 140b 1b10 abc5 18fa
00000030: f5ee f8f9 3006 f302 04dc 1ae3 16f9 7f1c
00000040: f4f5 09cd 4122 f7f7 49e0 4306 0f81 1e3d
00000050: 040d 7fee 271b e3e8 25fb ef50 fe16 fe0e
00000060: cf0b f60b 34f8 f581 2a10 81fb eff5 0465
00000070: 10df edef 4ca0 7f19 c4e1 97f2 1f24 d114
00000080: 760a f7ff ea7f bf81 09ef e20d 2e81 7fd3
00000090: b433 3207 27be 1e37 2828 a353 7f20 05ee
000000a0: 2ada a1fd 26e2 ed2f cdcd 67ff e0c4 de3f
000000b0: c040 ef06 f72f 34d2 e634 f349 81e3 1781
000000c0: 01fa e8b7 0914 2614 fdff 053e 00f4 f20c
000000d0: f10d ef0f 0819 17e0 ffe2 080d fb06 2fb4
000000e0: 2c0e 0eea 0e05 dfee 0806 f107 16e0 1300
000000f0: 08fc 05fa 0605 fa08 fb29 09fc 08ef 05f0
-16 4 -21 104 -20 23 -63 -52
18 -5 100 -10 5 -7 -4 58
6 14 -37 3 74 1 33 -34
2 16 43 45 22 12 24 49
-6 26 11 -14 5 48 -64 -24
20 11 27 16 -85 -59 24 -6
-11 -18 -8 -7 48 6 -13 2
4 -36 26 -29 22 -7 127 28
-12 -11 9 -51 65 34 -9 -9
73 -32 67 6 15 -127 30 61
4 13 127 -18 39 27 -29 -24
37 -5 -17 80 -2 22 -2 14
-49 11 -10 11 52 -8 -11 -127
42 16 -127 -5 -17 -11 4 101
16 -33 -19 -17 76 -96 127 25
-60 -31 -105 -14 31 36 -47 20
118 10 -9 -1 -22 127 -65 -127
9 -17 -30 13 46 -127 127 -45
-76 51 50 7 39 -66 30 55
40 40 -93 83 127 32 5 -18
42 -38 -95 -3 38 -30 -19 47
-51 -51 103 -1 -32 -60 -34 63
-64 64 -17 6 -9 47 52 -46
-26 52 -13 73 -127 -29 23 -127
1 -6 -24 -73 9 20 38 20
-3 -1 5 62 0 -12 -14 12
-15 13 -17 15 8 25 23 -32
-1 -30 8 13 -5 6 47 -76
44 14 14 -22 14 5 -33 -18
8 6 -15 7 22 -32 19 0
8 -4 5 -6 6 5 -6 8
-5 41 9 -4 8 -17 5 -16

model_1/block_4_expand/Conv2D i1 [96, 1, 1, 16]
00000000: 22f5 7465 4be6 24ef 7fed c5a7 1f6e d7b2
00000010: 2f71 e3eb 7a01 0bff 4251 f766 efd6 7081
00000020: 14e5 df06 ec23 df32 cedf 143f 0581 41be
00000030: 577f f70e 98f3 c7e2 00fa 66c6 d34f cddd
00000040: 1113 0911 e019 013f cbe4 ecfd 1481 2af6
00000050: 3ad8 f5f1 f5b8 e904 f706 81f6 09f5 f52c
00000060: 81bf ff57 c6d3 d822 a7aa bfbd 2954 296d
00000070: d521 9110 2681 012f 15f6 2b03 ebfb f90e
00000080: 16b4 0ef1 0a38 b1bd 09f8 b712 811c 061c
00000090: 27b4 206c edfc ecd0 7f95 fee0 0a45 b33e
000000a0: a881 2201 77e9 ec28 6fa7 aa19 27cd bf21
000000b0: 34f8 810c 2b02 ed1c f1e9 edf4 040c e606
000000c0: 72b0 0f1b ffb5 e605 3b0c 81fb dbf0 2c3b
000000d0: 16d1 fbbd 2f1f c781 15c8 2ff4 f4e1 02dc
000000e0: b340 9bc5 5881 39b2 4446 07a1 2871 080b
000000f0: 32da 693c 2ad9 c70d 1392 b202 81e8 fe59
34 -11 116 101 75 -26 36 -17
127 -19 -59 -89 31 110 -41 -78
47 113 -29 -21 122 1 11 -1
66 81 -9 102 -17 -42 112 -127
20 -27 -33 6 -20 35 -33 50
-50 -33 20 63 5 -127 65 -66
87 127 -9 14 -104 -13 -57 -30
0 -6 102 -58 -45 79 -51 -35
17 19 9 17 -32 25 1 63
-53 -28 -20 -3 20 -127 42 -10
58 -40 -11 -15 -11 -72 -23 4
-9 6 -127 -10 9 -11 -11 44
-127 -65 -1 87 -58 -45 -40 34
-89 -86 -65 -67 41 84 41 109
-43 33 -111 16 38 -127 1 47
21 -10 43 3 -21 -5 -7 14
22 -76 14 -15 10 56 -79 -67
9 -8 -73 18 -127 28 6 28
39 -76 32 108 -19 -4 -20 -48
127 -107 -2 -32 10 69 -77 62
-88 -127 34 1 119 -23 -20 40
111 -89 -86 25 39 -51 -65 33
52 -8 -127 12 43 2 -19 28
-15 -23 -19 -12 4 12 -26 6
114 -80 15 27 -1 -75 -26 5
59 12 -127 -5 -37 -16 44 59
22 -47 -5 -67 47 31 -57 -127
21 -56 47 -12 -12 -31 2 -36
-77 64 -101 -59 88 -127 57 -78
68 70 7 -95 40 113 8 11
50 -38 105 60 42 -39 -57 13
19 -110 -78 2 -127 -24 -2 89

model_1/block_3_project/Conv2D i1 [16, 1, 1, 48]
00000000: fc06 f10c 1001 ff5b cf15 16f9 0dee f50c
00000010: 1bed fafe 43f9 137f ef51 fbf0 19f9 19e4
00000020: ec28 16d6 0e37 0bf3 a1e7 1b30 2e1d 85d3
00000030: dff0 1712 e304 fe34 d8d8 05d3 efe1 f10b
00000040: e67e fe19 0510 ecf3 17d0 1214 e4a3 d909
00000050: fafd 1f00 f3d5 fd16 f0e2 7f0c 0003 18ea
00000060: e8f8 f3d8 02c2 09ef 0106 0e17 1010 fb08
00000070: fdec ebf5 fafc 0081 f746 f506 ffee fbf9
00000080: f732 0c00 1909 1907 d308 edfc fff3 0f07
00000090: fb23 04e1 f8ff fffb f0fe f523 8107 faf9
000000a0: fb02 f3fd e607 0c0f f6f4 0417 f70f 0804
000000b0: fdfd 1510 f11e 2808 0909 1ae1 07f6 0410
000000c0: 21df 090e 1222 18e9 dd07 e7e6 0502 0d11
000000d0: 1bf9 b601 fe06 0d4f 04dd 0532 0faf 1000
000000e0: 15d3 2581 1022 0310 f11f 05eb f7e5 0201
000000f0: 1cfe e33c 01f3 0c21 03f8 200e 0331 0902
-4 6 -15 12 16 1 -1 91
-49 21 22 -7 13 -18 -11 12
27 -19 -6 -2 67 -7 19 127
-17 81 -5 -16 25 -7 25 -28
-20 40 22 -42 14 55 11 -13
-95 -25 27 48 46 29 -123 -45
-33 -16 23 18 -29 4 -2 52
-40 -40 5 -45 -17 -31 -15 11
-26 126 -2 25 5 16 -20 -13
23 -48 18 20 -28 -93 -39 9
-6 -3 31 0 -13 -43 -3 22
-16 -30 127 12 0 3 24 -22
-24 -8 -13 -40 2 -62 9 -17
1 6 14 23 16 16 -5 8
-3 -20 -21 -11 -6 -4 0 -127
-9 70 -11 6 -1 -18 -5 -7
-9 50 12 0 25 9 25 7
-45 8 -19 -4 -1 -13 15 7
-5 35 4 -31 -8 -1 -1 -5
-16 -2 -11 35 -127 7 -6 -7
-5 2 -13 -3 -26 7 12 15
-10 -12 4 23 -9 15 8 4
-3 -3 21 16 -15 30 40 8
9 9 26 -31 7 -10 4 16
33 -33 9 14 18 34 24 -23
-35 7 -25 -26 5 2 13 17
27 -7 -74 1 -2 6 13 79
4 -35 5 50 15 -81 16 0
21 -45 37 -127 16 34 3 16
-15 31 5 -21 -9 -27 2 1
28 -2 -29 60 1 -13 12 33
3 -8 32 14 3 49 9 2

model_1/block_3_depthwise_BN/FusedBatchNormV3;model_1/block_3_depthwise/depthwise i1 [1, 3, 3, 48]
00000000: 48a2 6345 37de 69c0 3aa8 b02f 34d7 b8a6
00000010: 6551 324e 41b9 ad35 dfda bfc0 bd3e c08f
00000020: f52b 4340 be3a cdea 33b7 3a3c a70b 4bdf
00000030: 55a1 7f50 b2bc c8ae 5d9a c44a 4e9b a05e
00000040: da5f 527f 558e 3448 ccb4 bdb1 3650 e281
00000050: ab53 4e54 ae56 adf0 4ba1 5655 b881 5d97
00000060: 24ce 4b22 14d7 d0da 26dd 0621 1db5 c600
00000070: ca27 2546 22cb 211a e4d3 d5e9 1e1f 58a8
00000080: a62f 2322 e32a dbf9 29d6 252b f9f9 23b3
00000090: 5f8f d45c 39ad 7fa8 5890 b855 5492 f481
000000a0: 7f71 4bda 536c 8149 4ab5 a29f 8156 b8f6
000000b0: a648 6a5f ac52 af59 559e 575b ab6b 5fa5
000000c0: 7f81 bc7f 8181 a881 7f81 817f 7f81 e964
000000d0: bc7f 7fce 7f7f 467f 7f81 8181 367f e10f
000000e0: 817f 7f7f 817f 817f 7f81 7f7f 81f6 7f81
000000f0: 43ae e042 28c2 d0c1 39d7 c53c 32c8 ed0d
72 -94 99 69 55 -34 105 -64
58 -88 -80 47 52 -41 -72 -90
101 81 50 78 65 -71 -83 53
-33 -38 -65 -64 -67 62 -64 -113
-11 43 67 64 -66 58 -51 -22
51 -73 58 60 -89 11 75 -33
85 -95 127 80 -78 -68 -56 -82
93 -102 -60 74 78 -101 -96 94
-38 95 82 127 85 -114 52 72
-52 -76 -67 -79 54 80 -30 -127
-85 83 78 84 -82 86 -83 -16
75 -95 86 85 -72 -127 93 -105
36 -50 75 34 20 -41 -48 -38
38 -35 6 33 29 -75 -58 0
-54 39 37 70 34 -53 33 26
-28 -45 -43 -23 30 31 88 -88
-90 47 35 34 -29 42 -37 -7
41 -42 37 43 -7 -7 35 -77
95 -113 -44 92 57 -83 127 -88
88 -112 -72 85 84 -110 -12 -127
127 113 75 -38 83 108 -127 73
74 -75 -94 -97 -127 86 -72 -10
-90 72 106 95 -84 82 -81 89
85 -98 87 91 -85 107 95 -91
127 -127 -68 127 -127 -127 -88 -127
127 -127 -127 127 127 -127 -23 100
-68 127 127 -50 127 127 70 127
127 -127 -127 -127 54 127 -31 15
-127 127 127 127 -127 127 -127 127
127 -127 127 127 -127 -10 127 -127
67 -82 -32 66 40 -62 -48 -63
57 -41 -59 60 50 -56 -19 13

model_1/block_3_expand/Conv2D i1 [48, 1, 1, 8]
00000000: 8103 0431 e22c 10e3 1b31 1b10 f9df 5d7f
00000010: dd01 e7f5 81f7 0efc 5aed f097 8115 1bf5
00000020: 815d c9e7 63ca 5e4c 8bec 17fc 81fa fb62
00000030: ed81 1ef5 0405 f717 b1f5 075e 7fe7 d105
00000040: 5407 f881 08ce bdde d681 f5fd eb69 d25a
00000050: 860c 1339 8145 55f1 6d07 1b12 c1d8 d481
00000060: 000f 25f4 08ae 7f3b 4ef2 03f3 7f6f 75c8
00000070: 7f21 f218 c2eb d103 f981 12fa f105 0116
00000080: a1ed 0106 8110 1509 e359 aaef 1281 4db7
00000090: 7fe5 db0e c113 fe71 7fe3 f5f4 32fd 1ef2
000000a0: 7f15 e57d 0023 0ace 0827 c3fe f160 81ac
000000b0: 8117 0ef1 e70c b9db d1c4 0718 8151 60e5
000000c0: 7f04 0be6 b5f9 f7f2 15ec fbf1 7f30 2fe7
000000d0: 0787 f1d6 f681 5db2 ee81 1af4 f9c8 23f5
000000e0: b727 fa1b eaea 7f24 f830 0601 f626 9781
000000f0: 7ff2 0519 ba03 dfd7 fab7 26fa feab 7f6d
-127 3 4 49 -30 44 16 -29
27 49 27 16 -7 -33 93 127
-35 1 -25 -11 -127 -9 14 -4
90 -19 -16 -105 -127 21 27 -11
-127 93 -55 -25 99 -54 94 76
-117 -20 23 -4 -127 -6 -5 98
-19 -127 30 -11 4 5 -9 23
-79 -11 7 94 127 -25 -47 5
84 7 -8 -127 8 -50 -67 -34
-42 -127 -11 -3 -21 105 -46 90
-122 12 19 57 -127 69 85 -15
109 7 27 18 -63 -40 -44 -127
0 15 37 -12 8 -82 127 59
78 -14 3 -13 127 111 117 -56
127 33 -14 24 -62 -21 -47 3
-7 -127 18 -6 -15 5 1 22
-95 -19 1 6 -127 16 21 9
-29 89 -86 -17 18 -127 77 -73
127 -27 -37 14 -63 19 -2 113
127 -29 -11 -12 50 -3 30 -14
127 21 -27 125 0 35 10 -50
8 39 -61 -2 -15 96 -127 -84
-127 23 14 -15 -25 12 -71 -37
-47 -60 7 24 -127 81 96 -27
127 4 11 -26 -75 -7 -9 -14
21 -20 -5 -15 127 48 47 -25
7 -121 -15 -42 -10 -127 93 -78
-18 -127 26 -12 -7 -56 35 -11
-73 39 -6 27 -22 -22 127 36
-8 48 6 1 -10 38 -105 -127
127 -14 5 25 -70 3 -33 -41
-6 -73 38 -6 -2 -85 127 109

model_1/block_2_project/Conv2D i1 [8, 1, 1, 48]
00000000: d1ed e308 f9f4 fa0b 987d eb58 6afd 33ed
00000010: f2db 0506 f0f1 eedf 11bc 0831 0311 14d8
00000020: fbc2 7f24 f30c f6f2 5af7 1cf8 dd1c ec03
00000030: 0420 7f05 f9ee fca8 1d07 1e06 ea09 f58d
00000040: 08b5 0804 e423 1ed0 ecf9 0c00 05fc fdf8
00000050: f109 0d19 ead5 44c0 1024 ee1d ea02 1e01
00000060: 05cf 18d3 201b f6e6 0808 fe12 f831 0407
00000070: d57f e9d8 f111 dbf9 7508 fcf8 e5ff 09d6
00000080: f9f0 0011 fa00 f50f 10eb e9fa 0318 e9de
00000090: 09a5 fd07 01f5 fa01 fff2 0814 0df8 2fff
000000a0: f4e2 071c f815 e504 0439 fb0c f507 7ffb
000000b0: 050f f501 e6ed f209 f5fe f71b f908 f91b
000000c0: 8d04 faf7 f6d6 ff1a 2cd5 13e0 e100 f0fe
000000d0: 04fe 0114 0ee3 0d05 f533 fb6b 050b f8df
000000e0: fc81 e511 0802 ff08 d0f2 e710 c000 080d
000000f0: f224 180a c908 0334 1801 0806 fdc9 0428
-47 -19 -29 8 -7 -12 -6 11
-104 125 -21 88 106 -3 51 -19
-14 -37 5 6 -16 -15 -18 -33
17 -68 8 49 3 17 20 -40
-5 -62 127 36 -13 12 -10 -14
90 -9 28 -8 -35 28 -20 3
4 32 127 5 -7 -18 -4 -88
29 7 30 6 -22 9 -11 -115
8 -75 8 4 -28 35 30 -48
-20 -7 12 0 5 -4 -3 -8
-15 9 13 25 -22 -43 68 -64
16 36 -18 29 -22 2 30 1
5 -49 24 -45 32 27 -10 -26
8 8 -2 18 -8 49 4 7
-43 127 -23 -40 -15 17 -37 -7
117 8 -4 -8 -27 -1 9 -42
-7 -16 0 17 -6 0 -11 15
16 -21 -23 -6 3 24 -23 -34
9 -91 -3 7 1 -11 -6 1
-1 -14 8 20 13 -8 47 -1
-12 -30 7 28 -8 21 -27 4
4 57 -5 12 -11 7 127 -5
5 15 -11 1 -26 -19 -14 9
-11 -2 -9 27 -7 8 -7 27
-115 4 -6 -9 -10 -42 -1 26
44 -43 19 -32 -31 0 -16 -2
4 -2 1 20 14 -29 13 5
-11 51 -5 107 5 11 -8 -33
-4 -127 -27 17 8 2 -1 8
-48 -14 -25 16 -64 0 8 13
-14 36 24 10 -55 8 3 52
24 1 8 6 -3 -55 4 40

model_1/block_2_depthwise_BN/FusedBatchNormV3;model_1/block_2_depthwise/depthwise;model_1/block_3_depthwise/depthwise i1 [1, 3, 3, 48]
00000000: 02fc 146e 0450 fd1c 0d08 0807 f8f7 d509
00000010: fe08 ec8d f8ea 7ff7 fd06 fa0a fc04 0e65
00000020: 131d 28e5 0022 fe02 11bc f9f8 1302 f8f5
00000030: 7c09 0f81 1c57 0a0b 787f 062b cfe8 0509
00000040: 7fc8 c3c7 9a1a 940f 1146 e1ab 1715 0984
00000050: 04c4 7f0a d7d1 fa73 b19b e202 e1f8 8117
00000060: dffd 0710 003f 0311 1a08 f220 f2fd 0f05
00000070: 991c fb4a dff6 eefa fbc6 fe1e ef05 04ec
00000080: 07e9 10ee ff2f 2af4 3226 f00b d903 fffb
00000090: 7f07 009e 0de3 22f0 0708 f235 f9ff 12e0
000000a0: ffcf c1a9 09b7 85ef 0560 f081 f920 0b94
000000b0: 10cd fd7f fd39 d62a c281 28a7 d6f2 f3fa
000000c0: 1b81 8174 8181 8181 819f 7f81 7f7f 2281
000000d0: ad7f 7f94 7f7f 707f 7f81 811d 8181 5f7f
000000e0: 817f e1d6 7f81 7f7f 7fac 7f7f 7f87 656a
000000f0: 3505 30f3 05c1 2b12 e70e 96f8 00d8 7f06
2 -4 20 110 4 80 -3 28
13 8 8 7 -8 -9 -43 9
-2 8 -20 -115 -8 -22 127 -9
-3 6 -6 10 -4 4 14 101
19 29 40 -27 0 34 -2 2
17 -68 -7 -8 19 2 -8 -11
124 9 15 -127 28 87 10 11
120 127 6 43 -49 -24 5 9
127 -56 -61 -57 -102 26 -108 15
17 70 -31 -85 23 21 9 -124
4 -60 127 10 -41 -47 -6 115
-79 -101 -30 2 -31 -8 -127 23
-33 -3 7 16 0 63 3 17
26 8 -14 32 -14 -3 15 5
-103 28 -5 74 -33 -10 -18 -6
-5 -58 -2 30 -17 5 4 -20
7 -23 16 -18 -1 47 42 -12
50 38 -16 11 -39 3 -1 -5
127 7 0 -98 13 -29 34 -16
7 8 -14 53 -7 -1 18 -32
-1 -49 -63 -87 9 -73 -123 -17
5 96 -16 -127 -7 32 11 -108
16 -51 -3 127 -3 57 -42 42
-62 -127 40 -89 -42 -14 -13 -6
27 -127 -127 116 -127 -127 -127 -127
-127 -97 127 -127 127 127 34 -127
-83 127 127 -108 127 127 112 127
127 -127 -127 29 -127 -127 95 127
-127 127 -31 -42 127 -127 127 127
127 -84 127 127 127 -121 101 106
53 5 48 -13 5 -63 43 18
-25 14 -106 -8 0 -40 127 6

model_1/block_2_expand/Conv2D i1 [48, 1, 1, 8]
00000000: 5524 f515 7f0a dde2 fa0f f67f 12fe 0700
00000010: 2381 f92f 02ca 4111 7ff0 fe17 06e5 1ffe
00000020: 0add 7ff2 f8bf 059c 4403 eee3 7ffa fc0a
00000030: db58 047f 1e2a 8ee2 f57f faff 00f9 0bf6
00000040: 7f33 fc0b b2ef f4da 8113 fa0f 30f6 f60b
00000050: 96d7 187f 152e 0002 8106 12d7 1e07 e2d3
00000060: 7f0c 050c cd05 06d9 fb59 81fb f95f bc3b
00000070: e2ed f27f 23fa 07e2 fc7f fdfe 02f0 0dc3
00000080: ec84 f4fa ef81 71f4 187f 01ee 0249 a3f4
00000090: ef38 8111 033a da40 c90a f2e8 8109 090b
000000a0: 81f1 0c04 2feb 34fa c50a f6f5 8109 1ef6
000000b0: 81e9 fbef 2ff5 1a26 dee8 ebfa ef59 8199
000000c0: fe25 8103 0d2f f948 65e1 f57f aced f9c3
000000d0: fcf4 f4ff f576 7fe0 35f1 f203 7f25 23ef
000000e0: f77f befa 0f4d e97a f513 f9f1 0158 81a4
000000f0: 02f7 0581 f900 fef1 ce10 2207 8118 15f0
85 36 -11 21 127 10 -35 -30
-6 15 -10 127 18 -2 7 0
35 -127 -7 47 2 -54 65 17
127 -16 -2 23 6 -27 31 -2
10 -35 127 -14 -8 -65 5 -100
68 3 -18 -29 127 -6 -4 10
-37 88 4 127 30 42 -114 -30
-11 127 -6 -1 0 -7 11 -10
127 51 -4 11 -78 -17 -12 -38
-127 19 -6 15 48 -10 -10 11
-106 -41 24 127 21 46 0 2
-127 6 18 -41 30 7 -30 -45
127 12 5 12 -51 5 6 -39
-5 89 -127 -5 -7 95 -68 59
-30 -19 -14 127 35 -6 7 -30
-4 127 -3 -2 2 -16 13 -61
-20 -124 -12 -6 -17 -127 113 -12
24 127 1 -18 2 73 -93 -12
-17 56 -127 17 3 58 -38 64
-55 10 -14 -24 -127 9 9 11
-127 -15 12 4 47 -21 52 -6
-59 10 -10 -11 -127 9 30 -10
-127 -23 -5 -17 47 -11 26 38
-34 -24 -21 -6 -17 89 -127 -103
-2 37 -127 3 13 47 -7 72
101 -31 -11 127 -84 -19 -7 -61
-4 -12 -12 -1 -11 118 127 -32
53 -15 -14 3 127 37 35 -17
-9 127 -66 -6 15 77 -23 122
-11 19 -7 -15 1 88 -127 -92
2 -9 5 -127 -7 0 -2 -15
-50 16 34 7 -127 24 21 -16

model_1/block_1_project/Conv2D i1 [8, 1, 1, 48]
00000000: f703 0bb1 0c18 0405 0102 01f6 5d00 fe0b
00000010: 00ef fd02 4df9 fd03 1b26 121b 0303 0681
00000020: 0907 0302 e307 f71c 04e6 f7ff 03ff 0202
00000030: d9f7 06fb 2a17 e554 1807 dade 0b00 1228
00000040: 002e 12cf 051d 7f17 e3f8 3510 10fe 13f4
00000050: 12f6 f6ed fecd 0805 f7f6 a1f5 d309 c899
00000060: cb12 050a 23f1 1f14 ef34 0e01 0300 0330
00000070: 0009 811d fa18 01f0 dd02 2301 011d 0e00
00000080: 03f3 f5f7 080b 0501 21f3 e701 16d1 1311
00000090: 0602 0507 fe1b fa04 3a11 f9f5 1700 ddf9
000000a0: 0007 f501 0506 04f2 f5fb f804 fafa 03f9
000000b0: d62e c8f8 0203 0081 0502 fdce fbff fd02
000000c0: fefd 4d23 06f1 fcfd fffc fbf6 b500 f605
000000d0: 000a 0805 400e fefa f422 fa27 f0fd fd5f
000000e0: 04fd 02ff 07e8 f7ec 0081 04fc fcfa 0200
000000f0: f42d 04fa ff36 1710 ee1b 0840 1500 81fb
-9 3 11 -79 12 24 4 5
1 2 1 -10 93 0 -2 11
0 -17 -3 2 77 -7 -3 3
27 38 18 27 3 3 6 -127
9 7 3 2 -29 7 -9 28
4 -26 -9 -1 3 -1 2 2
-39 -9 6 -5 42 23 -27 84
24 7 -38 -34 11 0 18 40
0 46 18 -49 5 29 127 23
-29 -8 53 16 16 -2 19 -12
18 -10 -10 -19 -2 -51 8 5
-9 -10 -95 -11 -45 9 -56 -103
-53 18 5 10 35 -15 31 20
-17 52 14 1 3 0 3 48
0 9 -127 29 -6 24 1 -16
-35 2 35 1 1 29 14 0
3 -13 -11 -9 8 11 5 1
33 -13 -25 1 22 -47 19 17
6 2 5 7 -2 27 -6 4
58 17 -7 -11 23 0 -35 -7
0 7 -11 1 5 6 4 -14
-11 -5 -8 4 -6 -6 3 -7
-42 46 -56 -8 2 3 0 -127
5 2 -3 -50 -5 -1 -3 2
-2 -3 77 35 6 -15 -4 -3
-1 -4 -5 -10 -75 0 -10 5
0 10 8 5 64 14 -2 -6
-12 34 -6 39 -16 -3 -3 95
4 -3 2 -1 7 -24 -9 -20
0 -127 4 -4 -4 -6 2 0
-12 45 4 -6 -1 54 23 16
-18 27 8 64 21 0 -127 -5

model_1/block_1_depthwise_BN/FusedBatchNormV3;model_1/block_1_depthwise/depthwise;model_1/block_3_depthwise/depthwise i1 [1, 3, 3, 48]
00000000: d6e8 f7f0 07d7 b2bb e4cd 093f 21b9 74d5
00000010: 8fa8 25f9 ffb4 91b1 de84 c3ea 460e 5f1b
00000020: 81aa f938 1230 814d b2f3 6692 fcde a968
00000030: 4b0a e2e3 3981 81b0 3fb6 8d6b 26ae ff3d
00000040: cc8f 3b05 0b95 81ba fc81 87da c814 c836
00000050: 1d81 4253 0d49 a57f 8107 7981 00ea 815c
00000060: e02c 05fd bf95 c7ee 59f8 8128 07b9 9af5
00000070: 81e9 1b0c f2a9 dbe8 f5e1 c5f3 f511 e809
00000080: 69ac 451f 0d25 fc11 b304 06b4 ee06 c90f
00000090: ac81 d3d5 f634 6197 e595 ea6e 59c0 1c9f
000000a0: 87a2 58b4 29a7 9a81 2b8f b2d4 7fc4 7f54
000000b0: d4ac f253 dbb4 9257 2a3c 6993 a489 5177
000000c0: 7fae 8181 7f27 5c81 6681 8f7f 7ff2 fa7f
000000d0: c481 7f81 7f81 8a8b 7fa5 8181 8681 bb7f
000000e0: 1d92 7f7f ba81 9f58 3c7f 7f90 8d81 7c7f
000000f0: cc1f c2ae 87ea 20d8 7feb ae28 36ba e7d6
-42 -24 -9 -16 7 -41 -78 -69
-28 -51 9 63 33 -71 116 -43
-113 -88 37 -7 -1 -76 -111 -79
-34 -124 -61 -22 70 14 95 27
-127 -86 -7 56 18 48 -127 77
-78 -13 102 -110 -4 -34 -87 104
75 10 -30 -29 57 -127 -127 -80
63 -74 -115 107 38 -82 -1 61
-52 -113 59 5 11 -107 -127 -70
-4 -127 -121 -38 -56 20 -56 54
29 -127 66 83 13 73 -91 127
-127 7 121 -127 0 -22 -127 92
-32 44 5 -3 -65 -107 -57 -18
89 -8 -127 40 7 -71 -102 -11
-127 -23 27 12 -14 -87 -37 -24
-11 -31 -59 -13 -11 17 -24 9
105 -84 69 31 13 37 -4 17
-77 4 6 -76 -18 6 -55 15
-84 -127 -45 -43 -10 52 97 -105
-27 -107 -22 110 89 -64 28 -97
-121 -94 88 -76 41 -89 -102 -127
43 -113 -78 -44 127 -60 127 84
-44 -84 -14 83 -37 -76 -110 87
42 60 105 -109 -92 -119 81 119
127 -82 -127 -127 127 39 92 -127
102 -127 -113 127 127 -14 -6 127
-60 -127 127 -127 127 -127 -118 -117
127 -91 -127 -127 -122 -127 -69 127
29 -110 127 127 -70 -127 -97 88
60 127 127 -112 -115 -127 124 127
-52 31 -62 -82 -121 -22 32 -40
127 -21 -82 40 54 -70 -25 -42

model_1/block_1_expand/Conv2D i1 [48, 1, 1, 8]
00000000: 0e81 37d0 19ef cc12 3e46 ecb5 0ae9 c17f
00000010: 290c ea7f 2a72 305b 4e3e b37f a6fe fd0f
00000020: d6b0 461c 151d e381 1f0a dd2a f9da 247f
00000030: 30e8 81b0 6206 40d6 7f08 19e7 1702 57c6
00000040: 1991 057f 080d ed86 7381 0efd f20e 835e
00000050: 81f3 ae37 0f07 a129 e9d6 fc99 81d9 30f5
00000060: 16fc d14a b2eb 447f 0000 0000 0000 0000
00000070: 00db f307 397f 2a27 1812 1681 4e2d ce44
00000080: 0000 0000 0000 0000 1117 7f21 caec 3132
00000090: 6181 1233 f510 9c13 8108 365c d9bd 8562
000000a0: 1d1e d55d e981 f22e 2510 7f00 070a 27fa
000000b0: b7ea 81fc 020a aa08 b67f 01f9 fffb 75c3
000000c0: 09c2 cd4c f0c8 657f 0e3c 171b 7f68 b1c5
000000d0: b2d8 8101 0913 9e05 fbe3 d802 de7f 3827
000000e0: fcf5 ed1c 1f7f 3a3f 5d16 7f00 f403 5300
000000f0: ac7f eae9 0afa 63ce d8a6 e803 1ab1 7f6c
14 -127 55 -48 25 -17 -52 18
62 70 -20 -75 10 -23 -63 127
41 12 -22 127 42 114 48 91
78 62 -77 127 -90 -2 -3 15
-42 -80 70 28 21 29 -29 -127
31 10 -35 42 -7 -38 36 127
48 -24 -127 -80 98 6 64 -42
127 8 25 -25 23 2 87 -58
25 -111 5 127 8 13 -19 -122
115 -127 14 -3 -14 14 -125 94
-127 -13 -82 55 15 7 -95 41
-23 -42 -4 -103 -127 -39 48 -11
22 -4 -47 74 -78 -21 68 127
0 0 0 0 0 0 0 0
0 -37 -13 7 57 127 42 39
24 18 22 -127 78 45 -50 68
0 0 0 0 0 0 0 0
17 23 127 33 -54 -20 49 50
97 -127 18 51 -11 16 -100 19
-127 8 54 92 -39 -67 -123 98
29 30 -43 93 -23 -127 -14 46
37 16 127 0 7 10 39 -6
-73 -22 -127 -4 2 10 -86 8
-74 127 1 -7 -1 -5 117 -61
9 -62 -51 76 -16 -56 101 127
14 60 23 27 127 104 -79 -59
-78 -40 -127 1 9 19 -98 5
-5 -29 -40 2 -34 127 56 39
-4 -11 -19 28 31 127 58 63
93 22 127 0 -12 3 83 0
-84 127 -22 -23 10 -6 99 -50
-40 -90 -24 3 26 -79 127 108

model_1/expanded_conv_project/Conv2D i1 [8, 1, 1, 16]
00000000: 00ea fe00 7b02 fb09 0181 a7fb 0076 fa00
00000010: 00dd 0859 4c12 160e 00ff 7fd0 0022 f800
00000020: 0000 00f3 c804 0902 0006 f1ff 007f f800
00000030: 00ef ed81 5113 410f ff3a 002a 00fc 1200
00000040: 001a f022 ca1d 7f06 ffc3 12f4 00f6 0e00
00000050: 00eb f1ff e7eb f60f ff07 fdd6 00fa 7f00
00000060: 0010 feff 31ef def9 009e 6c37 007f 3500
00000070: 0007 f37f 0af8 0805 0143 c652 00f9 3900
0 -22 -2 0 123 2 -5 9
1 -127 -89 -5 0 118 -6 0
0 -35 8 89 76 18 22 14
0 -1 127 -48 0 34 -8 0
0 0 0 -13 -56 4 9 2
0 6 -15 -1 0 127 -8 0
0 -17 -19 -127 81 19 65 15
-1 58 0 42 0 -4 18 0
0 26 -16 34 -54 29 127 6
-1 -61 18 -12 0 -10 14 0
0 -21 -15 -1 -25 -21 -10 15
-1 7 -3 -42 0 -6 127 0
0 16 -2 -1 49 -17 -34 -7
0 -98 108 55 0 127 53 0
0 7 -13 127 10 -8 8 5
1 67 -58 82 0 -7 57 0

model_1/expanded_conv_depthwise_BN/FusedBatchNormV3;model_1/expanded_conv_depthwise/depthwise;model_1/block_5_project/Conv2D i1 [1, 3, 3, 16]
00000000: 9412 ad81 27be 50b4 a6fd f81d 8105 36b7
00000010: 3319 817f 7f81 7f81 ab7f 8133 9705 7fe7
00000020: 18e8 57fe b744 a24d a1e4 04f1 3d01 9be3
00000030: 817f e80d d410 e40e e400 0394 cf09 e3f2
00000040: b2d6 c5f1 f8e7 08e4 94a7 16f4 9881 0117
00000050: 0e01 3d02 0223 e721 8106 fe02 eb0c fd2b
00000060: 8db7 4102 f927 d934 b400 0004 2802 e617
00000070: 17fc 1cfe e529 de15 83f3 0053 c600 e491
00000080: 15f9 1000 040f 0916 8d04 ff81 6b02 1181
-108 18 -83 -127 39 -66 80 -76
-90 -3 -8 29 -127 5 54 -73
51 25 -127 127 127 -127 127 -127
-85 127 -127 51 -105 5 127 -25
24 -24 87 -2 -73 68 -94 77
-95 -28 4 -15 61 1 -101 -29
-127 127 -24 13 -44 16 -28 14
-28 0 3 -108 -49 9 -29 -14
-78 -42 -59 -15 -8 -25 8 -28
-108 -89 22 -12 -104 -127 1 23
14 1 61 2 2 35 -25 33
-127 6 -2 2 -21 12 -3 43
-115 -73 65 2 -7 39 -39 52
-76 0 0 4 40 2 -26 23
23 -4 28 -2 -27 41 -34 21
-125 -13 0 83 -58 0 -28 -111
21 -7 16 0 4 15 9 22
-115 4 -1 -127 107 2 17 -127

model_1/Conv1/Conv2D i1 [16, 3, 3, 3]
00000000: 0000 0000 0000 0000 0000 0000 0000 0000
00000010: 0000 0000 0000 0000 0000 001f fc1b f4ec
00000020: 1081 a5ce f9fb ffe4 01fc f1eb 05f5 0dfc
00000030: f506 fc1a f60b 13ff ee3f 71f6 1ee0 fc04
00000040: 12f3 3b7f da0e 02ef 34ca 094d e0e4 25d8
00000050: 0709 26f4 2160 0efd 03f9 1222 f73b 7f16
00000060: efef 050b 03f9 1a1a 04fe fd03 203e f90a
00000070: 49fc ec02 051d 4f2c 1573 2016 31f9 314e
00000080: 1d2f 7f10 f326 1809 ff89 fefe 98fd 1eea
00000090: 06d5 8100 d38e 010f edfa 04ec fff9 f103
000000a0: 10fc 19bf 1c2f a722 0ae9 0624 a03a 3f81
000000b0: 4508 e210 14dd 0f0e d41c f607 02e1 1104
000000c0: 94d9 01e8 1702 f3f8 0181 a3f9 fafb 05e9
000000d0: 1ef7 f30b 00ea 19fd 7b7f 727a 7e71 7a7d
000000e0: 707b 7d70 787b 6e79 7c6e 797c 7078 7c6f
000000f0: 797b 6eed f901 f2f5 f8fd f8ee 6c6f f451
0 0 0 0 0 0 0 0
0 0 0 0 0 0 0 0
0 0 0 0 0 0 0 0
0 0 0 31 -4 27 -12 -20
16 -127 -91 -50 -7 -5 -1 -28
1 -4 -15 -21 5 -11 13 -4
-11 6 -4 26 -10 11 19 -1
-18 63 113 -10 30 -32 -4 4
18 -13 59 127 -38 14 2 -17
52 -54 9 77 -32 -28 37 -40
7 9 38 -12 33 96 14 -3
3 -7 18 34 -9 59 127 22
-17 -17 5 11 3 -7 26 26
4 -2 -3 3 32 62 -7 10
73 -4 -20 2 5 29 79 44
21 115 32 22 49 -7 49 78
29 47 127 16 -13 38 24 9
-1 -119 -2 -2 -104 -3 30 -22
6 -43 -127 0 -45 -114 1 15
-19 -6 4 -20 -1 -7 -15 3
16 -4 25 -65 28 47 -89 34
10 -23 6 36 -96 58 63 -127
69 8 -30 16 20 -35 15 14
-44 28 -10 7 2 -31 17 4
-108 -39 1 -24 23 2 -13 -8
1 -127 -93 -7 -6 -5 5 -23
30 -9 -13 11 0 -22 25 -3
123 127 114 122 126 113 122 125
112 123 125 112 120 123 110 121
124 110 121 124 112 120 124 111
121 123 110 -19 -7 1 -14 -11
-8 -3 -8 -18 108 111 -12 81
