trained.tflite (tflite, 56672 bytes, 21 tensors)

model_1/logits/Conv2D i1 [4, 1, 1, 32]
0	0xff	-1
1	0xeb	-21
2	0xc6	-58
3	0xef	-17
4	0x7f	127
5	0xe5	-27
6	0x07	7
7	0xd7	-41
8	0x4a	74
9	0x02	2
10	0x28	40
11	0x41	65
12	0xbb	-69
13	0xe9	-23
14	0xe3	-29
15	0xf4	-12
16	0xf9	-7
17	0xdd	-35
18	0xbc	-68
19	0x1f	31
20	0x13	19
21	0x1e	30
22	0xf0	-16
23	0x3d	61
24	0xe6	-26
25	0xc8	-56
26	0xee	-18
27	0x1e	30
28	0x42	66
29	0xd6	-42
30	0x1b	27
31	0xfe	-2
32	0x35	53
33	0x4d	77
34	0xaa	-86
35	0xf4	-12
36	0xaa	-86
37	0x27	39
38	0x7e	126
39	0x2c	44
40	0xcb	-53
41	0xa5	-91
42	0xa2	-94
43	0x1c	28
44	0x5e	94
45	0xc3	-61
46	0x59	89
47	0x81	-127
48	0x7c	124
49	0x98	-104
50	0x03	3
51	0x8e	-114
52	0x0b	11
53	0xae	-82
54	0xa2	-94
55	0xe1	-31
56	0xfc	-4
57	0xa0	-96
58	0x42	66
59	0xbf	-65
60	0xc8	-56
61	0x95	-107
62	0xed	-19
63	0xd3	-45
64	0xe0	-32
65	0x64	100
66	0x17	23
67	0x54	84
68	0xbf	-65
69	0xf7	-9
70	0x61	97
71	0x26	38
72	0xa2	-94
73	0x94	-108
74	0x53	83
75	0xbc	-68
76	0x9f	-97
77	0x55	85
78	0x81	-127
79	0x41	65
80	0x33	51
81	0x49	73
82	0x68	104
83	0xa5	-91
84	0xf1	-15
85	0x14	20
86	0xc3	-61
87	0xc0	-64
88	0x16	22
89	0xaa	-86
90	0x54	84
91	0xa6	-90
92	0xc1	-63
93	0x0b	11
94	0x4c	76
95	0x40	64
96	0x34	52
97	0xcf	-49
98	0x37	55
99	0x02	2
100	0xec	-20
101	0x4e	78
102	0x15	21
103	0xf8	-8
104	0xfe	-2
105	0xb9	-71
106	0x15	21
107	0x48	72
108	0x38	56
109	0xfc	-4
110	0x81	-127
111	0xf1	-15
112	0x4c	76
113	0xb4	-76
114	0x4b	75
115	0xfe	-2
116	0xb0	-80
117	0x03	3
118	0xf4	-12
119	0xe2	-30
120	0x48	72
121	0xfc	-4
122	0xbc	-68
123	0x39	57
124	0xa8	-88
125	0x4d	77
126	0x1c	28
127	0x27	39

model_1/head/Conv2D i1 [32, 1, 1, 96]
0	0xdd	-35
1	0xd5	-43
2	0x56	86
3	0xf6	-10
4	0x4d	77
5	0xeb	-21
6	0xba	-70
7	0xae	-82
8	0x23	35
9	0xbb	-69
10	0xa2	-94
11	0x02	2
12	0x23	35
13	0x0b	11
14	0xe4	-28
15	0x2b	43
16	0xd8	-40
17	0xeb	-21
18	0xc8	-56
19	0xda	-38
20	0xc5	-59
21	0xab	-85
22	0x05	5
23	0x5b	91
24	0x81	-127
25	0x08	8
26	0x42	66
27	0xda	-38
28	0x67	103
29	0xfe	-2
30	0xef	-17
31	0xc2	-62
32	0x3e	62
33	0xc1	-63
34	0xb0	-80
35	0x31	49
36	0xac	-84
37	0xbf	-65
38	0xae	-82
39	0x14	20
40	0x40	64
41	0xbb	-69
42	0xb2	-78
43	0x53	83
44	0x29	41
45	0xa7	-89
46	0x54	84
47	0xf8	-8
48	0x09	9
49	0xdb	-37
50	0xd0	-48
51	0x5c	92
52	0xcb	-53
53	0xc6	-58
54	0xbb	-69
55	0x55	85
56	0x13	19
57	0x39	57
58	0x63	99
59	0xa7	-89
60	0xbd	-67
61	0x54	84
62	0xd7	-41
63	0x2e	46
64	0xdf	-33
65	0x0f	15
66	0x3b	59
67	0x41	65
68	0x1e	30
69	0x52	82
70	0x49	73
71	0xa3	-93
72	0x54	84
73	0xc0	-64
74	0x2a	42
75	0x43	67
76	0xb2	-78
77	0x0d	13
78	0xcf	-49
79	0x01	1
80	0x30	48
81	0x0e	14
82	0x45	69
83	0xf5	-11
84	0xd3	-45
85	0xdd	-35
86	0xba	-70
87	0x56	86
88	0x18	24
89	0x61	97
90	0xf9	-7
91	0x9b	-101
92	0x04	4
93	0x29	41
94	0x16	22
95	0x16	22
96	0xbb	-69
97	0x11	17
98	0xb8	-72
99	0xe7	-25
100	0xca	-54
101	0x3c	60
102	0x1f	31
103	0xf8	-8
104	0x49	73
105	0x8d	-115
106	0x8f	-113
107	0x69	105
108	0x2a	42
109	0xe8	-24
110	0x14	20
111	0x2e	46
112	0x60	96
113	0xd5	-43
114	0x06	6
115	0x7f	127
116	0xcf	-49
117	0xf2	-14
118	0x18	24
119	0x12	18
120	0x0d	13
121	0x18	24
122	0xd7	-41
123	0x69	105
124	0x03	3
125	0xf7	-9
126	0x5f	95
127	0xb7	-73
128	0x37	55
129	0x5c	92
130	0xed	-19
131	0x08	8
132	0x24	36
133	0x39	57
134	0xdd	-35
135	0xb2	-78
136	0xb9	-71
137	0xfb	-5
138	0xe3	-29
139	0x97	-105
140	0xda	-38
141	0x24	36
142	0xd6	-42
143	0xbe	-66
144	0xe0	-32
145	0xa6	-90
146	0x75	117
147	0x33	51
148	0xef	-17
149	0x3e	62
150	0xb8	-72
151	0xd7	-41
152	0x06	6
153	0x4f	79
154	0x2d	45
155	0x3a	58
156	0xd4	-44
157	0x6d	109
158	0xb2	-78
159	0xb6	-74
160	0xb3	-77
161	0x19	25
162	0x42	66
163	0x15	21
164	0x51	81
165	0x0e	14
166	0xf9	-7
167	0xf8	-8
168	0x8b	-117
169	0x62	98
170	0xb6	-74
171	0x25	37
172	0x49	73
173	0xc3	-61
174	0xd0	-48
175	0x45	69
176	0xa9	-87
177	0x59	89
178	0xd0	-48
179	0x81	-127
180	0x14	20
181	0x67	103
182	0xb0	-80
183	0xb3	-77
184	0x4a	74
185	0x56	86
186	0x55	85
187	0x0c	12
188	0x54	84
189	0x4a	74
190	0x29	41
191	0xe9	-23
192	0x41	65
193	0x25	37
194	0xa9	-87
195	0x54	84
196	0xf6	-10
197	0xab	-85
198	0x44	68
199	0x56	86
200	0x9f	-97
201	0x54	84
202	0xcc	-52
203	0x6e	110
204	0x64	100
205	0xf5	-11
206	0x36	54
207	0x81	-127
208	0xc2	-62
209	0xde	-34
210	0x24	36
211	0x0e	14
212	0xa8	-88
213	0xe1	-31
214	0x66	102
215	0x05	5
216	0xd6	-42
217	0x40	64
218	0x58	88
219	0x02	2
220	0xb2	-78
221	0x3c	60
222	0x50	80
223	0x5a	90
224	0xa7	-89
225	0xef	-17
226	0x86	-122
227	0x93	-109
228	0xa1	-95
229	0x4f	79
230	0x5a	90
231	0xda	-38
232	0x86	-122
233	0xaf	-81
234	0x06	6
235	0xf1	-15
236	0x95	-107
237	0x70	112
238	0xdd	-35
239	0xa2	-94
240	0x53	83
241	0x25	37
242	0x62	98
243	0xa4	-92
244	0xe2	-30
245	0x47	71
246	0xf8	-8
247	0x0a	10
248	0xc9	-55
249	0x74	116
250	0xa5	-91
251	0x10	16
252	0xf6	-10
253	0x37	55
254	0xdc	-36
255	0x4a	74

model_1/block_6_expand/Conv2D i1 [96, 1, 1, 16]
0	0xe9	-23
1	0x60	96
2	0x03	3
3	0x81	-127
4	0xcb	-53
5	0xdc	-36
6	0xe7	-25
7	0xc0	-64
8	0xec	-20
9	0x08	8
10	0xff	-1
11	0x50	80
12	0x1d	29
13	0xc4	-60
14	0xe8	-24
15	0x3c	60
16	0xd7	-41
17	0x25	37
18	0xd1	-47
19	0x04	4
20	0xd3	-45
21	0xe0	-32
22	0x25	37
23	0xc2	-62
24	0x42	66
25	0x4d	77
26	0xbd	-67
27	0x10	16
28	0xf4	-12
29	0x0e	14
30	0x3b	59
31	0x81	-127
32	0x1b	27
33	0x0d	13
34	0xc0	-64
35	0x36	54
36	0x4d	77
37	0x0f	15
38	0xad	-83
39	0xa7	-89
40	0x7f	127
41	0xce	-50
42	0xfa	-6
43	0xf4	-12
44	0x03	3
45	0x58	88
46	0x86	-122
47	0x29	41
48	0x3d	61
49	0xc6	-58
50	0x17	23
51	0xb1	-79
52	0x1f	31
53	0xff	-1
54	0xee	-18
55	0x16	22
56	0x7f	127
57	0x0b	11
58	0x4a	74
59	0x50	80
60	0x04	4
61	0x31	49
62	0xf9	-7
63	0x46	70
64	0x8d	-115
65	0x29	41
66	0x14	20
67	0x2c	44
68	0xe1	-31
69	0xda	-38
70	0x19	25
71	0x36	54
72	0x38	56
73	0x05	5
74	0x16	22
75	0x00	0
76	0x81	-127
77	0xf7	-9
78	0xd5	-43
79	0x20	32
80	0x14	20
81	0x5e	94
82	0x7c	124
83	0x21	33
84	0x18	24
85	0x58	88
86	0xa6	-90
87	0x44	68
88	0xb9	-71
89	0x42	66
90	0xe0	-32
91	0xc9	-55
92	0x21	33
93	0xbc	-68
94	0x81	-127
95	0x19	25
96	0x16	22
97	0xcd	-51
98	0x78	120
99	0x81	-127
100	0x24	36
101	0x06	6
102	0xcc	-52
103	0x51	81
104	0xc8	-56
105	0x90	-112
106	0x40	64
107	0xf0	-16
108	0x0d	13
109	0x68	104
110	0xc7	-57
111	0x3d	61
112	0x22	34
113	0x75	117
114	0xed	-19
115	0xae	-82
116	0x51	81
117	0x04	4
118	0x0c	12
119	0xc3	-61
120	0x7f	127
121	0x7e	126
122	0xda	-38
123	0x0a	10
124	0x0f	15
125	0xeb	-21
126	0x58	88
127	0x5f	95
128	0x0e	14
129	0x9c	-100
130	0x19	25
131	0x9b	-101
132	0x15	21
133	0xc1	-63
134	0x13	19
135	0xa8	-88
136	0x20	32
137	0x51	81
138	0x48	72
139	0xf4	-12
140	0x19	25
141	0x7f	127
142	0x4b	75
143	0x56	86
144	0x06	6
145	0xe2	-30
146	0x04	4
147	0x7f	127
148	0x22	34
149	0x02	2
150	0x1e	30
151	0xd7	-41
152	0xcd	-51
153	0x6c	108
154	0x1a	26
155	0xf5	-11
156	0xf7	-9
157	0xce	-50
158	0xfd	-3
159	0xe8	-24
160	0xee	-18
161	0x1a	26
162	0xc6	-58
163	0x81	-127
164	0x12	18
165	0x10	16
166	0xf2	-14
167	0x26	38
168	0x32	50
169	0xd0	-48
170	0x22	34
171	0xfe	-2
172	0xed	-19
173	0xcd	-51
174	0xdf	-33
175	0xf4	-12
176	0xf6	-10
177	0x19	25
178	0x10	16
179	0xdd	-35
180	0x4a	74
181	0xe6	-26
182	0x5e	94
183	0xb8	-72
184	0xae	-82
185	0x22	34
186	0x0a	10
187	0x29	41
188	0xf7	-9
189	0x7f	127
190	0xae	-82
191	0xd9	-39
192	0x4a	74
193	0x01	1
194	0x81	-127
195	0xe4	-28
196	0x1c	28
197	0x9c	-100
198	0x15	21
199	0x01	1
200	0x00	0
201	0x47	71
202	0x9d	-99
203	0xaf	-81
204	0xe1	-31
205	0x71	113
206	0xe4	-28
207	0x1d	29
208	0xf8	-8
209	0x05	5
210	0xdf	-33
211	0x0d	13
212	0x04	4
213	0x81	-127
214	0xfb	-5
215	0x0e	14
216	0xfe	-2
217	0xf0	-16
218	0x03	3
219	0xfe	-2
220	0x08	8
221	0xf7	-9
222	0x10	16
223	0x0d	13
224	0x1f	31
225	0xe2	-30
226	0x58	88
227	0xe8	-24
228	0x59	89
229	0xfe	-2
230	0x81	-127
231	0x8f	-113
232	0xd7	-41
233	0xcc	-52
234	0x1a	26
235	0x08	8
236	0xfb	-5
237	0xc6	-58
238	0xfc	-4
239	0xe2	-30
240	0x9b	-101
241	0x2a	42
242	0xe4	-28
243	0xd7	-41
244	0xf1	-15
245	0x10	16
246	0x7f	127
247	0x1c	28
248	0xe3	-29
249	0x0a	10
250	0x5e	94
251	0x01	1
252	0x02	2
253	0x66	102
254	0x2f	47
255	0xee	-18

model_1/block_5_project/Conv2D i1 [16, 1, 1, 96]
0	0xee	-18
1	0xf3	-13
2	0x03	3
3	0xdb	-37
4	0x14	20
5	0xf5	-11
6	0xce	-50
7	0xff	-1
8	0x12	18
9	0xfd	-3
10	0xfd	-3
11	0xfa	-6
12	0xf7	-9
13	0xed	-19
14	0xe3	-29
15	0x13	19
16	0xfd	-3
17	0x05	5
18	0xfc	-4
19	0xf4	-12
20	0xfc	-4
21	0xd0	-48
22	0x04	4
23	0x00	0
24	0xf4	-12
25	0x15	21
26	0xed	-19
27	0x7f	127
28	0x29	41
29	0xd5	-43
30	0x1c	28
31	0x05	5
32	0x05	5
33	0x07	7
34	0x09	9
35	0x00	0
36	0xf8	-8
37	0x0f	15
38	0xcc	-52
39	0xfd	-3
40	0xdd	-35
41	0x0a	10
42	0xfd	-3
43	0x23	35
44	0x0e	14
45	0x07	7
46	0x0c	12
47	0x02	2
48	0x15	21
49	0x06	6
50	0xf6	-10
51	0x04	4
52	0x0a	10
53	0xee	-18
54	0xfc	-4
55	0x4f	79
56	0x09	9
57	0x04	4
58	0xec	-20
59	0xe0	-32
60	0xf8	-8
61	0x16	22
62	0x09	9
63	0xe3	-29
64	0xd6	-42
65	0xbf	-65
66	0xe2	-30
67	0x2f	47
68	0xfb	-5
69	0x0e	14
70	0x11	17
71	0xf0	-16
72	0xf0	-16
73	0xe1	-31
74	0xfd	-3
75	0xe0	-32
76	0xf8	-8
77	0x0c	12
78	0x00	0
79	0x05	5
80	0xfd	-3
81	0xcd	-51
82	0x16	22
83	0x1e	30
84	0x00	0
85	0xf9	-7
86	0xf0	-16
87	0x9c	-100
88	0xff	-1
89	0xee	-18
90	0x0c	12
91	0x01	1
92	0x33	51
93	0xcb	-53
94	0xda	-38
95	0xfc	-4
96	0x30	48
97	0xa1	-95
98	0xa7	-89
99	0xc5	-59
100	0x70	112
101	0xe5	-27
102	0x59	89
103	0x34	52
104	0xeb	-21
105	0xaa	-86
106	0xc1	-63
107	0xe4	-28
108	0xff	-1
109	0xf3	-13
110	0xba	-70
111	0x10	16
112	0xb7	-73
113	0xf8	-8
114	0x40	64
115	0x33	51
116	0xf8	-8
117	0x25	37
118	0x04	4
119	0x91	-111
120	0x0f	15
121	0x03	3
122	0xef	-17
123	0xb8	-72
124	0x1f	31
125	0xda	-38
126	0xb8	-72
127	0x38	56
128	0xf1	-15
129	0x3e	62
130	0x14	20
131	0x17	23
132	0x1d	29
133	0xf9	-7
134	0xf5	-11
135	0x18	24
136	0xee	-18
137	0x32	50
138	0xd4	-44
139	0xfd	-3
140	0xda	-38
141	0x60	96
142	0x11	17
143	0x09	9
144	0x19	25
145	0xa6	-90
146	0x02	2
147	0xc5	-59
148	0xf9	-7
149	0x2f	47
150	0x44	68
151	0x1e	30
152	0xc7	-57
153	0xeb	-21
154	0xde	-34
155	0xda	-38
156	0x12	18
157	0xda	-38
158	0xf9	-7
159	0xc1	-63
160	0x9f	-97
161	0x78	120
162	0xde	-34
163	0xdf	-33
164	0xed	-19
165	0xc1	-63
166	0xe8	-24
167	0x22	34
168	0x3a	58
169	0x87	-121
170	0xcb	-53
171	0xfe	-2
172	0x30	48
173	0xb2	-78
174	0x30	48
175	0x07	7
176	0x0a	10
177	0xc6	-58
178	0x17	23
179	0x0f	15
180	0xca	-54
181	0x33	51
182	0xe3	-29
183	0x28	40
184	0x0b	11
185	0xcb	-53
186	0x07	7
187	0xfc	-4
188	0x1d	29
189	0xfe	-2
190	0x36	54
191	0x7f	127
192	0xe9	-23
193	0x44	68
194	0xa9	-87
195	0x06	6
196	0x3e	62
197	0x50	80
198	0x40	64
199	0x3b	59
200	0xef	-17
201	0x91	-111
202	0xfa	-6
203	0xf9	-7
204	0xf2	-14
205	0x22	34
206	0x31	49
207	0x06	6
208	0x02	2
209	0xf6	-10
210	0xd7	-41
211	0x66	102
212	0x35	53
213	0x19	25
214	0x52	82
215	0x17	23
216	0x54	84
217	0x02	2
218	0x0e	14
219	0xe2	-30
220	0x04	4
221	0x03	3
222	0x40	64
223	0xbb	-69
224	0x18	24
225	0x26	38
226	0xe4	-28
227	0x29	41
228	0x81	-127
229	0xaf	-81
230	0x3f	63
231	0x1b	27
232	0x31	49
233	0xd1	-47
234	0x1a	26
235	0xed	-19
236	0x15	21
237	0xec	-20
238	0x11	17
239	0x44	68
240	0xf9	-7
241	0x1c	28
242	0xf1	-15
243	0xf1	-15
244	0x56	86
245	0xed	-19
246	0xf1	-15
247	0x45	69
248	0x1a	26
249	0x19	25
250	0x14	20
251	0xfe	-2
252	0x25	37
253	0x31	49
254	0x0b	11
255	0xea	-22

model_1/block_5_depthwise_BN/FusedBatchNormV3;model_1/block_5_depthwise/depthwise;model_1/block_6_expand/Conv2D i1 [1, 3, 3, 96]
0	0xd2	-46
1	0xb9	-71
2	0xf5	-11
3	0x7f	127
4	0x15	21
5	0x4a	74
6	0x51	81
7	0xca	-54
8	0xf1	-15
9	0xee	-18
10	0xf1	-15
11	0xfc	-4
12	0xe2	-30
13	0x03	3
14	0x25	37
15	0x02	2
16	0xf7	-9
17	0xd6	-42
18	0x1c	28
19	0x17	23
20	0x11	17
21	0x81	-127
22	0x7f	127
23	0x06	6
24	0xa7	-89
25	0x03	3
26	0x33	51
27	0xe4	-28
28	0x81	-127
29	0x81	-127
30	0x27	39
31	0x18	24
32	0x0a	10
33	0x19	25
34	0x3e	62
35	0xf0	-16
36	0xe0	-32
37	0xf5	-11
38	0x1a	26
39	0xfa	-6
40	0xee	-18
41	0x1b	27
42	0x95	-107
43	0x43	67
44	0x19	25
45	0xb8	-72
46	0x25	37
47	0x2e	46
48	0xee	-18
49	0x32	50
50	0xe6	-26
51	0x14	20
52	0x05	5
53	0xf9	-7
54	0x11	17
55	0x30	48
56	0xa7	-89
57	0xd1	-47
58	0xc5	-59
59	0xef	-17
60	0xfa	-6
61	0xff	-1
62	0x05	5
63	0x26	38
64	0x45	69
65	0xe9	-23
66	0x4c	76
67	0x10	16
68	0xf8	-8
69	0x0e	14
70	0x13	19
71	0x7f	127
72	0x17	23
73	0x17	23
74	0x1d	29
75	0x00	0
76	0xf5	-11
77	0x12	18
78	0x7f	127
79	0xf9	-7
80	0xf0	-16
81	0x0e	14
82	0xe5	-27
83	0x15	21
84	0x7b	123
85	0x18	24
86	0xb7	-73
87	0xf0	-16
88	0x01	1
89	0xe1	-31
90	0xef	-17
91	0xda	-38
92	0x03	3
93	0xe9	-23
94	0xf0	-16
95	0x18	24
96	0x7f	127
97	0x81	-127
98	0x43	67
99	0x67	103
100	0xd5	-43
101	0x7f	127
102	0x30	48
103	0x90	-112
104	0x45	69
105	0x03	3
106	0xef	-17
107	0x7f	127
108	0x7f	127
109	0xa0	-96
110	0xf3	-13
111	0x0f	15
112	0x09	9
113	0x7f	127
114	0x7f	127
115	0x92	-110
116	0x7f	127
117	0xbb	-69
118	0x4f	79
119	0x41	65
120	0x81	-127
121	0x87	-121
122	0xbb	-69
123	0xdf	-33
124	0xc4	-60
125	0x2e	46
126	0xc6	-58
127	0xea	-22
128	0xa2	-94
129	0x2e	46
130	0x81	-127
131	0xaf	-81
132	0xd4	-44
133	0xf1	-15
134	0xcb	-53
135	0x39	57
136	0xfd	-3
137	0x7f	127
138	0x7f	127
139	0x48	72
140	0xcd	-51
141	0x8b	-117
142	0x95	-107
143	0xce	-50
144	0xf2	-14
145	0x81	-127
146	0x28	40
147	0x58	88
148	0x45	69
149	0xe2	-30
150	0x2f	47
151	0x51	81
152	0xd3	-45
153	0x2c	44
154	0xab	-85
155	0x91	-111
156	0xd7	-41
157	0xd5	-43
158	0xc1	-63
159	0x43	67
160	0x4a	74
161	0xc6	-58
162	0x1c	28
163	0x25	37
164	0xaf	-81
165	0x20	32
166	0xee	-18
167	0x5a	90
168	0x77	119
169	0x7f	127
170	0x11	17
171	0x13	19
172	0x01	1
173	0x3b	59
174	0xe0	-32
175	0x35	53
176	0x40	64
177	0x7f	127
178	0x7f	127
179	0xe9	-23
180	0xf7	-9
181	0x4a	74
182	0x9c	-100
183	0x7f	127
184	0x89	-119
185	0x9a	-102
186	0x01	1
187	0x81	-127
188	0xa8	-88
189	0x81	-127
190	0xd9	-39
191	0x69	105
192	0xb9	-71
193	0xf3	-13
194	0x19	25
195	0xaa	-86
196	0x0f	15
197	0xe9	-23
198	0x50	80
199	0xfb	-5
200	0x50	80
201	0xdd	-35
202	0xe5	-27
203	0x13	19
204	0xee	-18
205	0xff	-1
206	0xf8	-8
207	0xf6	-10
208	0xf7	-9
209	0xf1	-15
210	0x08	8
211	0xfd	-3
212	0xed	-19
213	0x88	-120
214	0x1d	29
215	0xfe	-2
216	0x85	-123
217	0x65	101
218	0x03	3
219	0xcb	-53
220	0x77	119
221	0x32	50
222	0xf1	-15
223	0x02	2
224	0xff	-1
225	0x08	8
226	0x0f	15
227	0xe4	-28
228	0xf7	-9
229	0x1f	31
230	0x14	20
231	0x0e	14
232	0x19	25
233	0x0c	12
234	0x8b	-117
235	0x3c	60
236	0x11	17
237	0xec	-20
238	0x23	35
239	0x0f	15
240	0xf1	-15
241	0x09	9
242	0xf0	-16
243	0x03	3
244	0xf9	-7
245	0x04	4
246	0xff	-1
247	0x12	18
248	0xbf	-65
249	0x08	8
250	0xe1	-31
251	0x36	54
252	0x04	4
253	0x2a	42
254	0x23	35
255	0x01	1

model_1/block_5_expand/Conv2D i1 [96, 1, 1, 16]
0	0x0a	10
1	0x60	96
2	0xda	-38
3	0x08	8
4	0x02	2
5	0x38	56
6	0x22	34
7	0x0b	11
8	0x13	19
9	0x29	41
10	0xbd	-67
11	0x5e	94
12	0x1e	30
13	0x81	-127
14	0x11	17
15	0x96	-106
16	0x17	23
17	0x2e	46
18	0x0d	13
19	0xea	-22
20	0x0d	13
21	0xc0	-64
22	0x7f	127
23	0xa0	-96
24	0xf6	-10
25	0x37	55
26	0xfb	-5
27	0xe1	-31
28	0x0e	14
29	0xd7	-41
30	0x28	40
31	0x30	48
32	0x84	-124
33	0x15	21
34	0xf4	-12
35	0x02	2
36	0x0e	14
37	0x29	41
38	0x27	39
39	0x3a	58
40	0xef	-17
41	0x43	67
42	0x7f	127
43	0xda	-38
44	0xbd	-67
45	0x08	8
46	0x2e	46
47	0xc8	-56
48	0xf2	-14
49	0x14	20
50	0x16	22
51	0x33	51
52	0xc9	-55
53	0x10	16
54	0x27	39
55	0x52	82
56	0x08	8
57	0x0a	10
58	0x81	-127
59	0xda	-38
60	0x4f	79
61	0xb4	-76
62	0xae	-82
63	0xe4	-28
64	0xfa	-6
65	0xeb	-21
66	0x3c	60
67	0x4a	74
68	0xd3	-45
69	0x4a	74
70	0x02	2
71	0x2b	43
72	0x1d	29
73	0x0f	15
74	0x0a	10
75	0x06	6
76	0x16	22
77	0xf6	-10
78	0x81	-127
79	0xf1	-15
80	0xee	-18
81	0xf2	-14
82	0x4e	78
83	0x07	7
84	0x13	19
85	0xe2	-30
86	0x06	6
87	0x37	55
88	0x99	-103
89	0x69	105
90	0xf8	-8
91	0x81	-127
92	0x1f	31
93	0x23	35
94	0xb1	-79
95	0xdb	-37
96	0xf7	-9
97	0xf8	-8
98	0x38	56
99	0xeb	-21
100	0x52	82
101	0x5c	92
102	0xa2	-94
103	0x9b	-101
104	0xf0	-16
105	0xf6	-10
106	0x56	86
107	0xe0	-32
108	0x7f	127
109	0xf2	-14
110	0xe9	-23
111	0xda	-38
112	0x11	17
113	0xf5	-11
114	0x7f	127
115	0xe8	-24
116	0x02	2
117	0xe0	-32
118	0x17	23
119	0xe6	-26
120	0x90	-112
121	0x49	73
122	0xb6	-74
123	0xb0	-80
124	0xe4	-28
125	0xfd	-3
126	0x39	57
127	0xe1	-31
128	0x1a	26
129	0x07	7
130	0x55	85
131	0x41	65
132	0xd7	-41
133	0x4c	76
134	0x00	0
135	0x38	56
136	0x3e	62
137	0x1d	29
138	0x04	4
139	0xb1	-79
140	0xe3	-29
141	0x31	49
142	0x81	-127
143	0xc6	-58
144	0xfc	-4
145	0xac	-84
146	0x73	115
147	0x44	68
148	0x29	41
149	0xd5	-43
150	0x01	1
151	0x1c	28
152	0x7f	127
153	0xcf	-49
154	0x45	69
155	0x33	51
156	0xd4	-44
157	0x10	16
158	0x84	-124
159	0xb5	-75
160	0xe7	-25
161	0xc6	-58
162	0x10	16
163	0xfc	-4
164	0xc3	-61
165	0x14	20
166	0xeb	-21
167	0x2d	45
168	0x5b	91
169	0x7f	127
170	0x2a	42
171	0xfc	-4
172	0xe2	-30
173	0x28	40
174	0x55	85
175	0xf5	-11
176	0x18	24
177	0xf6	-10
178	0x2c	44
179	0xa4	-92
180	0x32	50
181	0xbf	-65
182	0xb1	-79
183	0x81	-127
184	0xdd	-35
185	0x4c	76
186	0x0a	10
187	0xfd	-3
188	0x3a	58
189	0xe7	-25
190	0x34	52
191	0x93	-109
192	0x33	51
193	0xf2	-14
194	0xe2	-30
195	0xd6	-42
196	0xc5	-59
197	0xd0	-48
198	0x8e	-114
199	0x03	3
200	0x81	-127
201	0x95	-107
202	0xd3	-45
203	0xde	-34
204	0x2b	43
205	0x77	119
206	0x70	112
207	0x6a	106
208	0xf1	-15
209	0x9f	-97
210	0xba	-70
211	0x20	32
212	0xef	-17
213	0xc2	-62
214	0xf8	-8
215	0xe4	-28
216	0x36	54
217	0xf3	-13
218	0x15	21
219	0x21	33
220	0x24	36
221	0x46	70
222	0x7f	127
223	0x45	69
224	0xfc	-4
225	0xb8	-72
226	0x43	67
227	0x19	25
228	0x05	5
229	0x24	36
230	0x12	18
231	0x7f	127
232	0x01	1
233	0x57	87
234	0x05	5
235	0xe0	-32
236	0x25	37
237	0x3e	62
238	0xb4	-76
239	0x7f	127
240	0x2c	44
241	0xde	-34
242	0xf1	-15
243	0x2c	44
244	0x15	21
245	0xf6	-10
246	0x53	83
247	0xf0	-16
248	0xfb	-5
249	0x81	-127
250	0x13	19
251	0xdf	-33
252	0x19	25
253	0xe9	-23
254	0xf5	-11
255	0xe3	-29

model_1/block_4_project/Conv2D i1 [16, 1, 1, 96]
0	0xf5	-11
1	0x0f	15
2	0xeb	-21
3	0x18	24
4	0x37	55
5	0x4c	76
6	0xda	-38
7	0xdc	-36
8	0x34	52
9	0x0d	13
10	0x02	2
11	0x0c	12
12	0xfa	-6
13	0x1b	27
14	0x22	34
15	0x43	67
16	0x08	8
17	0xfd	-3
18	0x04	4
19	0x07	7
20	0x66	102
21	0xcb	-53
22	0xf9	-7
23	0xdf	-33
24	0xe3	-29
25	0xd8	-40
26	0xdf	-33
27	0x97	-105
28	0xff	-1
29	0xf6	-10
30	0x3b	59
31	0x2b	43
32	0x7e	126
33	0xf3	-13
34	0x03	3
35	0x03	3
36	0xfa	-6
37	0xfb	-5
38	0xe7	-25
39	0x07	7
40	0xdd	-35
41	0x0c	12
42	0x0d	13
43	0xe4	-28
44	0x01	1
45	0xf9	-7
46	0xf1	-15
47	0x10	16
48	0xe7	-25
49	0x15	21
50	0xf5	-11
51	0xf8	-8
52	0xeb	-21
53	0xef	-17
54	0xff	-1
55	0xea	-22
56	0x25	37
57	0x21	33
58	0xdc	-36
59	0xde	-34
60	0xbd	-67
61	0x25	37
62	0xec	-20
63	0x01	1
64	0x05	5
65	0x08	8
66	0x2e	46
67	0x15	21
68	0xf7	-9
69	0xfd	-3
70	0xf9	-7
71	0xf4	-12
72	0xb2	-78
73	0xf3	-13
74	0xf2	-14
75	0xf8	-8
76	0x01	1
77	0xaa	-86
78	0x1b	27
79	0xf1	-15
80	0x18	24
81	0xf6	-10
82	0xca	-54
83	0xc9	-55
84	0x16	22
85	0xea	-22
86	0xf8	-8
87	0x0f	15
88	0x02	2
89	0xf7	-9
90	0x08	8
91	0xd9	-39
92	0x09	9
93	0x17	23
94	0xef	-17
95	0x7f	127
96	0x34	52
97	0xab	-85
98	0x09	9
99	0x49	73
100	0xfc	-4
101	0xc5	-59
102	0xe6	-26
103	0xe4	-28
104	0xed	-19
105	0xca	-54
106	0x00	0
107	0x2f	47
108	0x0e	14
109	0xb8	-72
110	0xdf	-33
111	0xcb	-53
112	0xa7	-89
113	0x06	6
114	0x06	6
115	0x28	40
116	0xfb	-5
117	0x8c	-116
118	0xf6	-10
119	0x0a	10
120	0x7f	127
121	0xd7	-41
122	0xc4	-60
123	0x15	21
124	0xf3	-13
125	0x59	89
126	0xf9	-7
127	0x29	41
128	0xff	-1
129	0x12	18
130	0xbb	-69
131	0x15	21
132	0xe7	-25
133	0x0e	14
134	0x3a	58
135	0xcd	-51
136	0x19	25
137	0xbd	-67
138	0x3b	59
139	0xf1	-15
140	0xc7	-57
141	0xf7	-9
142	0x3e	62
143	0xf6	-10
144	0x17	23
145	0x09	9
146	0x02	2
147	0xd2	-46
148	0x3a	58
149	0xb9	-71
150	0x2a	42
151	0xd2	-46
152	0x1e	30
153	0x22	34
154	0xea	-22
155	0xa2	-94
156	0x15	21
157	0xd5	-43
158	0x10	16
159	0xe7	-25
160	0xe8	-24
161	0xa8	-88
162	0x23	35
163	0x0d	13
164	0xfe	-2
165	0x2d	45
166	0xb0	-80
167	0xef	-17
168	0x94	-108
169	0x27	39
170	0x05	5
171	0x4f	79
172	0x33	51
173	0x53	83
174	0x0e	14
175	0xf7	-9
176	0x20	32
177	0x1d	29
178	0xbd	-67
179	0x15	21
180	0x99	-103
181	0x42	66
182	0x07	7
183	0x30	48
184	0xe2	-30
185	0x1a	26
186	0x21	33
187	0x04	4
188	0x03	3
189	0xd1	-47
190	0x1f	31
191	0x05	5
192	0x1e	30
193	0x0a	10
194	0x06	6
195	0xde	-34
196	0x03	3
197	0xef	-17
198	0xf7	-9
199	0x28	40
200	0x3a	58
201	0xee	-18
202	0x0a	10
203	0x33	51
204	0x05	5
205	0x00	0
206	0x22	34
207	0xfa	-6
208	0xde	-34
209	0xed	-19
210	0x0e	14
211	0xf7	-9
212	0xdf	-33
213	0xbe	-66
214	0x12	18
215	0xd0	-48
216	0xfa	-6
217	0xfc	-4
218	0xdf	-33
219	0x1f	31
220	0xfc	-4
221	0x13	19
222	0x71	113
223	0xcb	-53
224	0x13	19
225	0xb0	-80
226	0xe4	-28
227	0x3d	61
228	0x0f	15
229	0x7f	127
230	0xe6	-26
231	0xec	-20
232	0x0b	11
233	0xe4	-28
234	0xf9	-7
235	0x16	22
236	0xd8	-40
237	0xbf	-65
238	0xb9	-71
239	0x17	23
240	0x22	34
241	0x2c	44
242	0xea	-22
243	0xdf	-33
244	0x14	20
245	0x06	6
246	0xf7	-9
247	0xe4	-28
248	0xea	-22
249	0xf5	-11
250	0xfb	-5
251	0x1c	28
252	0x05	5
253	0xff	-1
254	0x50	80
255	0x60	96

model_1/block_4_depthwise_BN/FusedBatchNormV3;model_1/block_4_depthwise/depthwise;model_1/block_6_expand/Conv2D i1 [1, 3, 3, 96]
0	0xf0	-16
1	0x06	6
2	0xec	-20
3	0x6a	106
4	0xea	-22
5	0x17	23
6	0xc0	-64
7	0xcb	-53
8	0x0e	14
9	0xfb	-5
10	0x61	97
11	0xf7	-9
12	0x06	6
13	0xf8	-8
14	0xfc	-4
15	0x37	55
16	0x07	7
17	0x0f	15
18	0xd9	-39
19	0xff	-1
20	0x49	73
21	0x04	4
22	0x21	33
23	0xe0	-32
24	0x02	2
25	0x10	16
26	0x27	39
27	0x2c	44
28	0x14	20
29	0x0f	15
30	0x17	23
31	0x31	49
32	0xf6	-10
33	0x18	24
34	0x0c	12
35	0xf2	-14
36	0x04	4
37	0x2f	47
38	0xba	-70
39	0xe5	-27
40	0x14	20
41	0x08	8
42	0x1b	27
43	0x12	18
44	0xab	-85
45	0xc5	-59
46	0x18	24
47	0xfb	-5
48	0xf5	-11
49	0xec	-20
50	0xf8	-8
51	0xfa	-6
52	0x32	50
53	0x07	7
54	0xf3	-13
55	0x01	1
56	0x02	2
57	0xdc	-36
58	0x1b	27
59	0xe2	-30
60	0x18	24
61	0xfb	-5
62	0x7f	127
63	0x1a	26
64	0xf3	-13
65	0xf5	-11
66	0x0a	10
67	0xca	-54
68	0x41	65
69	0x24	36
70	0xf9	-7
71	0xf7	-9
72	0x4b	75
73	0xdc	-36
74	0x42	66
75	0x05	5
76	0x0f	15
77	0x81	-127
78	0x1e	30
79	0x3f	63
80	0x03	3
81	0x0b	11
82	0x7f	127
83	0xf1	-15
84	0x26	38
85	0x1e	30
86	0xe4	-28
87	0xe9	-23
88	0x24	36
89	0xfa	-6
90	0xf2	-14
91	0x52	82
92	0x00	0
93	0x14	20
94	0xfe	-2
95	0x0e	14
96	0xd0	-48
97	0x0b	11
98	0xf8	-8
99	0x0b	11
100	0x33	51
101	0xf8	-8
102	0xf4	-12
103	0x81	-127
104	0x24	36
105	0x0f	15
106	0x81	-127
107	0xfd	-3
108	0xf1	-15
109	0xf3	-13
110	0x04	4
111	0x61	97
112	0x10	16
113	0xe2	-30
114	0xee	-18
115	0xed	-19
116	0x4c	76
117	0xa1	-95
118	0x7f	127
119	0x1b	27
120	0xc3	-61
121	0xdf	-33
122	0x98	-104
123	0xf2	-14
124	0x1b	27
125	0x23	35
126	0xcf	-49
127	0x14	20
128	0x70	112
129	0x0a	10
130	0xf7	-9
131	0xff	-1
132	0xea	-22
133	0x7f	127
134	0xc1	-63
135	0x81	-127
136	0x08	8
137	0xee	-18
138	0xe1	-31
139	0x0e	14
140	0x30	48
141	0x81	-127
142	0x7f	127
143	0xd3	-45
144	0xb4	-76
145	0x35	53
146	0x32	50
147	0x07	7
148	0x28	40
149	0xbf	-65
150	0x1c	28
151	0x36	54
152	0x27	39
153	0x28	40
154	0xa5	-91
155	0x4f	79
156	0x7f	127
157	0x20	32
158	0x05	5
159	0xec	-20
160	0x2b	43
161	0xdb	-37
162	0xa4	-92
163	0xfd	-3
164	0x26	38
165	0xe2	-30
166	0xed	-19
167	0x2c	44
168	0xcf	-49
169	0xcd	-51
170	0x6a	106
171	0xfe	-2
172	0xe3	-29
173	0xc3	-61
174	0xdf	-33
175	0x3c	60
176	0xc0	-64
177	0x3b	59
178	0xf1	-15
179	0x07	7
180	0xf7	-9
181	0x31	49
182	0x35	53
183	0xd3	-45
184	0xe7	-25
185	0x32	50
186	0xf3	-13
187	0x49	73
188	0x81	-127
189	0xe2	-30
190	0x17	23
191	0x81	-127
192	0x01	1
193	0xfb	-5
194	0xe9	-23
195	0xb8	-72
196	0x08	8
197	0x14	20
198	0x24	36
199	0x13	19
200	0xfb	-5
201	0xfe	-2
202	0x06	6
203	0x3f	63
204	0x02	2
205	0xf4	-12
206	0xf5	-11
207	0x0d	13
208	0xf1	-15
209	0x10	16
210	0xee	-18
211	0x0e	14
212	0x06	6
213	0x1a	26
214	0x16	22
215	0xe1	-31
216	0xff	-1
217	0xdf	-33
218	0x07	7
219	0x0c	12
220	0xfa	-6
221	0x08	8
222	0x2e	46
223	0xb3	-77
224	0x2a	42
225	0x0e	14
226	0x0d	13
227	0xea	-22
228	0x0d	13
229	0x05	5
230	0xdf	-33
231	0xea	-22
232	0x08	8
233	0x05	5
234	0xef	-17
235	0x07	7
236	0x15	21
237	0xe1	-31
238	0x13	19
239	0x00	0
240	0x07	7
241	0xfc	-4
242	0x05	5
243	0xfb	-5
244	0x06	6
245	0x05	5
246	0xf8	-8
247	0x07	7
248	0xfc	-4
249	0x29	41
250	0x0a	10
251	0xfb	-5
252	0x0c	12
253	0xf2	-14
254	0x05	5
255	0xee	-18

model_1/block_4_expand/Conv2D i1 [96, 1, 1, 16]
0	0x23	35
1	0xf9	-7
2	0x74	116
3	0x67	103
4	0x43	67
5	0xda	-38
6	0xf1	-15
7	0xe3	-29
8	0x7f	127
9	0xea	-22
10	0xca	-54
11	0xb9	-71
12	0xfd	-3
13	0x68	104
14	0xef	-17
15	0xc2	-62
16	0x0c	12
17	0x7b	123
18	0xcc	-52
19	0xc2	-62
20	0x7f	127
21	0xce	-50
22	0x0a	10
23	0xfd	-3
24	0x1c	28
25	0x18	24
26	0x09	9
27	0x3f	63
28	0xc3	-61
29	0xcb	-53
30	0x64	100
31	0x88	-120
32	0x23	35
33	0xe4	-28
34	0xea	-22
35	0x0b	11
36	0xcb	-53
37	0x2d	45
38	0xe0	-32
39	0x4c	76
40	0xc1	-63
41	0xce	-50
42	0x09	9
43	0x3d	61
44	0x0f	15
45	0x81	-127
46	0x33	51
47	0xb6	-74
48	0x69	105
49	0x7f	127
50	0x00	0
51	0x15	21
52	0x8a	-118
53	0xfc	-4
54	0xd0	-48
55	0xf2	-14
56	0xf7	-9
57	0x0c	12
58	0x6b	107
59	0xd3	-45
60	0xbe	-66
61	0x4b	75
62	0xdc	-36
63	0xea	-22
64	0x1d	29
65	0x0e	14
66	0xf0	-16
67	0xfa	-6
68	0xf5	-11
69	0x14	20
70	0xed	-19
71	0x39	57
72	0xaf	-81
73	0xc8	-56
74	0xfa	-6
75	0xf9	-7
76	0x0c	12
77	0x81	-127
78	0x03	3
79	0xff	-1
80	0x3e	62
81	0xec	-20
82	0xfb	-5
83	0xfa	-6
84	0xfb	-5
85	0xba	-70
86	0xe9	-23
87	0xfe	-2
88	0xfc	-4
89	0x11	17
90	0x81	-127
91	0xf2	-14
92	0x0a	10
93	0xf9	-7
94	0xfc	-4
95	0x24	36
96	0x9f	-97
97	0xca	-54
98	0xf8	-8
99	0x7f	127
100	0xb7	-73
101	0xd3	-45
102	0xdc	-36
103	0x44	68
104	0x9b	-101
105	0xc4	-60
106	0x93	-109
107	0xa3	-93
108	0x1e	30
109	0x58	88
110	0x28	40
111	0x5d	93
112	0xe2	-30
113	0x30	48
114	0xa3	-93
115	0x30	48
116	0x0c	12
117	0x81	-127
118	0xff	-1
119	0x47	71
120	0x09	9
121	0xe3	-29
122	0x26	38
123	0x01	1
124	0x09	9
125	0x07	7
126	0xe5	-27
127	0x0f	15
128	0x15	21
129	0xe7	-25
130	0xeb	-21
131	0xec	-20
132	0x13	19
133	0x36	54
134	0xc9	-55
135	0xc7	-57
136	0xff	-1
137	0x0c	12
138	0xca	-54
139	0x04	4
140	0x81	-127
141	0xfa	-6
142	0x04	4
143	0x08	8
144	0x2a	42
145	0xa9	-87
146	0x21	33
147	0x7f	127
148	0x08	8
149	0x14	20
150	0x0b	11
151	0xd1	-47
152	0x7c	124
153	0xab	-85
154	0xef	-17
155	0xef	-17
156	0x00	0
157	0x35	53
158	0xc8	-56
159	0x21	33
160	0x81	-127
161	0x98	-104
162	0x2e	46
163	0x03	3
164	0x5f	95
165	0x29	41
166	0x02	2
167	0x17	23
168	0x72	114
169	0xb6	-74
170	0xd1	-47
171	0x1f	31
172	0x2a	42
173	0xca	-54
174	0xca	-54
175	0x0e	14
176	0x41	65
177	0xfa	-6
178	0x81	-127
179	0x11	17
180	0x35	53
181	0xfd	-3
182	0xe3	-29
183	0x15	21
184	0xe5	-27
185	0xe2	-30
186	0xed	-19
187	0xe5	-27
188	0xfe	-2
189	0x0f	15
190	0xe9	-23
191	0x05	5
192	0x5a	90
193	0xc5	-59
194	0x12	18
195	0x0b	11
196	0xf1	-15
197	0xbf	-65
198	0xd1	-47
199	0xf4	-12
200	0x28	40
201	0x0b	11
202	0x81	-127
203	0xe2	-30
204	0xe2	-30
205	0x03	3
206	0xfa	-6
207	0x2f	47
208	0x08	8
209	0xcd	-51
210	0x09	9
211	0xd6	-42
212	0x2a	42
213	0x08	8
214	0xd6	-42
215	0x81	-127
216	0x12	18
217	0xc8	-56
218	0x25	37
219	0xf5	-11
220	0x16	22
221	0xef	-17
222	0x10	16
223	0x05	5
224	0xc3	-61
225	0x25	37
226	0xa8	-88
227	0xbd	-67
228	0x5a	90
229	0x81	-127
230	0x38	56
231	0xad	-83
232	0x3e	62
233	0x35	53
234	0xfe	-2
235	0x8c	-116
236	0x2d	45
237	0x73	115
238	0x09	9
239	0x11	17
240	0x23	35
241	0xf0	-16
242	0x48	72
243	0x1d	29
244	0x32	50
245	0xc6	-58
246	0xe3	-29
247	0xf1	-15
248	0x05	5
249	0xb1	-79
250	0xd1	-47
251	0xf2	-14
252	0x81	-127
253	0xdf	-33
254	0xe9	-23
255	0x48	72

model_1/block_3_project/Conv2D i1 [16, 1, 1, 48]
0	0xfc	-4
1	0x05	5
2	0xf0	-16
3	0x0b	11
4	0x12	18
5	0xfd	-3
6	0x00	0
7	0x5a	90
8	0xcc	-52
9	0x14	20
10	0x20	32
11	0xf5	-11
12	0x0f	15
13	0xf0	-16
14	0xec	-20
15	0x10	16
16	0x15	21
17	0xeb	-21
18	0xf9	-7
19	0xfc	-4
20	0x3a	58
21	0xfb	-5
22	0x13	19
23	0x7f	127
24	0xf4	-12
25	0x54	84
26	0x00	0
27	0xf0	-16
28	0x11	17
29	0xf6	-10
30	0x20	32
31	0xe7	-25
32	0xf5	-11
33	0x2a	42
34	0x16	22
35	0xd4	-44
36	0x13	19
37	0x35	53
38	0x0b	11
39	0xfc	-4
40	0xa0	-96
41	0xe8	-24
42	0x17	23
43	0x2d	45
44	0x2d	45
45	0x1c	28
46	0x81	-127
47	0xcd	-51
48	0xe3	-29
49	0xf1	-15
50	0x16	22
51	0x10	16
52	0xe9	-23
53	0x05	5
54	0xff	-1
55	0x35	53
56	0xd0	-48
57	0xdb	-37
58	0x00	0
59	0xd8	-40
60	0xf3	-13
61	0xe6	-26
62	0x00	0
63	0x03	3
64	0xe9	-23
65	0x7f	127
66	0xfa	-6
67	0x0b	11
68	0x0c	12
69	0x0a	10
70	0xe8	-24
71	0xf5	-11
72	0x19	25
73	0xd6	-42
74	0x06	6
75	0x13	19
76	0xe3	-29
77	0xa4	-92
78	0xdb	-37
79	0x10	16
80	0xf5	-11
81	0xfd	-3
82	0x1c	28
83	0x05	5
84	0xfb	-5
85	0xd3	-45
86	0xfe	-2
87	0x14	20
88	0xf2	-14
89	0xe4	-28
90	0x7d	125
91	0x08	8
92	0x0b	11
93	0x01	1
94	0x14	20
95	0xec	-20
96	0xe8	-24
97	0xf6	-10
98	0xf0	-16
99	0xdc	-36
100	0x00	0
101	0xc3	-61
102	0x0d	13
103	0xed	-19
104	0x05	5
105	0x0a	10
106	0x08	8
107	0x17	23
108	0x10	16
109	0x0b	11
110	0xfa	-6
111	0x07	7
112	0xfe	-2
113	0xee	-18
114	0xec	-20
115	0xf8	-8
116	0xfc	-4
117	0xfe	-2
118	0xff	-1
119	0x81	-127
120	0xf1	-15
121	0x49	73
122	0xf2	-14
123	0x02	2
124	0xfd	-3
125	0xec	-20
126	0xfe	-2
127	0xf3	-13
128	0xf9	-7
129	0x31	49
130	0x0a	10
131	0x06	6
132	0x1a	26
133	0x08	8
134	0x17	23
135	0x07	7
136	0xd4	-44
137	0x07	7
138	0xe9	-23
139	0xf9	-7
140	0x00	0
141	0xf9	-7
142	0x0e	14
143	0x09	9
144	0xfa	-6
145	0x2b	43
146	0x06	6
147	0xe4	-28
148	0xfc	-4
149	0xfe	-2
150	0x03	3
151	0xfd	-3
152	0xee	-18
153	0xff	-1
154	0xf8	-8
155	0x26	38
156	0x81	-127
157	0x09	9
158	0xfd	-3
159	0x01	1
160	0xf9	-7
161	0x02	2
162	0xef	-17
163	0x00	0
164	0xe4	-28
165	0x09	9
166	0x0a	10
167	0x10	16
168	0xfc	-4
169	0xf6	-10
170	0xfd	-3
171	0x17	23
172	0xf5	-11
173	0x10	16
174	0x04	4
175	0x06	6
176	0xff	-1
177	0xff	-1
178	0x15	21
179	0x13	19
180	0xf4	-12
181	0x1b	27
182	0x29	41
183	0x0b	11
184	0x0b	11
185	0x06	6
186	0x1a	26
187	0xe6	-26
188	0x05	5
189	0xf4	-12
190	0x02	2
191	0x10	16
192	0x24	36
193	0xdc	-36
194	0x08	8
195	0x13	19
196	0x11	17
197	0x24	36
198	0x16	22
199	0xeb	-21
200	0xde	-34
201	0x06	6
202	0xec	-20
203	0xe9	-23
204	0x01	1
205	0x04	4
206	0x03	3
207	0x14	20
208	0x19	25
209	0xf6	-10
210	0xb1	-79
211	0xfc	-4
212	0xfd	-3
213	0x06	6
214	0x13	19
215	0x53	83
216	0x08	8
217	0xdc	-36
218	0x0b	11
219	0x36	54
220	0x0e	14
221	0xae	-82
222	0x14	20
223	0x03	3
224	0x13	19
225	0xd1	-47
226	0x25	37
227	0x81	-127
228	0x11	17
229	0x25	37
230	0x00	0
231	0x14	20
232	0xf6	-10
233	0x1d	29
234	0x04	4
235	0xec	-20
236	0xf6	-10
237	0xe1	-31
238	0x06	6
239	0xfc	-4
240	0x21	33
241	0x03	3
242	0xe5	-27
243	0x3e	62
244	0x02	2
245	0xf2	-14
246	0x0b	11
247	0x1b	27
248	0x0a	10
249	0xf4	-12
250	0x21	33
251	0x0e	14
252	0x01	1
253	0x2f	47
254	0x04	4
255	0x02	2

model_1/block_3_depthwise_BN/FusedBatchNormV3;model_1/block_3_depthwise/depthwise i1 [1, 3, 3, 48]
0	0x48	72
1	0xa1	-95
2	0x63	99
3	0x48	72
4	0x36	54
5	0xdc	-36
6	0x69	105
7	0xc0	-64
8	0x3b	59
9	0xa3	-93
10	0xb2	-78
11	0x2f	47
12	0x34	52
13	0xd4	-44
14	0xb9	-71
15	0xa5	-91
16	0x63	99
17	0x51	81
18	0x31	49
19	0x4d	77
20	0x43	67
21	0xb6	-74
22	0xae	-82
23	0x35	53
24	0xdf	-33
25	0xdb	-37
26	0xc1	-63
27	0xc1	-63
28	0xbc	-68
29	0x3d	61
30	0xc1	-63
31	0x90	-112
32	0xf0	-16
33	0x2b	43
34	0x44	68
35	0x3f	63
36	0xbf	-65
37	0x38	56
38	0xce	-50
39	0xe8	-24
40	0x31	49
41	0xb4	-76
42	0x3a	58
43	0x3c	60
44	0xa3	-93
45	0x08	8
46	0x4d	77
47	0xe0	-32
48	0x53	83
49	0xa3	-93
50	0x7f	127
51	0x51	81
52	0xb1	-79
53	0xbb	-69
54	0xc8	-56
55	0xab	-85
56	0x5f	95
57	0x90	-112
58	0xc5	-59
59	0x48	72
60	0x4e	78
61	0x92	-110
62	0x9f	-97
63	0x5b	91
64	0xdc	-36
65	0x61	97
66	0x53	83
67	0x7f	127
68	0x54	84
69	0x8d	-115
70	0x34	52
71	0x48	72
72	0xca	-54
73	0xb4	-76
74	0xbc	-68
75	0xb0	-80
76	0x36	54
77	0x50	80
78	0xe2	-30
79	0x81	-127
80	0xaa	-86
81	0x53	83
82	0x4f	79
83	0x51	81
84	0xae	-82
85	0x56	86
86	0xaf	-81
87	0xee	-18
88	0x49	73
89	0xa0	-96
90	0x56	86
91	0x55	85
92	0xb3	-77
93	0x81	-127
94	0x5e	94
95	0x99	-103
96	0x24	36
97	0xd0	-48
98	0x49	73
99	0x26	38
100	0x14	20
101	0xd6	-42
102	0xd0	-48
103	0xd9	-39
104	0x2b	43
105	0xde	-34
106	0x06	6
107	0x23	35
108	0x1e	30
109	0xb0	-80
110	0xc7	-57
111	0xfe	-2
112	0xcb	-53
113	0x28	40
114	0x25	37
115	0x46	70
116	0x21	33
117	0xcb	-53
118	0x20	32
119	0x1b	27
120	0xe4	-28
121	0xd3	-45
122	0xd5	-43
123	0xe7	-25
124	0x1d	29
125	0x1e	30
126	0x58	88
127	0xa8	-88
128	0xa8	-88
129	0x2e	46
130	0x24	36
131	0x21	33
132	0xe1	-31
133	0x29	41
134	0xdc	-36
135	0xf6	-10
136	0x27	39
137	0xd6	-42
138	0x25	37
139	0x28	40
140	0xf4	-12
141	0xf9	-7
142	0x26	38
143	0xb4	-76
144	0x5b	91
145	0x8f	-113
146	0xd6	-42
147	0x5e	94
148	0x3b	59
149	0xad	-83
150	0x7f	127
151	0xa5	-91
152	0x5a	90
153	0x93	-109
154	0xba	-70
155	0x52	82
156	0x54	84
157	0x90	-112
158	0xf1	-15
159	0x81	-127
160	0x7f	127
161	0x73	115
162	0x4c	76
163	0xda	-38
164	0x54	84
165	0x6c	108
166	0x81	-127
167	0x48	72
168	0x49	73
169	0xb5	-75
170	0x9f	-97
171	0x9c	-100
172	0x81	-127
173	0x57	87
174	0xb9	-71
175	0xf7	-9
176	0xa5	-91
177	0x47	71
178	0x6a	106
179	0x5f	95
180	0xab	-85
181	0x51	81
182	0xaf	-81
183	0x5a	90
184	0x55	85
185	0x9d	-99
186	0x57	87
187	0x5b	91
188	0xa7	-89
189	0x69	105
190	0x5f	95
191	0xa6	-90
192	0x7f	127
193	0x81	-127
194	0xbf	-65
195	0x7f	127
196	0x81	-127
197	0x81	-127
198	0xa8	-88
199	0x81	-127
200	0x7f	127
201	0x81	-127
202	0x81	-127
203	0x7f	127
204	0x7f	127
205	0x81	-127
206	0xe8	-24
207	0x62	98
208	0xc2	-62
209	0x7f	127
210	0x7f	127
211	0xcd	-51
212	0x7f	127
213	0x7f	127
214	0x44	68
215	0x7f	127
216	0x7f	127
217	0x81	-127
218	0x81	-127
219	0x81	-127
220	0x36	54
221	0x7f	127
222	0xe3	-29
223	0x0f	15
224	0x81	-127
225	0x7f	127
226	0x7f	127
227	0x7f	127
228	0x81	-127
229	0x7f	127
230	0x81	-127
231	0x7f	127
232	0x7f	127
233	0x81	-127
234	0x7f	127
235	0x7f	127
236	0x81	-127
237	0xf6	-10
238	0x7f	127
239	0x81	-127
240	0x43	67
241	0xae	-82
242	0xdf	-33
243	0x44	68
244	0x29	41
245	0xc3	-61
246	0xcf	-49
247	0xc1	-63
248	0x38	56
249	0xd7	-41
250	0xc5	-59
251	0x3a	58
252	0x32	50
253	0xc8	-56
254	0xed	-19
255	0x0b	11

model_1/block_3_expand/Conv2D i1 [48, 1, 1, 8]
0	0x81	-127
1	0x04	4
2	0x02	2
3	0x34	52
4	0xe1	-31
5	0x27	39
6	0x0f	15
7	0xe0	-32
8	0x15	21
9	0x47	71
10	0x21	33
11	0x2e	46
12	0x12	18
13	0xd7	-41
14	0x61	97
15	0x7f	127
16	0xe5	-27
17	0x03	3
18	0xed	-19
19	0xf1	-15
20	0x81	-127
21	0xea	-22
22	0x07	7
23	0x04	4
24	0x5d	93
25	0xf3	-13
26	0xec	-20
27	0x86	-122
28	0x81	-127
29	0x22	34
30	0x1a	26
31	0xe8	-24
32	0x81	-127
33	0x3d	61
34	0xf1	-15
35	0x08	8
36	0x45	69
37	0xe3	-29
38	0x36	54
39	0x24	36
40	0x81	-127
41	0xe5	-27
42	0x20	32
43	0xfc	-4
44	0x82	-126
45	0x01	1
46	0xf3	-13
47	0x70	112
48	0xde	-34
49	0x81	-127
50	0x1b	27
51	0xef	-17
52	0x06	6
53	0xfd	-3
54	0xf7	-9
55	0x2f	47
56	0xb0	-80
57	0xf7	-9
58	0x05	5
59	0x5c	92
60	0x7f	127
61	0xdc	-36
62	0xd2	-46
63	0x06	6
64	0x50	80
65	0x0b	11
66	0xf0	-16
67	0x81	-127
68	0x08	8
69	0xdb	-37
70	0xc2	-62
71	0xe4	-28
72	0xea	-22
73	0x81	-127
74	0xf3	-13
75	0xff	-1
76	0xf4	-12
77	0x54	84
78	0xd4	-44
79	0x52	82
80	0x81	-127
81	0x0c	12
82	0x15	21
83	0x21	33
84	0x89	-119
85	0x55	85
86	0x54	84
87	0xe3	-29
88	0x79	121
89	0x09	9
90	0x21	33
91	0x0f	15
92	0xbb	-69
93	0xc8	-56
94	0xd3	-45
95	0x81	-127
96	0xfe	-2
97	0x0d	13
98	0x25	37
99	0xf8	-8
100	0x0b	11
101	0xb3	-77
102	0x7f	127
103	0x38	56
104	0x48	72
105	0xe3	-29
106	0xfd	-3
107	0xe9	-23
108	0x7f	127
109	0x74	116
110	0x7c	124
111	0xc8	-56
112	0x7f	127
113	0x12	18
114	0xe6	-26
115	0x0c	12
116	0xaa	-86
117	0x02	2
118	0xdf	-33
119	0x02	2
120	0xfa	-6
121	0x81	-127
122	0x14	20
123	0xf7	-9
124	0xf6	-10
125	0x06	6
126	0x10	16
127	0x1d	29
128	0x8c	-116
129	0xf3	-13
130	0x00	0
131	0xfa	-6
132	0x81	-127
133	0x17	23
134	0x22	34
135	0x05	5
136	0xe5	-27
137	0x5a	90
138	0xa5	-91
139	0x08	8
140	0x16	22
141	0x81	-127
142	0x46	70
143	0xb6	-74
144	0x7f	127
145	0xdd	-35
146	0xd8	-40
147	0x0d	13
148	0xc3	-61
149	0x13	19
150	0xfa	-6
151	0x74	116
152	0x7f	127
153	0xc3	-61
154	0xf0	-16
155	0x08	8
156	0x40	64
157	0x03	3
158	0x22	34
159	0x05	5
160	0x7f	127
161	0x1c	28
162	0x02	2
163	0x77	119
164	0x03	3
165	0x29	41
166	0x0d	13
167	0xb4	-76
168	0x00	0
169	0x37	55
170	0xc1	-63
171	0x0c	12
172	0x06	6
173	0x7a	122
174	0x81	-127
175	0x84	-124
176	0x81	-127
177	0x0c	12
178	0x1c	28
179	0xf7	-9
180	0xe8	-24
181	0x08	8
182	0xc2	-62
183	0xe5	-27
184	0xd3	-45
185	0xcb	-53
186	0x08	8
187	0x16	22
188	0x81	-127
189	0x4d	77
190	0x59	89
191	0xe4	-28
192	0x7f	127
193	0xfb	-5
194	0x08	8
195	0xf2	-14
196	0xc2	-62
197	0x0d	13
198	0x06	6
199	0xf8	-8
200	0x15	21
201	0xf4	-12
202	0xff	-1
203	0xef	-17
204	0x7f	127
205	0x2c	44
206	0x34	52
207	0xe5	-27
208	0x14	20
209	0x96	-106
210	0xff	-1
211	0xd8	-40
212	0x01	1
213	0x81	-127
214	0x5f	95
215	0xca	-54
216	0xed	-19
217	0x81	-127
218	0x19	25
219	0xf1	-15
220	0xf9	-7
221	0xca	-54
222	0x24	36
223	0xf5	-11
224	0xd8	-40
225	0x1f	31
226	0x06	6
227	0x2d	45
228	0xfb	-5
229	0xf4	-12
230	0x7f	127
231	0x19	25
232	0xf2	-14
233	0x32	50
234	0x0e	14
235	0x05	5
236	0xf9	-7
237	0x24	36
238	0x8b	-117
239	0x81	-127
240	0x7f	127
241	0xe5	-27
242	0xfb	-5
243	0x1e	30
244	0xbb	-69
245	0x0a	10
246	0xe8	-24
247	0xde	-34
248	0xff	-1
249	0xc9	-55
250	0x27	39
251	0xeb	-21
252	0x05	5
253	0x9c	-100
254	0x7f	127
255	0x77	119

model_1/block_2_project/Conv2D i1 [8, 1, 1, 48]
0	0xd2	-46
1	0xf0	-16
2	0xe0	-32
3	0x06	6
4	0xff	-1
5	0xec	-20
6	0x01	1
7	0xfd	-3
8	0x96	-106
9	0x7f	127
10	0xe7	-25
11	0x54	84
12	0x6e	110
13	0x08	8
14	0x2e	46
15	0xf6	-10
16	0xf7	-9
17	0xd9	-39
18	0x03	3
19	0x08	8
20	0xf6	-10
21	0xf1	-15
22	0xe8	-24
23	0xe7	-25
24	0x17	23
25	0xc0	-64
26	0x0a	10
27	0x2c	44
28	0xfe	-2
29	0x06	6
30	0x0f	15
31	0xe2	-30
32	0x06	6
33	0xb3	-77
34	0x7c	124
35	0x23	35
36	0xef	-17
37	0x04	4
38	0x00	0
39	0xf2	-14
40	0x58	88
41	0xf5	-11
42	0x17	23
43	0xf7	-9
44	0xf1	-15
45	0x16	22
46	0xed	-19
47	0xf7	-9
48	0x03	3
49	0x1b	27
50	0x7f	127
51	0x05	5
52	0xfa	-6
53	0xed	-19
54	0x05	5
55	0xa8	-88
56	0x15	21
57	0x03	3
58	0x21	33
59	0x09	9
60	0xe9	-23
61	0x02	2
62	0xf5	-11
63	0x8d	-115
64	0x09	9
65	0xb5	-75
66	0x18	24
67	0x06	6
68	0xe2	-30
69	0x1d	29
70	0x0e	14
71	0xd8	-40
72	0xe9	-23
73	0xfd	-3
74	0x0a	10
75	0xf8	-8
76	0x0a	10
77	0xf3	-13
78	0x09	9
79	0xfd	-3
80	0xf4	-12
81	0x07	7
82	0x07	7
83	0x19	25
84	0xe1	-31
85	0xdc	-36
86	0x40	64
87	0xc1	-63
88	0x13	19
89	0x23	35
90	0xef	-17
91	0x21	33
92	0xe8	-24
93	0xfb	-5
94	0x1e	30
95	0xf5	-11
96	0x02	2
97	0xcc	-52
98	0x13	19
99	0xd5	-43
100	0x25	37
101	0x19	25
102	0xfa	-6
103	0xe0	-32
104	0x08	8
105	0x06	6
106	0xf8	-8
107	0x10	16
108	0xf2	-14
109	0x38	56
110	0x08	8
111	0x01	1
112	0xd9	-39
113	0x7f	127
114	0xe9	-23
115	0xd7	-41
116	0xed	-19
117	0x16	22
118	0xd5	-43
119	0xfa	-6
120	0x7b	123
121	0x00	0
122	0x01	1
123	0xf9	-7
124	0xdd	-35
125	0xf6	-10
126	0xff	-1
127	0xd9	-39
128	0xfd	-3
129	0xf1	-15
130	0x08	8
131	0x12	18
132	0xfb	-5
133	0xf9	-7
134	0xf1	-15
135	0x0a	10
136	0x12	18
137	0xeb	-21
138	0xec	-20
139	0xfb	-5
140	0x05	5
141	0x14	20
142	0xde	-34
143	0xda	-38
144	0x0d	13
145	0xa9	-87
146	0x00	0
147	0x06	6
148	0x09	9
149	0xf8	-8
150	0xf6	-10
151	0x03	3
152	0xff	-1
153	0xeb	-21
154	0x0e	14
155	0x14	20
156	0x09	9
157	0xfa	-6
158	0x2c	44
159	0x05	5
160	0xf8	-8
161	0xed	-19
162	0x05	5
163	0x15	21
164	0xfe	-2
165	0x10	16
166	0xe6	-26
167	0x04	4
168	0x0a	10
169	0x3d	61
170	0x04	4
171	0x08	8
172	0xf4	-12
173	0x06	6
174	0x7f	127
175	0x03	3
176	0x06	6
177	0x10	16
178	0xf7	-9
179	0x01	1
180	0xed	-19
181	0xf0	-16
182	0xf8	-8
183	0x0b	11
184	0xf6	-10
185	0x01	1
186	0xf4	-12
187	0x1a	26
188	0xf6	-10
189	0x04	4
190	0xfc	-4
191	0x1d	29
192	0x95	-107
193	0x06	6
194	0x01	1
195	0xfa	-6
196	0xf9	-7
197	0xd7	-41
198	0xfd	-3
199	0x0b	11
200	0x2e	46
201	0xd3	-45
202	0x13	19
203	0xe4	-28
204	0xe5	-27
205	0xfe	-2
206	0xee	-18
207	0xfc	-4
208	0x08	8
209	0x09	9
210	0x07	7
211	0x17	23
212	0x10	16
213	0xe2	-30
214	0x0a	10
215	0x02	2
216	0xf2	-14
217	0x35	53
218	0xfa	-6
219	0x6d	109
220	0x04	4
221	0xff	-1
222	0xf9	-7
223	0xe2	-30
224	0x0a	10
225	0x81	-127
226	0xe1	-31
227	0x13	19
228	0x00	0
229	0xff	-1
230	0xff	-1
231	0x04	4
232	0xd1	-47
233	0xf6	-10
234	0xed	-19
235	0x0f	15
236	0xc4	-60
237	0x01	1
238	0x07	7
239	0x08	8
240	0xf9	-7
241	0x23	35
242	0x1d	29
243	0x0d	13
244	0xd7	-41
245	0x0b	11
246	0x03	3
247	0x38	56
248	0x1f	31
249	0xfa	-6
250	0x05	5
251	0x08	8
252	0xf5	-11
253	0xcc	-52
254	0x0c	12
255	0x23	35

model_1/block_2_depthwise_BN/FusedBatchNormV3;model_1/block_2_depthwise/depthwise;model_1/block_3_depthwise/depthwise i1 [1, 3, 3, 48]
0	0x04	4
1	0xfc	-4
2	0x14	20
3	0x6e	110
4	0x05	5
5	0x51	81
6	0xff	-1
7	0x1c	28
8	0x0e	14
9	0x08	8
10	0x07	7
11	0x07	7
12	0xf7	-9
13	0xf7	-9
14	0xd5	-43
15	0x09	9
16	0xfe	-2
17	0x08	8
18	0xea	-22
19	0x8e	-114
20	0xf7	-9
21	0xe9	-23
22	0x7f	127
23	0xf7	-9
24	0xfd	-3
25	0x07	7
26	0xfb	-5
27	0x0a	10
28	0xfb	-5
29	0x04	4
30	0x0e	14
31	0x64	100
32	0x14	20
33	0x1d	29
34	0x27	39
35	0xe4	-28
36	0x01	1
37	0x22	34
38	0xfe	-2
39	0x02	2
40	0x12	18
41	0xba	-70
42	0xfa	-6
43	0xf8	-8
44	0x12	18
45	0x02	2
46	0xf8	-8
47	0xf6	-10
48	0x7d	125
49	0x0a	10
50	0x0f	15
51	0x81	-127
52	0x1d	29
53	0x56	86
54	0x0b	11
55	0x0b	11
56	0x78	120
57	0x7f	127
58	0x06	6
59	0x2b	43
60	0xce	-50
61	0xe9	-23
62	0x04	4
63	0x09	9
64	0x7f	127
65	0xc8	-56
66	0xc3	-61
67	0xc4	-60
68	0x9a	-102
69	0x19	25
70	0x93	-109
71	0x0f	15
72	0x12	18
73	0x46	70
74	0xe1	-31
75	0xac	-84
76	0x17	23
77	0x14	20
78	0x0a	10
79	0x86	-122
80	0x06	6
81	0xc4	-60
82	0x7f	127
83	0x0a	10
84	0xd8	-40
85	0xd1	-47
86	0xfb	-5
87	0x72	114
88	0xb2	-78
89	0x9c	-100
90	0xe3	-29
91	0x02	2
92	0xe1	-31
93	0xf8	-8
94	0x81	-127
95	0x16	22
96	0xe0	-32
97	0xfd	-3
98	0x07	7
99	0x11	17
100	0x00	0
101	0x40	64
102	0x05	5
103	0x11	17
104	0x1a	26
105	0x08	8
106	0xf2	-14
107	0x20	32
108	0xf2	-14
109	0xfe	-2
110	0x0e	14
111	0x04	4
112	0x99	-103
113	0x1c	28
114	0xfd	-3
115	0x4b	75
116	0xdf	-33
117	0xf4	-12
118	0xee	-18
119	0xfa	-6
120	0xfb	-5
121	0xc6	-58
122	0xfd	-3
123	0x1d	29
124	0xf0	-16
125	0x04	4
126	0x03	3
127	0xec	-20
128	0x08	8
129	0xe9	-23
130	0x10	16
131	0xee	-18
132	0x00	0
133	0x2e	46
134	0x29	41
135	0xf5	-11
136	0x33	51
137	0x26	38
138	0xf2	-14
139	0x0a	10
140	0xd9	-39
141	0x03	3
142	0x00	0
143	0xfa	-6
144	0x7f	127
145	0x06	6
146	0x00	0
147	0x9e	-98
148	0x0e	14
149	0xe5	-27
150	0x23	35
151	0xef	-17
152	0x07	7
153	0x08	8
154	0xf2	-14
155	0x35	53
156	0xfa	-6
157	0xff	-1
158	0x13	19
159	0xe0	-32
160	0x00	0
161	0xcf	-49
162	0xc0	-64
163	0xaa	-86
164	0x08	8
165	0xb5	-75
166	0x83	-125
167	0xef	-17
168	0x05	5
169	0x5f	95
170	0xf0	-16
171	0x81	-127
172	0xf8	-8
173	0x20	32
174	0x0a	10
175	0x96	-106
176	0x11	17
177	0xcc	-52
178	0xfd	-3
179	0x7f	127
180	0xfe	-2
181	0x39	57
182	0xd7	-41
183	0x2b	43
184	0xc3	-61
185	0x81	-127
186	0x29	41
187	0xa7	-89
188	0xd6	-42
189	0xf2	-14
190	0xf4	-12
191	0xfb	-5
192	0x1b	27
193	0x81	-127
194	0x81	-127
195	0x74	116
196	0x81	-127
197	0x81	-127
198	0x81	-127
199	0x81	-127
200	0x81	-127
201	0xa0	-96
202	0x7f	127
203	0x81	-127
204	0x7f	127
205	0x7f	127
206	0x22	34
207	0x81	-127
208	0xad	-83
209	0x7f	127
210	0x7f	127
211	0x93	-109
212	0x7f	127
213	0x7f	127
214	0x70	112
215	0x7f	127
216	0x7f	127
217	0x81	-127
218	0x81	-127
219	0x1d	29
220	0x81	-127
221	0x81	-127
222	0x5e	94
223	0x7f	127
224	0x81	-127
225	0x7f	127
226	0xe0	-32
227	0xd6	-42
228	0x7f	127
229	0x81	-127
230	0x7f	127
231	0x7f	127
232	0x7f	127
233	0xb0	-80
234	0x7f	127
235	0x7f	127
236	0x7f	127
237	0x86	-122
238	0x68	104
239	0x6a	106
240	0x36	54
241	0x06	6
242	0x30	48
243	0xf4	-12
244	0x05	5
245	0xc1	-63
246	0x2c	44
247	0x12	18
248	0xe7	-25
249	0x0f	15
250	0x95	-107
251	0xf8	-8
252	0x00	0
253	0xd8	-40
254	0x7f	127
255	0x05	5

model_1/block_2_expand/Conv2D i1 [48, 1, 1, 8]
0	0x50	80
1	0x35	53
2	0x03	3
3	0x0d	13
4	0x7f	127
5	0x03	3
6	0xd3	-45
7	0xdb	-37
8	0xf8	-8
9	0x15	21
10	0xf5	-11
11	0x7f	127
12	0x10	16
13	0xfd	-3
14	0x0b	11
15	0xff	-1
16	0x25	37
17	0x81	-127
18	0x00	0
19	0x32	50
20	0xfc	-4
21	0xb9	-71
22	0x4d	77
23	0x0f	15
24	0x7f	127
25	0xf7	-9
26	0xf8	-8
27	0x0c	12
28	0x03	3
29	0xe1	-31
30	0x18	24
31	0xfc	-4
32	0x0c	12
33	0xd2	-46
34	0x7f	127
35	0xf2	-14
36	0xf2	-14
37	0xc1	-63
38	0x16	22
39	0x97	-105
40	0x44	68
41	0xf0	-16
42	0xfd	-3
43	0xf1	-15
44	0x7f	127
45	0xfc	-4
46	0xe7	-25
47	0x22	34
48	0xdf	-33
49	0x5e	94
50	0xed	-19
51	0x7f	127
52	0x19	25
53	0x31	49
54	0xa9	-87
55	0xc0	-64
56	0xef	-17
57	0x7f	127
58	0xf8	-8
59	0xff	-1
60	0xfe	-2
61	0xf5	-11
62	0x05	5
63	0xf4	-12
64	0x7f	127
65	0x29	41
66	0x05	5
67	0xfd	-3
68	0xbd	-67
69	0x01	1
70	0x17	23
71	0xd8	-40
72	0x81	-127
73	0x0c	12
74	0xfa	-6
75	0x09	9
76	0x32	50
77	0xff	-1
78	0xeb	-21
79	0x0b	11
80	0xba	-70
81	0x09	9
82	0x23	35
83	0x7f	127
84	0x3a	58
85	0x26	38
86	0xe5	-27
87	0xfe	-2
88	0x81	-127
89	0xfb	-5
90	0x17	23
91	0xd6	-42
92	0x21	33
93	0x0f	15
94	0xf2	-14
95	0xd6	-42
96	0x7f	127
97	0x11	17
98	0xfa	-6
99	0x0f	15
100	0xcd	-51
101	0x01	1
102	0xfc	-4
103	0xde	-34
104	0xf2	-14
105	0x67	103
106	0x82	-126
107	0x03	3
108	0x10	16
109	0x7f	127
110	0xae	-82
111	0x3c	60
112	0xcb	-53
113	0xdf	-33
114	0xee	-18
115	0x7f	127
116	0x19	25
117	0x09	9
118	0xf7	-9
119	0xe9	-23
120	0xfe	-2
121	0x7f	127
122	0x00	0
123	0x01	1
124	0x02	2
125	0xec	-20
126	0x0c	12
127	0xce	-50
128	0xf1	-15
129	0x81	-127
130	0xdd	-35
131	0xf1	-15
132	0xf2	-14
133	0xa1	-95
134	0x57	87
135	0xec	-20
136	0x16	22
137	0x7f	127
138	0xfd	-3
139	0xed	-19
140	0x01	1
141	0x4b	75
142	0xa3	-93
143	0xed	-19
144	0xe7	-25
145	0x29	41
146	0x81	-127
147	0x0f	15
148	0x04	4
149	0x3c	60
150	0xe2	-30
151	0x3f	63
152	0xc7	-57
153	0x20	32
154	0xf2	-14
155	0xf5	-11
156	0x81	-127
157	0x09	9
158	0x09	9
159	0x01	1
160	0x81	-127
161	0xe3	-29
162	0x00	0
163	0xfd	-3
164	0x46	70
165	0xea	-22
166	0x26	38
167	0x05	5
168	0xc3	-61
169	0x00	0
170	0xef	-17
171	0xfc	-4
172	0x81	-127
173	0xef	-17
174	0x18	24
175	0x00	0
176	0x81	-127
177	0xf6	-10
178	0x00	0
179	0xf7	-9
180	0x4e	78
181	0xf1	-15
182	0x27	39
183	0x2f	47
184	0xe5	-27
185	0xe4	-28
186	0xec	-20
187	0xf4	-12
188	0xec	-20
189	0x58	88
190	0x81	-127
191	0xa1	-95
192	0xf7	-9
193	0x2c	44
194	0x81	-127
195	0x07	7
196	0x0e	14
197	0x36	54
198	0xf4	-12
199	0x40	64
200	0x61	97
201	0xd6	-42
202	0xfe	-2
203	0x7f	127
204	0xa2	-94
205	0x02	2
206	0x03	3
207	0xc5	-59
208	0x03	3
209	0xec	-20
210	0xf3	-13
211	0x01	1
212	0xf3	-13
213	0x6b	107
214	0x7f	127
215	0xe4	-28
216	0x3a	58
217	0xf9	-7
218	0xfb	-5
219	0x04	4
220	0x7f	127
221	0x23	35
222	0x22	34
223	0xec	-20
224	0xfb	-5
225	0x7f	127
226	0xb3	-77
227	0x01	1
228	0x10	16
229	0x51	81
230	0xe0	-32
231	0x79	121
232	0xf4	-12
233	0x18	24
234	0xf6	-10
235	0xf4	-12
236	0x04	4
237	0x49	73
238	0x81	-127
239	0xa6	-90
240	0x04	4
241	0xfd	-3
242	0xff	-1
243	0x81	-127
244	0xfb	-5
245	0xf9	-7
246	0xfb	-5
247	0xf3	-13
248	0xc8	-56
249	0x20	32
250	0x0e	14
251	0xff	-1
252	0x81	-127
253	0x12	18
254	0x15	21
255	0xe6	-26

model_1/block_1_project/Conv2D i1 [8, 1, 1, 48]
0	0xf4	-12
1	0x03	3
2	0x0b	11
3	0xaf	-81
4	0x0b	11
5	0x16	22
6	0x02	2
7	0x06	6
8	0xff	-1
9	0x02	2
10	0xff	-1
11	0xf7	-9
12	0x5d	93
13	0x00	0
14	0xfc	-4
15	0x08	8
16	0x00	0
17	0xfb	-5
18	0xfc	-4
19	0x05	5
20	0x4b	75
21	0xfc	-4
22	0x00	0
23	0x07	7
24	0x1b	27
25	0x25	37
26	0x12	18
27	0x17	23
28	0x01	1
29	0x04	4
30	0xff	-1
31	0x81	-127
32	0x0b	11
33	0x07	7
34	0x04	4
35	0x02	2
36	0xe2	-30
37	0x05	5
38	0xf7	-9
39	0x1b	27
40	0x03	3
41	0xe8	-24
42	0xfa	-6
43	0x03	3
44	0x0b	11
45	0xfe	-2
46	0x04	4
47	0x06	6
48	0xdb	-37
49	0xfa	-6
50	0x05	5
51	0xfe	-2
52	0x24	36
53	0x14	20
54	0xe1	-31
55	0x4a	74
56	0x17	23
57	0x0b	11
58	0xdc	-36
59	0xe0	-32
60	0x08	8
61	0x00	0
62	0x0f	15
63	0x23	35
64	0x00	0
65	0x31	49
66	0x0f	15
67	0xcc	-52
68	0x02	2
69	0x16	22
70	0x7f	127
71	0x15	21
72	0xdf	-33
73	0xfa	-6
74	0x2f	47
75	0x12	18
76	0x10	16
77	0x03	3
78	0x12	18
79	0xf2	-14
80	0x10	16
81	0xf8	-8
82	0xf8	-8
83	0xee	-18
84	0x09	9
85	0xc9	-55
86	0x0a	10
87	0x01	1
88	0xf8	-8
89	0xf6	-10
90	0xa1	-95
91	0xfa	-6
92	0xd5	-43
93	0x09	9
94	0xcb	-53
95	0x9e	-98
96	0xcb	-53
97	0x0f	15
98	0x00	0
99	0x08	8
100	0x2a	42
101	0xf3	-13
102	0x1c	28
103	0x15	21
104	0xf5	-11
105	0x31	49
106	0x0d	13
107	0xfc	-4
108	0x06	6
109	0x00	0
110	0x09	9
111	0x34	52
112	0x00	0
113	0x0b	11
114	0x81	-127
115	0x1c	28
116	0xfe	-2
117	0x0c	12
118	0x06	6
119	0xea	-22
120	0xe2	-30
121	0xfe	-2
122	0x20	32
123	0x02	2
124	0x06	6
125	0x21	33
126	0x17	23
127	0x01	1
128	0x08	8
129	0xf8	-8
130	0xf7	-9
131	0xf3	-13
132	0x04	4
133	0x05	5
134	0x00	0
135	0x00	0
136	0x23	35
137	0xf7	-9
138	0xe8	-24
139	0xfd	-3
140	0x18	24
141	0xcb	-53
142	0x16	22
143	0x14	20
144	0x03	3
145	0x09	9
146	0x04	4
147	0x06	6
148	0xfb	-5
149	0x1e	30
150	0xff	-1
151	0x03	3
152	0x34	52
153	0x17	23
154	0xfb	-5
155	0xfa	-6
156	0x19	25
157	0x00	0
158	0xdd	-35
159	0xf5	-11
160	0x00	0
161	0x05	5
162	0xf2	-14
163	0xff	-1
164	0x02	2
165	0x00	0
166	0x0c	12
167	0xf2	-14
168	0xf5	-11
169	0xff	-1
170	0xf7	-9
171	0x00	0
172	0xfe	-2
173	0xfc	-4
174	0xfc	-4
175	0xfa	-6
176	0xd3	-45
177	0x24	36
178	0xcc	-52
179	0xfd	-3
180	0x03	3
181	0xfd	-3
182	0x03	3
183	0x81	-127
184	0x00	0
185	0x02	2
186	0xff	-1
187	0xd3	-45
188	0xfe	-2
189	0x02	2
190	0xff	-1
191	0x07	7
192	0xfd	-3
193	0xfd	-3
194	0x4c	76
195	0x25	37
196	0x04	4
197	0xf2	-14
198	0xfd	-3
199	0xfa	-6
200	0x01	1
201	0x00	0
202	0xfd	-3
203	0xf8	-8
204	0xb3	-77
205	0x00	0
206	0xf3	-13
207	0x03	3
208	0x00	0
209	0x0b	11
210	0x04	4
211	0x00	0
212	0x40	64
213	0x04	4
214	0x02	2
215	0xf6	-10
216	0xf3	-13
217	0x21	33
218	0xfa	-6
219	0x28	40
220	0xf3	-13
221	0xff	-1
222	0xfc	-4
223	0x5d	93
224	0x03	3
225	0xff	-1
226	0x04	4
227	0xfb	-5
228	0x0f	15
229	0xec	-20
230	0xfa	-6
231	0xee	-18
232	0x02	2
233	0x81	-127
234	0x04	4
235	0xff	-1
236	0xfa	-6
237	0xfb	-5
238	0x03	3
239	0x06	6
240	0xfc	-4
241	0x2d	45
242	0x06	6
243	0xfb	-5
244	0x03	3
245	0x32	50
246	0x15	21
247	0x11	17
248	0xec	-20
249	0x1d	29
250	0x08	8
251	0x41	65
252	0x15	21
253	0x00	0
254	0x81	-127
255	0xfc	-4
