trained.tflite (tflite, 56672 bytes, 21 tensors)

model_1/logits/Conv2D i1 [4, 1, 1, 32]
11 -27 -71 -45 123 -37 -7 -48
80 -4 65 78 -76 -41 25 -25
-1 -10 -127 30 -10 43 -52 89
-30 -11 -16 22 121 -45 33 8
73 76 -84 -14 -70 42 127 47
-50 -85 -93 27 93 -58 76 -126
122 -100 9 -68 9 -76 -108 -30
-7 -86 69 -57 -68 -106 -20 -36
-42 100 24 88 -72 -8 92 37
-86 -127 88 -71 -88 85 -105 59
51 69 72 -82 -13 25 -70 -72
15 -38 84 -93 -65 19 75 61
62 -66 70 10 -24 96 29 -9
1 -105 33 84 69 -4 -127 -16
95 -83 112 -8 -100 5 -15 -39
94 -3 -86 72 -90 98 35 45
00000000: 0be5 b9d3 7bdb f9d0 50fc 414e b4d7 19e7
00000010: fff6 811e f62b cc59 e2f5 f016 79d3 2108
00000020: 494c acf2 ba2a 7f2f ceab a31b 5dc6 4c82
00000030: 7a9c 09bc 09b4 94e2 f9aa 45c7 bc96 ecdc
00000040: d664 1858 b8f8 5c25 aa81 58b9 a855 973b
00000050: 3345 48ae f319 bab8 0fda 54a3 bf13 4b3d
00000060: 3ebe 460a e860 1df7 0197 2154 45fc 81f0
00000070: 5fad 70f8 9c05 f1d9 5efd aa48 a662 232d

model_1/head/Conv2D i1 [32, 1, 1, 96]
-41 -57 104 -4 92 -9 -85 -100
47 -82 -108 12 37 10 -36 58
-51 -29 -64 -26 -74 -102 5 108
-108 15 83 -41 122 28 -16 -61
73 -72 -101 52 -102 -80 -107 26
74 -83 -97 101 53 -102 108 -14
17 -24 -57 105 -66 -61 -84 94
15 52 127 -108 -83 93 -50 67
-55 20 69 79 53 93 82 -119
105 -102 35 84 -93 14 -58 14
55 22 75 0 -55 -42 -89 106
22 118 -6 -90 0 52 28 13
-50 35 -70 -21 -53 76 29 13
65 -105 -104 108 66 -29 19 59
101 -48 31 122 -47 -12 31 21
29 18 -48 101 10 6 93 -70
55 100 -26 32 47 58 -6 -68
-64 -2 -21 -92 -35 42 -29 -54
-29 -74 127 48 6 80 -68 -48
20 84 72 69 -50 115 -65 -92
-59 29 68 37 89 28 9 -6
-102 79 -44 45 75 -50 -45 63
-88 95 -47 -112 21 109 -71 -71
71 85 103 26 74 69 48 -3
42 38 -76 87 12 -69 72 85
-83 96 -51 95 98 -2 61 -120
-59 -28 52 19 -86 -28 105 5
-35 83 97 18 -69 83 90 97
-79 -21 -103 -101 -92 77 102 -40
-127 -70 0 -16 -100 111 -39 -93
94 34 95 -94 -24 67 1 23
-73 115 -79 14 -6 52 -49 102
00000000: d7c7 68fc 5cf7 ab9c 2fae 940c 250a dc3a
00000010: cde3 c0e6 b69a 056c 940f 53d7 7a1c f0c3
00000020: 49b8 9b34 9ab0 951a 4aad 9f65 359a 6cf2
00000030: 11e8 c769 bec3 ac5e 0f34 7f94 ad5d ce43
00000040: c914 454f 355d 5289 699a 2354 a30e c60e
00000050: 3716 4b00 c9d6 a76a 1676 faa6 0034 1c0d
00000060: ce23 baeb cb4c 1d0d 4197 986c 42e3 133b
00000070: 65d0 1f7a d1f4 1f15 1d12 d065 0a06 5dba
00000080: 3764 e620 2f3a fabc c0fe eba4 dd2a e3ca
00000090: e3b6 7f30 0650 bcd0 1454 4845 ce73 bfa4
000000a0: c51d 4425 591c 09fa 9a4f d42d 4bce d33f
000000b0: a85f d190 156d b9b9 4755 671a 4a45 30fd
000000c0: 2a26 b457 0cbb 4855 ad60 cd5f 62fe 3d88
000000d0: c5e4 3413 aae4 6905 dd53 6112 bb53 5a61
000000e0: b1eb 999b a44d 66d8 81ba 00f0 9c6f d9a3
000000f0: 5e22 5fa2 e843 0117 b773 b10e fa34 cf66

model_1/block_6_expand/Conv2D i1 [96, 1, 1, 16]
-14 109 -24 -127 -39 -47 -29 -79
-29 14 -5 72 26 -71 -5 60
-54 17 -59 17 -58 -40 67 -91
80 83 -81 28 -17 14 68 -127
15 16 -54 43 66 12 -71 -88
127 -32 -9 -8 3 105 -80 49
72 -77 -27 -113 19 -40 -31 8
127 -30 85 62 4 51 -5 106
-55 33 -3 36 -30 -45 29 17
22 14 -16 -11 -127 -34 4 43
8 50 114 18 44 76 -90 68
-39 60 -31 -26 62 -46 -127 17
33 -66 126 -127 33 3 -36 101
-64 -122 59 -24 5 90 -44 64
49 127 -39 -75 86 1 1 -72
115 103 -38 5 17 -26 82 64
13 -72 9 -94 24 -67 21 -91
20 77 77 -16 11 127 75 76
10 -36 -3 127 19 -26 61 -56
-63 114 16 -22 -18 -61 18 14
-3 7 -42 -127 14 8 -22 40
49 -45 21 -10 1 -44 -18 6
-1 23 18 -21 91 -25 85 -69
-80 35 2 36 12 127 -72 -42
78 19 -127 -11 31 -87 0 6
6 57 -83 -70 -19 99 12 44
-14 2 -28 12 12 -127 -11 24
5 -19 7 -3 17 -4 11 15
29 -12 68 -33 68 4 -127 -82
-26 -23 24 7 19 -53 -10 -30
-87 52 -4 -35 27 19 127 58
-25 25 88 -13 46 98 62 -34
00000000: f26d e881 d9d1 e3b1 e30e fb48 1ab9 fb3c
00000010: ca11 c511 c6d8 43a5 5053 af1c ef0e 4481
00000020: 0f10 ca2b 420c b9a8 7fe0 f7f8 0369 b031
00000030: 48b3 e58f 13d8 e108 7fe2 553e 0433 fb6a
00000040: c921 fd24 e2d3 1d11 160e f0f5 81de 042b
00000050: 0832 7212 2c4c a644 d93c e1e6 3ed2 8111
00000060: 21be 7e81 2103 dc65 c086 3be8 055a d440
00000070: 317f d9b5 5601 01b8 7367 da05 11e6 5240
00000080: 0db8 09a2 18bd 15a5 144d 4df0 0b7f 4b4c
00000090: 0adc fd7f 13e6 3dc8 c172 10ea eec3 120e
000000a0: fd07 d681 0e08 ea28 31d3 15f6 01d4 ee06
000000b0: ff17 12eb 5be7 55bb b023 0224 0c7f b8d6
000000c0: 4e13 81f5 1fa9 0006 0639 adba ed63 0c2c
000000d0: f202 e40c 0c81 f518 05ed 07fd 11fc 0b0f
000000e0: 1df4 44df 4404 81ae e6e9 1807 13cb f6e2
000000f0: a934 fcdd 1b13 7f3a e719 58f3 2e62 3ede

model_1/block_5_project/Conv2D i1 [16, 1, 1, 96]
-15 -18 4 -33 9 -6 -48 4
19 13 -9 -3 -7 -16 -21 19
-6 1 -1 -3 3 -38 9 0
1 13 -11 127 28 -43 49 -10
-2 13 6 8 -5 20 -46 -11
-23 16 2 43 7 18 13 -2
21 0 -12 2 21 -17 -12 86
11 16 -34 -39 5 23 -10 -32
-45 -70 -16 46 2 3 17 -10
-15 -35 -4 -28 -12 12 -7 -3
-9 -37 20 17 5 -16 -15 -100
-5 -20 -7 -10 51 -34 -29 -4
49 -83 -84 -71 120 -19 64 39
-28 -81 -53 -25 2 -22 -63 63
-72 -3 48 42 0 36 -10 -79
13 -8 -36 -79 28 -30 -65 43
-25 47 -2 8 21 6 -12 19
-60 31 -40 -15 -37 86 12 -5
22 -83 4 -47 -11 50 58 21
-51 -17 -34 -43 37 -23 -16 -53
-94 106 -22 -10 -16 -50 -24 20
44 -125 -32 -6 50 -67 31 -6
7 -41 28 -9 -40 19 -31 21
17 -54 -11 4 25 -3 40 127
-10 57 -87 4 87 58 64 51
-9 -127 -15 8 18 17 26 1
5 -2 -41 71 54 15 87 42
51 20 15 -41 49 -12 36 -51
28 32 -22 22 -118 -102 52 42
39 -34 -4 -31 43 -43 -4 68
-13 34 -6 18 68 -18 -11 50
31 3 25 -7 -2 22 25 -12
00000000: f1ee 04df 09fa d004 130d f7fd f9f0 eb13
00000010: fa01 fffd 03da 0900 010d f57f 1cd5 31f6
00000020: fe0d 0608 fb14 d2f5 e910 022b 0712 0dfe
00000030: 1500 f402 15ef f456 0b10 ded9 0517 f6e0
00000040: d3ba f02e 0203 11f6 f1dd fce4 f40c f9fd
00000050: f7db 1411 05f0 f19c fbec f9f6 33de e3fc
00000060: 31ad acb9 78ed 4027 e4af cbe7 02ea c13f
00000070: b8fd 302a 0024 f6b1 0df8 dcb1 1ce2 bf2b
00000080: e72f fe08 1506 f413 c41f d8f1 db56 0cfb
00000090: 16ad 04d1 f532 3a15 cdef ded5 25e9 f0cb
000000a0: a26a eaf6 f0ce e814 2c83 e0fa 32bd 1ffa
000000b0: 07d7 1cf7 d813 e115 11ca f504 19fd 287f
000000c0: f639 a904 573a 4033 f781 f108 1211 1a01
000000d0: 05fe d747 360f 572a 3314 0fd7 31f4 24cd
000000e0: 1c20 ea16 8a9a 342a 27de fce1 2bd5 fc44
000000f0: f322 fa12 44ee f532 1f03 19f9 fe16 19f4

model_1/block_5_depthwise_BN/FusedBatchNormV3;model_1/block_5_depthwise/depthwise;model_1/block_6_expand/Conv2D i1 [1, 3, 3, 96]
-45 -71 -12 127 22 73 75 -57
-16 -16 -15 -2 -29 3 37 8
-7 -43 27 19 28 -127 127 9
-86 8 53 -28 -127 -127 37 24
10 25 62 -19 -30 -11 27 -7
-16 28 -106 75 26 -70 36 45
-18 48 -25 19 11 -5 19 49
-93 -48 -64 -20 -8 1 11 39
67 -24 76 13 -10 18 19 127
23 24 23 -2 -11 20 127 -6
-16 15 -26 22 127 20 -79 -15
-3 -34 -15 -43 0 -25 -16 27
127 -127 71 105 -43 127 41 -116
66 6 -18 127 127 -95 -12 21
11 127 127 -113 127 -75 81 73
-127 -113 -65 -33 -55 45 -59 -19
-93 50 -127 -84 -41 -17 -57 62
-2 127 127 85 -51 -113 -113 -51
-15 -127 41 85 75 -31 50 82
-46 43 -85 -115 -42 -39 -61 68
72 -60 28 29 -82 34 -17 91
120 127 10 19 2 60 -34 51
64 127 127 -22 -7 70 -117 127
-122 -106 5 -127 -91 -127 -38 110
-71 -14 26 -83 15 -19 68 -7
77 -33 -28 19 -18 0 -8 -7
-6 -14 8 -7 -16 -101 30 3
-126 93 7 -54 119 48 -14 8
-2 10 14 -29 -8 31 15 12
23 13 -120 62 18 -20 35 13
-14 7 -18 5 -3 3 1 21
-68 6 -39 51 4 41 34 2
00000000: d3b9 f47f 1649 4bc7 f0f0 f1fe e303 2508
00000010: f9d5 1b13 1c81 7f09 aa08 35e4 8181 2518
00000020: 0a19 3eed e2f5 1bf9 f01c 964b 1aba 242d
00000030: ee30 e713 0bfb 1331 a3d0 c0ec f801 0b27
00000040: 43e8 4c0d f612 137f 1718 17fe f514 7ffa
00000050: f00f e616 7f14 b1f1 fdde f1d5 00e7 f01b
00000060: 7f81 4769 d57f 298c 4206 ee7f 7fa1 f415
00000070: 0b7f 7f8f 7fb5 5149 818f bfdf c92d c5ed
00000080: a332 81ac d7ef c73e fe7f 7f55 cd8f 8fcd
00000090: f181 2955 4be1 3252 d22b ab8d d6d9 c344
000000a0: 48c4 1c1d ae22 ef5b 787f 0a13 023c de33
000000b0: 407f 7fea f946 8b7f 8696 0581 a581 da6e
000000c0: b9f2 1aad 0fed 44f9 4ddf e413 ee00 f8f9
000000d0: faf2 08f9 f09b 1e03 825d 07ca 7730 f208
000000e0: fe0a 0ee3 f81f 0f0c 170d 883e 12ec 230d
000000f0: f207 ee05 fd03 0115 bc06 d933 0429 2202

model_1/block_5_expand/Conv2D i1 [96, 1, 1, 16]
-5 90 -47 50 15 31 -3 -3
55 41 -65 118 -7 -127 28 -101
12 77 3 -11 44 -52 103 -127
-3 80 -14 -12 -3 -42 31 13
-127 45 1 -3 14 -9 19 52
-40 23 122 -28 -45 23 43 -40
-70 51 64 88 -18 80 66 99
21 82 -127 -13 75 -66 -79 -36
-1 -29 34 91 -49 85 -14 89
48 -18 -13 17 2 -2 -127 -32
-8 -20 46 -1 13 -27 22 58
-60 127 -39 -84 -4 16 -61 -27
2 -6 36 -11 50 73 -59 -54
-18 -28 90 -25 127 -20 0 -63
39 11 127 -16 -36 -44 27 -21
-112 71 -96 -38 17 -30 78 -1
17 33 105 70 -60 95 53 56
51 17 10 -110 -39 5 -127 -115
33 -114 94 67 18 -29 14 40
127 1 111 13 -57 54 -114 -23
-18 -92 14 -15 -77 41 -10 73
78 127 30 -53 -26 74 81 -26
-7 -52 43 -127 46 -48 -95 -92
-72 35 22 -72 36 1 47 -51
5 4 -1 -40 -45 -66 -115 5
-74 -84 -23 -18 38 127 80 99
-12 -106 -57 19 5 -56 -14 -28
76 8 -21 24 5 24 127 23
-7 -40 45 29 43 36 10 108
3 52 14 -50 5 29 -69 127
27 -7 -11 58 24 -25 117 -6
-14 -127 12 -36 17 -28 -13 -51
00000000: fb5a d132 0f1f fdfd 3729 bf76 f981 1c9b
00000010: 0c4d 03f5 2ccc 6781 fd50 f2f4 fdd6 1f0d
00000020: 812d 01fd 0ef7 1334 d817 7ae4 d317 2bd8
00000030: ba33 4058 ee50 4263 1552 81f3 4bbe b1dc
00000040: ffe3 225b cf55 f259 30ee f311 02fe 81e0
00000050: f8ec 2eff 0de5 163a c47f d9ac fc10 c3e5
00000060: 02fa 24f5 3249 c5ca eee4 5ae7 7fec 00c1
00000070: 270b 7ff0 dcd4 1beb 9047 a0da 11e2 4eff
00000080: 1121 6946 c45f 3538 3311 0a92 d905 818d
00000090: 218e 5e43 12e3 0e28 7f01 6f0d c736 8ee9
000000a0: eea4 0ef1 b329 f649 4e7f 1ecb e64a 51e6
000000b0: f9cc 2b81 2ed0 a1a4 b823 16b8 2401 2fcd
000000c0: 0504 ffd8 d3be 8d05 b6ac e9ee 267f 5063
000000d0: f496 c713 05c8 f2e4 4c08 eb18 0518 7f17
000000e0: f9d8 2d1d 2b24 0a6c 0334 0ece 051d bb7f
000000f0: 1bf9 f53a 18e7 75fa f281 0cdc 11e4 f3cd

model_1/block_4_project/Conv2D i1 [16, 1, 1, 96]
-10 9 -27 12 58 73 -48 -35
38 12 -7 9 -5 17 35 59
-9 -9 -7 2 104 -59 0 -8
-31 -38 -40 -109 -11 7 43 48
127 1 -3 -5 14 -20 -8 9
-21 14 9 -27 6 -28 -20 21
-12 30 -6 -7 -29 -22 4 -17
52 32 -15 -38 -60 23 -7 0
12 11 53 12 6 -1 -3 -31
-80 7 1 -4 -2 -90 22 -18
33 -22 -61 -51 28 -24 -14 25
4 5 22 -24 20 14 -13 124
60 -77 27 84 3 -59 -22 -48
-30 -82 -13 55 19 -79 -49 -64
-93 15 15 36 -17 -123 -61 16
122 -51 -69 27 -44 104 -17 53
-17 49 -61 -2 -38 -13 93 -41
23 -80 63 -28 -54 2 76 -11
27 23 -10 -56 80 -73 28 -38
14 34 -1 -107 33 -73 45 -41
2 -104 18 42 35 72 -53 -26
-127 55 -12 75 54 87 28 -24
22 21 -60 30 -97 48 -13 62
-68 45 38 23 -9 -51 17 2
15 20 23 -31 -9 -16 5 28
60 -18 26 48 -6 7 41 7
-14 -24 4 -13 -21 -68 20 -60
-11 -6 -25 35 -6 3 107 -46
10 -74 -20 52 13 127 -64 -27
-13 -19 6 33 -35 -46 -47 25
28 28 -21 -29 28 17 0 -17
-29 2 -16 36 0 8 56 80
00000000: f609 e50c 3a49 d0dd 260c f909 fb11 233b
00000010: f7f7 f902 68c5 00f8 e1da d893 f507 2b30
00000020: 7f01 fdfb 0eec f809 eb0e 09e5 06e4 ec15
00000030: f41e faf9 e3ea 04ef 3420 f1da c417 f900
00000040: 0c0b 350c 06ff fde1 b007 01fc fea6 16ee
00000050: 21ea c3cd 1ce8 f219 0405 16e8 140e f37c
00000060: 3cb3 1b54 03c5 ead0 e2ae f337 13b1 cfc0
00000070: a30f 0f24 ef85 c310 7acd bb1b d468 ef35
00000080: ef31 c3fe daf3 5dd7 17b0 3fe4 ca02 4cf5
00000090: 1b17 f6c8 50b7 1cda 0e22 ff95 21b7 2dd7
000000a0: 0298 122a 2348 cbe6 8137 f44b 3657 1ce8
000000b0: 1615 c41e 9f30 f33e bc2d 2617 f7cd 1102
000000c0: 0f14 17e1 f7f0 051c 3cee 1a30 fa07 2907
000000d0: f2e8 04f3 ebbc 14c4 f5fa e723 fa03 6bd2
000000e0: 0ab6 ec34 0d7f c0e5 f3ed 0621 ddd2 d119
000000f0: 1c1c ebe3 1c11 00ef e302 f024 0008 3850

model_1/block_4_depthwise_BN/FusedBatchNormV3;model_1/block_4_depthwise/depthwise;model_1/block_6_expand/Conv2D i1 [1, 3, 3, 96]
-17 8 -19 106 -16 24 -64 -55
20 -5 100 -8 3 -8 -2 52
6 14 -34 5 71 1 33 -33
0 16 42 45 21 11 22 49
-7 30 11 -14 4 50 -72 -26
21 10 28 19 -85 -58 24 -5
-11 -19 -9 -7 48 5 -10 1
0 -36 28 -31 26 -3 127 27
-13 -12 7 -56 66 35 1 -4
79 -36 66 4 17 -127 29 63
1 19 127 -16 39 28 -24 -17
35 -4 -14 78 0 20 -2 12
-48 15 -8 9 52 -6 -11 -127
41 14 -127 -4 -16 -13 5 87
18 -33 -17 -14 75 -97 127 27
-60 -33 -105 -17 27 34 -51 20
116 11 -13 1 -25 127 -73 -127
8 -19 -29 14 47 -127 127 -45
-76 53 47 6 39 -65 30 55
39 40 -97 82 127 35 4 -19
43 -39 -94 -3 37 -31 -18 48
-48 -50 105 -4 -30 -60 -33 62
-65 66 -15 7 -9 47 53 -38
-28 54 -13 70 -127 -31 23 -127
0 -3 -22 -76 8 21 38 18
-2 -2 6 64 0 -11 -9 5
-13 14 -14 16 7 25 26 -31
-1 -32 9 12 -5 7 44 -76
40 18 10 -22 12 6 -41 -20
8 3 -14 8 22 -36 21 1
6 -6 5 -6 5 5 -7 8
-3 42 5 -4 10 -20 5 -17
00000000: ef08 ed6a f018 c0c9 14fb 64f8 03f8 fe34
00000010: 060e de05 4701 21df 0010 2a2d 150b 1631
00000020: f91e 0bf2 0432 b8e6 150a 1c13 abc6 18fb
00000030: f5ed f7f9 3005 f601 00dc 1ce1 1afd 7f1b
00000040: f3f4 07c8 4223 01fc 4fdc 4204 1181 1d3f
00000050: 0113 7ff0 271c e8ef 23fc f24e 0014 fe0c
00000060: d00f f809 34fa f581 290e 81fc f0f3 0557
00000070: 12df eff2 4b9f 7f1b c4df 97ef 1b22 cd14
00000080: 740b f301 e77f b781 08ed e30e 2f81 7fd3
00000090: b435 2f06 27bf 1e37 2728 9f52 7f23 04ed
000000a0: 2bd9 a2fd 25e1 ee30 d0ce 69fc e2c4 df3e
000000b0: bf42 f107 f72f 35da e436 f346 81e1 1781
000000c0: 00fd eab4 0815 2612 fefe 0640 00f5 f705
000000d0: f30e f210 0719 1ae1 ffe0 090c fb07 2cb4
000000e0: 2812 0aea 0c06 d7ec 0803 f208 16dc 1501
000000f0: 06fa 05fa 0505 f908 fd2a 05fc 0aec 05ef

model_1/block_4_expand/Conv2D i1 [96, 1, 1, 16]
28 -24 127 92 71 -19 35 -41
91 -16 -37 -72 29 73 -25 -77
60 114 14 5 121 1 3 16
43 104 -37 127 -28 -46 69 -99
-1 -41 0 4 -53 43 -16 97
-54 -53 34 85 -4 -127 89 -90
127 95 -9 34 -117 -27 -58 -31
-7 -17 75 -69 -37 80 -34 -26
-1 4 -2 22 -36 56 2 82
-75 -27 4 -31 -9 -127 14 -7
100 -45 -28 -5 -13 -121 -30 31
-6 -9 -127 7 10 5 -27 40
-73 -39 -33 89 -28 -33 -29 33
-127 -61 -83 -2 24 19 14 80
-34 4 -71 35 20 -127 -12 74
-2 -23 28 -9 -6 24 -56 31
12 -37 -8 -3 12 24 -35 -49
-3 16 -57 4 -127 -1 13 9
7 -47 44 127 28 34 -18 -109
126 -114 17 -22 -40 42 -90 32
-105 -91 8 -22 87 27 35 43
127 -46 -48 25 68 -71 -79 78
62 -16 -127 7 54 51 -49 44
-33 -60 1 -27 -21 31 -56 3
113 -118 59 8 -22 -67 -45 -49
69 23 -127 -20 -51 -7 1 92
33 -93 17 -40 102 31 -127 -87
25 -101 13 31 6 0 11 -37
-45 41 -86 -54 74 -127 57 -33
53 42 -9 -107 49 117 -13 31
30 -13 56 33 39 -57 -13 -8
11 -39 -68 -13 -127 -63 -19 69
00000000: 1ce8 7f5c 47ed 23d7 5bf0 dbb8 1d49 e7b3
00000010: 3c72 0e05 7901 0310 2b68 db7f e4d2 459d
00000020: ffd7 0004 cb2b f061 cacb 2255 fc81 59a6
00000030: 7f5f f722 8be5 c6e1 f9ef 4bbb db50 dee6
00000040: ff04 fe16 dc38 0252 b5e5 04e1 f781 0ef9
00000050: 64d3 e4fb f387 e21f faf7 8107 0a05 e528
00000060: b7d9 df59 e4df e321 81c3 adfe 1813 0e50
00000070: de04 b923 1481 f44a fee9 1cf7 fa18 c81f
00000080: 0cdb f8fd 0c18 ddcf fd10 c704 81ff 0d09
00000090: 07d1 2c7f 1c22 ee93 7e8e 11ea d82a a620
000000a0: 97a5 08ea 571b 232b 7fd2 d019 44b9 b14e
000000b0: 3ef0 8107 3633 cf2c dfc4 01e5 eb1f c803
000000c0: 718a 3b08 eabd d3cf 4517 81ec cdf9 015c
000000d0: 21a3 11d8 661f 81a9 199b 0d1f 0600 0bdb
000000e0: d329 aaca 4a81 39df 352a f795 3175 f31f
000000f0: 1ef3 3821 27c7 f3f8 0bd9 bcf3 81c1 ed45

model_1/block_3_project/Conv2D i1 [16, 1, 1, 48]
-10 11 -17 10 15 -1 4 102
-49 15 42 -6 10 -16 -2 18
17 -19 -12 -3 64 -4 15 127
-15 80 1 -14 19 -12 30 -41
-13 46 22 -49 15 50 16 -25
-103 -19 22 45 45 20 -121 -47
-31 -11 22 16 -32 6 5 58
-60 -40 -2 -52 -21 -26 -1 0
-26 115 -10 20 2 14 -27 -12
23 -45 13 20 -34 -90 -36 11
-16 -6 35 3 1 -42 2 12
-15 -25 127 16 11 -6 14 -8
-20 -10 -11 -37 -3 -64 2 -22
1 14 14 22 15 14 -19 5
-8 -17 -21 -16 -4 1 -2 -127
-9 74 -16 3 1 -22 -3 3
-5 51 10 -2 20 13 26 11
-42 6 -19 -7 -5 -6 15 3
-8 45 5 -32 -6 0 1 -6
-23 0 -2 40 -127 5 -2 -2
-3 10 -18 0 -31 2 8 15
-12 -13 6 27 -15 21 6 22
3 4 14 23 -10 30 42 6
11 3 25 -29 12 -5 6 12
41 -26 14 7 21 33 33 -17
-20 2 -16 -20 -1 11 -3 18
18 -13 -81 8 -5 10 22 74
4 -30 15 50 5 -73 18 -8
17 -42 35 -127 13 45 -2 9
-25 25 8 -23 -6 -31 6 2
33 -1 -14 59 1 -15 9 27
2 -4 35 5 4 58 -5 4
00000000: f60b ef0a 0fff 0466 cf0f 2afa 0af0 fe12
00000010: 11ed f4fd 40fc 0f7f f150 01f2 13f4 1ed7
00000020: f32e 16cf 0f32 10e7 99ed 162d 2d14 87d1
00000030: e1f5 1610 e006 053a c4d8 fecc ebe6 ff00
00000040: e673 f614 020e e5f4 17d3 0d14 dea6 dc0b
00000050: f0fa 2303 01d6 020c f1e7 7f10 0bfa 0ef8
00000060: ecf6 f5db fdc0 02ea 010e 0e16 0f0e ed05
00000070: f8ef ebf0 fc01 fe81 f74a f003 01ea fd03
00000080: fb33 0afe 140d 1a0b d606 edf9 fbfa 0f03
00000090: f82d 05e0 fa00 01fa e900 fe28 8105 fefe
000000a0: fd0a ee00 e102 080f f4f3 061b f115 0616
000000b0: 0304 0e17 f61e 2a06 0b03 19e3 0cfb 060c
000000c0: 29e6 0e07 1521 21ef ec02 f0ec ff0b fd12
000000d0: 12f3 af08 fb0a 164a 04e2 0f32 05b7 12f8
000000e0: 11d6 2381 0d2d fe09 e719 08e9 fae1 0602
000000f0: 21ff f23b 01f1 091b 02fc 2305 043a fb04

model_1/block_3_depthwise_BN/FusedBatchNormV3;model_1/block_3_depthwise/depthwise i1 [1, 3, 3, 48]
69 -95 99 73 54 -33 108 -67
60 -92 -83 50 53 -44 -71 -88
102 78 49 79 63 -72 -82 52
-31 -41 -64 -61 -66 64 -63 -115
-12 40 71 65 -64 54 -53 -25
50 -73 59 62 -93 11 78 -34
81 -98 127 88 -77 -68 -54 -86
96 -104 -65 76 82 -111 -95 93
-39 97 84 127 81 -111 53 71
-51 -79 -68 -79 56 82 -30 -127
-83 79 84 84 -82 85 -85 -18
74 -94 84 89 -73 -127 94 -101
33 -49 71 39 18 -40 -45 -39
43 -34 3 36 30 -81 -56 0
-53 37 36 69 32 -52 31 27
-27 -47 -45 -22 31 32 87 -89
-84 46 38 34 -29 42 -40 -12
42 -39 37 44 -8 -8 37 -73
90 -113 -40 95 55 -83 127 -90
88 -113 -72 82 84 -112 -14 -127
127 107 74 -40 83 107 -127 72
72 -78 -94 -98 -127 86 -70 -11
-89 71 105 97 -85 78 -81 89
85 -101 86 90 -91 108 94 -92
127 -127 -63 127 -127 -127 -91 -127
127 -127 -127 127 127 -127 -23 98
-68 127 127 -52 127 127 69 127
127 -127 -127 -127 52 127 -28 15
-127 127 127 127 -127 127 -127 127
127 -127 127 127 -127 -11 127 -127
63 -82 -31 66 37 -61 -49 -64
55 -41 -60 57 50 -54 -18 11
00000000: 45a1 6349 36df 6cbd 3ca4 ad32 35d4 b9a8
00000010: 664e 314f 3fb8 ae34 e1d7 c0c3 be40 c18d
00000020: f428 4741 c036 cbe7 32b7 3b3e a30b 4ede
00000030: 519e 7f58 b3bc caaa 6098 bf4c 5291 a15d
00000040: d961 547f 5191 3547 cdb1 bcb1 3852 e281
00000050: ad4f 5454 ae55 abee 4aa2 5459 b781 5e9b
00000060: 21cf 4727 12d8 d3d9 2bde 0324 1eaf c800
00000070: cb25 2445 20cc 1f1b e5d1 d3ea 1f20 57a7
00000080: ac2e 2622 e32a d8f4 2ad9 252c f8f8 25b7
00000090: 5a8f d85f 37ad 7fa6 588f b852 5490 f281
000000a0: 7f6b 4ad8 536b 8148 48b2 a29e 8156 baf5
000000b0: a747 6961 ab4e af59 559b 565a a56c 5ea4
000000c0: 7f81 c17f 8181 a581 7f81 817f 7f81 e962
000000d0: bc7f 7fcc 7f7f 457f 7f81 8181 347f e40f
000000e0: 817f 7f7f 817f 817f 7f81 7f7f 81f5 7f81
000000f0: 3fae e142 25c3 cfc0 37d7 c439 32ca ee0b

model_1/block_3_expand/Conv2D i1 [48, 1, 1, 8]
-127 6 2 60 -38 40 21 -28
9 53 26 7 5 -41 77 127
-44 6 -3 0 -127 -7 18 -1
94 0 1 -114 -127 17 33 -18
-127 33 -17 -1 50 -12 36 19
-116 -25 23 -3 -127 4 5 93
-19 -127 18 -15 -1 16 14 38
-76 -2 5 99 127 -41 -49 12
95 10 9 -127 3 -31 -58 -37
-20 -127 -6 -27 -27 95 -62 91
-96 13 20 17 -127 85 86 -32
127 13 35 19 -62 -47 -46 -127
-2 9 48 -11 8 -81 127 69
51 -15 14 -31 106 120 127 -54
112 25 -13 11 -127 -2 -25 14
-22 -127 24 -20 -7 10 20 43
-55 -22 1 -5 -127 12 13 5
-20 103 -127 9 21 -117 102 -91
127 -35 -36 22 -71 24 2 126
127 -35 -14 -10 57 4 38 -4
127 18 -28 107 5 38 2 -57
11 42 -64 14 -18 99 -127 -99
-127 34 29 -4 -39 -9 -42 -16
-44 -58 1 20 -127 70 80 -23
127 -12 6 -5 -118 2 -1 3
28 -22 -11 -30 127 53 57 -25
9 -105 8 -26 4 -127 80 -48
-16 -127 29 -15 -5 -51 35 -8
-126 30 -12 21 -32 -7 127 72
-6 46 7 8 -13 36 -112 -127
127 -2 2 11 -54 -1 -27 -25
-20 -33 72 -13 12 -123 127 92
00000000: 8106 023c da28 15e4 0935 1a07 05d7 4d7f
00000010: d406 fd00 81f9 12ff 5e00 018e 8111 21ee
00000020: 8121 efff 32f4 2413 8ce7 17fd 8104 055d
00000030: ed81 12f1 ff10 0e26 b4fe 0563 7fd7 cf0c
00000040: 5f0a 0981 03e1 c6db ec81 fae5 e55f c25b
00000050: a00d 1411 8155 56e0 7f0d 2313 c2d1 d281
00000060: fe09 30f5 08af 7f45 33f1 0ee1 6a78 7fca
00000070: 7019 f30b 81fe e70e ea81 18ec f90a 142b
00000080: c9ea 01fb 810c 0d05 ec67 8109 158b 66a5
00000090: 7fdd dc16 b918 027e 7fdd f2f6 3904 26fc
000000a0: 7f12 e46b 0526 02c7 0b2a c00e ee63 819d
000000b0: 8122 1dfc d9f7 d6f0 d4c6 0114 8146 50e9
000000c0: 7ff4 06fb 8a02 ff03 1cea f5e2 7f35 39e7
000000d0: 0997 08e6 0481 50d0 f081 1df1 fbcd 23f8
000000e0: 821e f415 e0f9 7f48 fa2e 0708 f324 9081
000000f0: 7ffe 020b caff e5e7 ecdf 48f3 0c85 7f5c

model_1/block_2_project/Conv2D i1 [8, 1, 1, 48]
-37 -15 -41 23 -5 -18 0 2
-120 126 -46 119 126 11 88 -24
0 -27 6 11 -10 -15 -31 -48
25 -94 14 52 -4 14 24 -39
1 -91 127 30 0 -3 2 -22
113 -1 57 -44 -41 35 -18 -9
-3 34 122 9 -1 -34 15 -79
35 -4 29 4 -24 11 -3 -127
11 -66 1 4 -23 27 24 -30
-12 -7 20 6 13 4 10 -12
-3 1 19 12 -16 -39 68 -60
1 52 -11 24 -19 -3 28 -8
11 -49 15 -36 36 24 -5 -28
5 -3 -5 15 -6 56 10 -7
-35 127 -28 -34 -11 18 -37 -5
118 5 2 -3 -32 -12 -3 -41
-6 -17 4 7 -2 -4 -15 7
16 -21 -17 -4 4 20 -28 -38
8 -88 -7 11 6 -14 -9 1
-7 -20 21 19 17 -7 45 -5
-8 -24 6 34 -1 24 -24 6
10 57 3 13 -10 9 127 -6
17 5 -6 -9 -20 -18 -7 10
-20 12 -6 37 -9 5 -3 28
-103 15 7 6 8 -40 5 2
49 -40 20 -16 -29 4 -13 -4
9 12 1 24 11 -39 18 -3
-5 50 11 103 4 -7 3 -35
3 -127 -23 17 16 3 4 -2
-47 -9 -11 12 -61 9 4 9
-16 30 15 3 -53 9 -8 42
14 -2 7 -4 -4 -53 -2 30
00000000: dbf1 d717 fbee 0002 887e d277 7e0b 58e8
00000010: 00e5 060b f6f1 e1d0 19a2 0e34 fc0e 18d9
00000020: 01a5 7f1e 00fd 02ea 71ff 39d4 d723 eef7
00000030: fd22 7a09 ffde 0fb1 23fc 1d04 e80b fd81
00000040: 0bbe 0104 e91b 18e2 f4f9 1406 0d04 0af4
00000050: fd01 130c f0d9 44c4 0134 f518 edfd 1cf8
00000060: 0bcf 0fdc 2418 fbe4 05fd fb0f fa38 0af9
00000070: dd7f e4de f512 dbfb 7605 02fd e0f4 fdd7
00000080: faef 0407 fefc f107 10eb effc 0414 e4da
00000090: 08a8 f90b 06f2 f701 f9ec 1513 11f9 2dfb
000000a0: f8e8 0622 ff18 e806 0a39 030d f609 7ffa
000000b0: 1105 faf7 ecee f90a ec0c fa25 f705 fd1c
000000c0: 990f 0706 08d8 0502 31d8 14f0 e304 f3fc
000000d0: 090c 0118 0bd9 12fd fb32 0b67 04f9 03dd
000000e0: 0381 e911 1003 04fe d1f7 f50c c309 0409
000000f0: f01e 0f03 cb09 f82a 0efe 07fc fccb fe1e

model_1/block_2_depthwise_BN/FusedBatchNormV3;model_1/block_2_depthwise/depthwise;model_1/block_3_depthwise/depthwise i1 [1, 3, 3, 48]
5 -5 20 111 3 83 -2 28
14 7 10 7 -7 -8 -44 8
-2 8 -24 -112 -6 -22 127 -9
-3 6 -5 9 -4 4 14 98
20 28 38 -27 1 34 -2 2
18 -73 -8 -9 18 2 -6 -10
127 9 15 -127 27 88 10 10
122 127 6 43 -49 -23 5 8
127 -56 -60 -56 -101 25 -109 16
16 69 -31 -84 24 21 10 -122
6 -61 127 10 -40 -47 -5 115
-77 -102 -29 3 -32 -10 -127 23
-32 -3 7 16 -1 67 4 17
27 8 -16 31 -13 -2 16 3
-103 29 -3 76 -31 -12 -17 -5
-4 -59 -3 28 -16 5 3 -21
8 -23 14 -18 0 47 41 -12
50 36 -15 12 -40 2 -1 -6
126 6 1 -99 13 -26 34 -16
8 8 -11 53 -5 1 19 -33
0 -49 -63 -83 11 -73 -124 -18
6 98 -14 -127 -8 32 11 -107
18 -53 -2 127 -2 58 -42 42
-60 -127 39 -87 -42 -16 -12 -5
26 -127 -127 116 -127 -127 -127 -127
-127 -98 127 -127 127 127 35 -127
-83 127 127 -104 127 127 112 127
127 -127 -127 28 -127 -127 96 127
-127 127 -28 -42 127 -127 127 127
127 -80 127 127 127 -126 102 106
53 5 49 -14 4 -61 44 18
-24 14 -105 -8 1 -38 127 3
00000000: 05fb 146f 0353 fe1c 0e07 0a07 f9f8 d408
00000010: fe08 e890 faea 7ff7 fd06 fb09 fc04 0e62
00000020: 141c 26e5 0122 fe02 12b7 f8f7 1202 faf6
00000030: 7f09 0f81 1b58 0a0a 7a7f 062b cfe9 0508
00000040: 7fc8 c4c8 9b19 9310 1045 e1ac 1815 0a86
00000050: 06c3 7f0a d8d1 fb73 b39a e303 e0f6 8117
00000060: e0fd 0710 ff43 0411 1b08 f01f f3fe 1003
00000070: 991d fd4c e1f4 effb fcc5 fd1c f005 03eb
00000080: 08e9 0eee 002f 29f4 3224 f10c d802 fffa
00000090: 7e06 019d 0de6 22f0 0808 f535 fb01 13df
000000a0: 00cf c1ad 0bb7 84ee 0662 f281 f820 0b95
000000b0: 12cb fe7f fe3a d62a c481 27a9 d6f0 f4fb
000000c0: 1a81 8174 8181 8181 819e 7f81 7f7f 2381
000000d0: ad7f 7f98 7f7f 707f 7f81 811c 8181 607f
000000e0: 817f e4d6 7f81 7f7f 7fb0 7f7f 7f82 666a
000000f0: 3505 31f2 04c3 2c12 e80e 97f8 01da 7f03

model_1/block_2_expand/Conv2D i1 [48, 1, 1, 8]
85 46 -12 -10 127 16 -48 -32
-13 -14 2 127 3 -12 -6 36
54 -127 -32 59 -4 -84 90 8
127 -36 -15 17 -20 -33 36 14
10 -56 127 -9 -15 -60 12 -102
90 -10 3 3 127 25 -30 -11
-16 94 -8 127 27 45 -75 -53
-7 127 -4 0 7 -14 6 -3
127 60 11 7 -52 -19 -21 -45
-127 7 11 31 45 3 -13 9
-97 -22 6 127 44 44 -25 -9
-127 -3 22 -65 27 16 -40 -50
127 20 15 20 -42 -7 -11 -34
-22 100 -122 3 15 127 -89 72
-36 -42 -3 127 18 0 -10 -6
-6 127 0 -3 -3 -15 5 -51
-1 -125 -20 -5 -1 -120 127 -31
22 127 1 -4 17 73 -84 -17
-12 59 -127 14 -4 62 -46 57
-52 32 1 5 -127 3 44 -14
-127 -14 4 7 37 -31 1 8
-76 -9 -2 2 -127 -2 11 2
-127 -17 -13 0 71 -12 44 40
-24 -18 -15 -7 -13 77 -127 -100
-11 41 -127 7 12 54 -18 76
81 -46 10 127 -69 -15 -5 -34
-7 -11 -12 6 -9 107 127 -32
70 -5 0 18 127 33 33 -23
-4 127 -55 5 13 87 -40 110
-8 16 -5 -16 1 82 -127 -86
3 -1 -6 -127 -9 -11 -10 -13
-58 10 4 12 -127 -4 2 8
00000000: 552e f4f6 7f10 d0e0 f3f2 027f 03f4 fa24
00000010: 3681 e03b fcac 5a08 7fdc f111 ecdf 240e
00000020: 0ac8 7ff7 f1c4 0c9a 5af6 0303 7f19 e2f5
00000030: f05e f87f 1b2d b5cb f97f fc00 07f2 06fd
00000040: 7f3c 0b07 cced ebd3 8107 0b1f 2d03 f309
00000050: 9fea 067f 2c2c e7f7 81fd 16bf 1b10 d8ce
00000060: 7f14 0f14 d6f9 f5de ea64 8603 0f7f a748
00000070: dcd6 fd7f 1200 f6fa fa7f 00fd fdf1 05cd
00000080: ff83 ecfb ff88 7fe1 167f 01fc 1149 acef
00000090: f43b 810e fc3e d239 cc20 0105 8103 2cf2
000000a0: 81f2 0407 25e1 0108 b4f7 fe02 81fe 0b02
000000b0: 81ef f300 47f4 2c28 e8ee f1f9 f34d 819c
000000c0: f529 8107 0c36 ee4c 51d2 0a7f bbf1 fbde
000000d0: f9f5 f406 f76b 7fe0 46fb 0012 7f21 21e9
000000e0: fc7f c905 0d57 d86e f810 fbf0 0152 81aa
000000f0: 03ff fa81 f7f5 f6f3 c60a 040c 81fc 0208

model_1/block_1_project/Conv2D i1 [8, 1, 1, 48]
-10 0 11 -88 10 24 6 12
-3 9 -2 -10 97 0 -3 9
0 -10 -6 0 82 -3 -1 7
23 42 15 20 5 7 1 -127
11 8 0 -3 -27 4 -8 32
8 -25 -7 2 5 1 2 -1
-35 -3 -7 -4 45 26 -36 79
23 6 -34 -33 12 0 18 34
0 44 15 -52 2 18 127 28
-28 -5 61 3 18 -4 16 -10
19 -3 -10 -17 5 -61 9 2
-4 -5 -89 -7 -42 14 -51 -97
-58 14 5 9 45 -18 34 22
-9 59 12 -6 3 0 9 55
0 10 -127 25 1 9 -1 -14
-40 -1 33 12 4 36 21 1
2 -8 -11 -11 7 12 4 1
39 -15 -27 -3 29 -53 28 22
-1 -1 -2 9 -7 32 2 -8
64 10 2 -8 28 0 -33 -8
0 -9 -9 5 6 6 1 -16
-10 -11 -14 6 -10 -3 0 -2
-46 35 -51 1 0 1 -3 -127
5 0 5 -45 1 -5 4 13
-1 -7 76 32 3 -17 -3 -5
4 -7 0 -14 -79 0 -16 7
0 8 8 4 67 4 -2 -6
-16 34 -1 36 -15 -2 4 97
8 -4 3 -1 6 -20 -9 -17
-1 -127 5 4 -1 -5 2 3
-3 45 5 -9 1 50 25 15
-20 33 11 56 26 0 -127 -5
00000000: f600 0ba8 0a18 060c fd09 fef6 6100 fd09
00000010: 00f6 fa00 52fd ff07 172a 0f14 0507 0181
00000020: 0b08 00fd e504 f820 08e7 f902 0501 02ff
00000030: ddfd f9fc 2d1a dc4f 1706 dedf 0c00 1222
00000040: 002c 0fcc 0212 7f1c e4fb 3d03 12fc 10f6
00000050: 13fd f6ef 05c3 0902 fcfb a7f9 d60e cd9f
00000060: c60e 0509 2dee 2216 f73b 0cfa 0300 0937
00000070: 000a 8119 0109 fff2 d8ff 210c 0424 1501
00000080: 02f8 f5f5 070c 0401 27f1 e5fd 1dcb 1c16
00000090: ffff fe09 f920 02f8 400a 02f8 1c00 dff8
000000a0: 00f7 f705 0606 01f0 f6f5 f206 f6fd 00fe
000000b0: d223 cd01 0001 fd81 0500 05d3 01fb 040d
000000c0: fff9 4c20 03ef fdfb 04f9 00f2 b100 f007
000000d0: 0008 0804 4304 fefa f022 ff24 f1fe 0461
000000e0: 08fc 03ff 06ec f7ef ff81 0504 fffb 0203
000000f0: fd2d 05f7 0132 190f ec21 0b38 1a00 81fb

model_1/block_1_depthwise_BN/FusedBatchNormV3;model_1/block_1_depthwise/depthwise;model_1/block_3_depthwise/depthwise i1 [1, 3, 3, 48]
-44 -23 -8 -18 6 -39 -79 -68
-26 -50 8 60 34 -71 115 -44
-113 -83 37 -6 -1 -73 -111 -79
-34 -127 -64 -21 70 15 95 27
-127 -89 -8 52 17 46 -127 78
-76 -13 103 -109 -3 -34 -88 109
75 12 -29 -30 57 -127 -127 -80
59 -75 -115 103 38 -82 0 61
-52 -112 59 7 11 -111 -127 -70
-4 -126 -121 -38 -54 21 -56 55
29 -127 64 80 12 71 -91 127
-127 6 123 -127 2 -22 -127 95
-33 43 7 -6 -65 -108 -58 -17
85 -7 -127 35 8 -71 -101 -12
-127 -24 27 12 -15 -78 -36 -23
-11 -30 -57 -10 -11 17 -24 10
107 -87 70 30 13 34 -5 16
-78 4 6 -78 -16 6 -55 15
-86 -127 -44 -44 -10 55 97 -106
-26 -109 -22 108 89 -64 28 -97
-121 -94 90 -77 41 -87 -103 -127
42 -117 -78 -40 127 -61 127 85
-42 -87 -15 84 -37 -77 -106 89
41 60 105 -109 -91 -117 82 119
127 -83 -127 -127 127 41 92 -127
99 -127 -114 127 127 -14 -6 127
-60 -127 127 -127 127 -127 -120 -119
127 -96 -127 -127 -116 -127 -70 127
29 -115 127 127 -70 -127 -95 90
61 127 127 -115 -111 -127 125 127
-54 31 -61 -84 -119 -22 30 -36
127 -21 -79 37 55 -70 -25 -44
00000000: d4e9 f8ee 06d9 b1bc e6ce 083c 22b9 73d4
00000010: 8fad 25fa ffb7 91b1 de81 c0eb 460f 5f1b
00000020: 81a7 f834 112e 814e b4f3 6793 fdde a86d
00000030: 4b0c e3e2 3981 81b0 3bb5 8d67 26ae 003d
00000040: cc90 3b07 0b91 81ba fc82 87da ca15 c837
00000050: 1d81 4050 0c47 a57f 8106 7b81 02ea 815f
00000060: df2b 07fa bf94 c6ef 55f9 8123 08b9 9bf4
00000070: 81e8 1b0c f1b2 dce9 f5e2 c7f6 f511 e80a
00000080: 6ba9 461e 0d22 fb10 b204 06b2 f006 c90f
00000090: aa81 d4d4 f637 6196 e693 ea6c 59c0 1c9f
000000a0: 87a2 5ab3 29a9 9981 2a8b b2d8 7fc3 7f55
000000b0: d6a9 f154 dbb3 9659 293c 6993 a58b 5277
000000c0: 7fad 8181 7f29 5c81 6381 8e7f 7ff2 fa7f
000000d0: c481 7f81 7f81 8889 7fa0 8181 8c81 ba7f
000000e0: 1d8d 7f7f ba81 a15a 3d7f 7f8d 9181 7d7f
000000f0: ca1f c3ac 89ea 1edc 7feb b125 37ba e7d4

model_1/block_1_expand/Conv2D i1 [48, 1, 1, 8]
11 -127 47 -43 23 -24 -42 26
68 61 -34 -107 4 -6 -77 127
39 15 -33 127 41 111 44 91
80 72 -80 127 -98 -6 -1 21
-32 -100 74 9 3 34 -44 -127
19 -2 -38 34 -6 -33 43 127
38 -9 -89 -70 127 16 36 -35
127 12 19 -28 15 11 86 -59
11 -108 4 125 23 21 -15 -127
123 -127 13 -8 -29 2 -125 90
-127 -48 -125 23 -4 21 -104 60
-31 -47 -6 -113 -127 -49 55 -14
10 5 -40 66 -74 -26 58 127
0 0 0 0 0 0 0 0
-4 -37 -9 8 39 127 40 42
42 8 12 -127 75 26 -50 81
0 0 0 0 0 0 0 0
11 23 127 20 -33 -7 35 30
88 -127 20 44 -9 23 -105 7
-127 -14 42 78 -49 -30 -71 80
28 44 -35 127 -18 -127 -7 67
63 18 127 11 -13 -10 63 12
-72 -21 -127 -8 -5 6 -94 0
-85 113 -17 -27 5 0 127 -64
5 -62 -58 74 -17 -54 109 127
19 42 29 26 127 113 -71 -55
-84 -30 -127 -4 5 26 -86 -4
-6 -38 -48 -3 -34 127 66 41
-3 -21 -21 38 31 127 57 67
91 27 127 5 -9 4 86 -3
-90 127 -33 -34 9 -17 114 -44
-38 -83 -18 7 29 -76 127 117
00000000: 0b81 2fd5 17e8 d61a 443d de95 04fa b37f
00000010: 270f df7f 296f 2c5b 5048 b07f 9efa ff15
00000020: e09c 4a09 0322 d481 13fe da22 fadf 2b7f
00000030: 26f7 a7ba 7f10 24dd 7f0c 13e4 0f0b 56c5
00000040: 0b94 047d 1715 f181 7b81 0df8 e302 835a
00000050: 81d0 8317 fc15 983c e1d1 fa8f 81cf 37f2
00000060: 0a05 d842 b6e6 3a7f 0000 0000 0000 0000
00000070: fcdb f708 277f 282a 2a08 0c81 4b1a ce51
00000080: 0000 0000 0000 0000 0b17 7f14 dff9 231e
00000090: 5881 142c f717 9707 81f2 2a4e cfe2 b950
000000a0: 1c2c dd7f ee81 f943 3f12 7f0b f3f6 3f0c
000000b0: b8eb 81f8 fb06 a200 ab71 efe5 0500 7fc0
000000c0: 05c2 c64a efca 6d7f 132a 1d1a 7f71 b9c9
000000d0: ace2 81fc 051a aafc fada d0fd de7f 4229
000000e0: fdeb eb26 1f7f 3943 5b1b 7f05 f704 56fd
000000f0: a67f dfde 09ef 72d4 daad ee07 1db4 7f75

model_1/expanded_conv_project/Conv2D i1 [8, 1, 1, 16]
0 -21 -1 -6 127 0 -2 1
0 -115 -87 -5 0 117 -1 0
0 -32 -2 88 76 14 15 7
0 -2 127 -49 0 34 -10 0
0 1 -2 -11 -56 4 14 2
0 5 -20 2 0 127 -7 0
0 -19 -24 -127 78 23 67 16
0 58 4 33 0 -1 20 0
0 31 -31 30 -48 31 127 10
0 -60 12 -19 0 -8 26 0
0 -14 -14 -1 -23 -24 -12 17
0 8 -6 -49 0 -6 127 0
0 22 -9 8 48 -22 -27 -8
0 -108 115 63 0 127 59 0
0 11 -16 127 17 -3 7 10
0 73 -55 79 0 -6 56 0
00000000: 00eb fffa 7f00 fe01 008d a9fb 0075 ff00
00000010: 00e0 fe58 4c0e 0f07 00fe 7fcf 0022 f600
00000020: 0001 fef5 c804 0e02 0005 ec02 007f f900
00000030: 00ed e881 4e17 4310 003a 0421 00ff 1400
00000040: 001f e11e d01f 7f0a 00c4 0ced 00f8 1a00
00000050: 00f2 f2ff e9e8 f411 0008 facf 00fa 7f00
00000060: 0016 f708 30ea e5f8 0094 733f 007f 3b00
00000070: 000b f07f 11fd 070a 0049 c94f 00fa 3800

model_1/expanded_conv_depthwise_BN/FusedBatchNormV3;model_1/expanded_conv_depthwise/depthwise;model_1/block_5_project/Conv2D i1 [1, 3, 3, 16]
-108 18 -83 -126 38 -67 80 -76
-90 -3 -8 29 -127 5 54 -73
51 24 -127 127 127 -127 127 -127
-85 127 -127 51 -105 5 127 -25
24 -25 90 -2 -73 67 -94 77
-95 -27 4 -15 61 1 -101 -29
-127 127 -23 13 -44 15 -28 14
-28 0 3 -109 -49 8 -29 -14
-78 -42 -58 -15 -8 -26 8 -28
-108 -89 21 -12 -104 -127 1 23
14 1 64 2 2 34 -25 33
-127 6 -2 2 -21 12 -4 43
-115 -73 67 2 -7 39 -38 52
-76 0 0 4 40 2 -27 23
23 -5 30 -2 -28 40 -33 21
-125 -13 0 84 -58 0 -28 -111
21 -8 18 0 4 14 9 22
-115 4 -1 -127 107 2 17 -127
00000000: 9412 ad82 26bd 50b4 a6fd f81d 8105 36b7
00000010: 3318 817f 7f81 7f81 ab7f 8133 9705 7fe7
00000020: 18e7 5afe b743 a24d a1e5 04f1 3d01 9be3
00000030: 817f e90d d40f e40e e400 0393 cf08 e3f2
00000040: b2d6 c6f1 f8e6 08e4 94a7 15f4 9881 0117
00000050: 0e01 4002 0222 e721 8106 fe02 eb0c fc2b
00000060: 8db7 4302 f927 da34 b400 0004 2802 e517
00000070: 17fb 1efe e428 df15 83f3 0054 c600 e491
00000080: 15f8 1200 040e 0916 8d04 ff81 6b02 1181

model_1/Conv1/Conv2D i1 [16, 3, 3, 3]
0 0 0 0 0 0 0 0
0 0 0 0 0 0 0 0
0 0 0 0 0 0 0 0
0 0 0 39 -3 28 -9 -21
15 -127 -110 -61 -1 -5 -1 -24
2 -5 -4 -30 4 -3 18 0
-5 8 -1 37 -15 13 15 7
-15 51 118 -8 35 -22 2 -3
24 -9 40 127 -35 16 7 -11
37 -55 8 57 -36 -30 25 -44
6 3 41 -1 27 98 14 -8
-1 -10 17 44 2 56 127 16
-22 -26 -1 6 10 4 21 25
1 -9 -14 -4 49 79 -12 20
85 -15 -11 11 -6 36 86 33
18 115 15 18 46 -25 53 82
25 44 127 7 -19 30 17 8
2 -119 -3 1 -103 -5 28 -27
5 -42 -127 0 -44 -114 -1 13
-23 -2 9 -17 3 -1 -10 2
14 -10 23 -64 30 45 -88 35
9 -21 6 33 -97 56 60 -127
66 6 -29 14 20 -34 12 14
-43 24 -12 8 -1 -31 17 4
-108 -39 1 -24 23 2 -13 -8
1 -127 -93 -7 -6 -5 5 -23
30 -9 -13 11 0 -22 25 -3
119 127 104 117 126 102 117 123
100 120 124 102 114 120 98 117
121 98 116 121 100 114 121 99
116 120 98 -22 -3 3 -13 -6
-8 4 4 -17 102 113 -19 81
00000000: 0000 0000 0000 0000 0000 0000 0000 0000
00000010: 0000 0000 0000 0000 0000 0027 fd1c f7eb
00000020: 0f81 92c3 fffb ffe8 02fb fce2 04fd 1200
00000030: fb08 ff25 f10d 0f07 f133 76f8 23ea 02fd
00000040: 18f7 287f dd10 07f5 25c9 0839 dce2 19d4
00000050: 0603 29ff 1b62 0ef8 fff6 112c 0238 7f10
00000060: eae6 ff06 0a04 1519 01f7 f2fc 314f f414
00000070: 55f1 f50b fa24 5621 1273 0f12 2ee7 3552
00000080: 192c 7f07 ed1e 1108 0289 fd01 99fb 1ce5
00000090: 05d6 8100 d48e ff0d e9fe 09ef 03ff f602
000000a0: 0ef6 17c0 1e2d a823 09eb 0621 9f38 3c81
000000b0: 4206 e30e 14de 0c0e d518 f408 ffe1 1104
000000c0: 94d9 01e8 1702 f3f8 0181 a3f9 fafb 05e9
000000d0: 1ef7 f30b 00ea 19fd 777f 6875 7e66 757b
000000e0: 6478 7c66 7278 6275 7962 7479 6472 7963
000000f0: 7478 62ea fd03 f3fa f804 04ef 6671 ed51
