trained.tflite (tflite, 56672 bytes, 21 tensors)

model_1/logits/Conv2D i1 [4, 1, 1, 32]
000000 39 de c8 cd 7f e6 00 de 3d 26 32 3f bf e6 22 f9
       57 -34 -56 -51 127 -26 0 -34 61 38 50 63 -65 -26 34 -7
000010 fe ce c2 fc f6 1b e3 4e e0 d1 02 13 31 d0 1c 03
       -2 -50 -62 -4 -10 27 -29 78 -32 -47 2 19 49 -48 28 3
000020 33 4f a9 f7 c3 2d 78 31 c8 a7 a6 11 63 cc 57 81
       51 79 -87 -9 -61 45 120 49 -56 -89 -90 17 99 -52 87 -127
000030 7c 82 18 c0 10 9e b7 e0 f2 89 42 ca c0 98 f0 eb
       124 -126 24 -64 16 -98 -73 -32 -14 -119 66 -54 -64 -104 -16 -21
000040 e5 66 1a 60 b3 f4 62 28 a1 83 5f b1 9c 5d 81 46
       -27 102 26 96 -77 -12 98 40 -95 -125 95 -79 -100 93 -127 70
000050 36 54 63 a8 ee 17 cb c3 1e c5 5b 9d dd 12 4c 45
       54 84 99 -88 -18 23 -53 -61 30 -59 91 -99 -35 18 76 69
000060 48 ba 4a 08 d2 68 21 f4 00 8d 27 61 4a fc 81 ed
       72 -70 74 8 -46 104 33 -12 0 -115 39 97 74 -4 -127 -19
000070 64 a3 69 fe 8f 07 ec de 57 fd a5 4a a6 6b 21 2f
       100 -93 105 -2 -113 7 -20 -34 87 -3 -91 74 -90 107 33 47

model_1/head/Conv2D i1 [32, 1, 1, 96]
000000 da d3 5b f6 3f ed b5 9e 2a a9 9a fd 31 0c e2 25
       -38 -45 91 -10 63 -19 -75 -98 42 -87 -102 -3 49 12 -30 37
000010 d6 e7 b4 ce c7 a7 05 60 81 01 3c de 62 fc e6 b1
       -42 -25 -76 -50 -57 -89 5 96 -127 1 60 -34 98 -4 -26 -79
000020 4b c9 b2 32 a4 b5 ad 0b 3d b3 a4 54 1b 99 52 ed
       75 -55 -78 50 -92 -75 -83 11 61 -77 -92 84 27 -103 82 -19
000030 11 ce df 42 bc cc b0 57 08 34 53 a1 b4 50 d3 2c
       17 -50 -33 66 -68 -52 -80 87 8 52 83 -95 -76 80 -45 44
000040 02 06 3d 3e 28 4a 49 9d 56 9d 32 48 b2 0e ca 12
       2 6 61 62 40 74 73 -99 86 -99 50 72 -78 14 -54 18
000050 29 06 57 f0 c7 d5 b3 54 20 5f 03 94 07 34 05 08
       41 6 87 -16 -57 -43 -77 84 32 95 3 -108 7 52 5 8
000060 cd 20 b5 ee b8 30 17 0a 46 9a 93 53 33 e7 18 26
       -51 32 -75 -18 -72 48 23 10 70 -102 -109 83 51 -25 24 38
000070 60 d4 0a 7f ce ec 18 0e 0f 1d d5 5a fb 10 63 c5
       96 -44 10 127 -50 -20 24 14 15 29 -43 90 -5 16 99 -59
000080 39 6a e5 1f 22 40 fb af c2 f8 ea 9f e2 27 e6 c5
       57 106 -27 31 34 64 -5 -81 -62 -8 -22 -97 -30 39 -26 -59
000090 e6 af 74 3d f4 58 be d8 01 49 46 39 d0 6b c2 bb
       -26 -81 116 61 -12 88 -66 -40 1 73 70 57 -48 107 -62 -69
0000a0 ce 1c 37 1b 70 1c f8 fc 84 65 d1 1f 57 c4 cb 30
       -50 28 55 27 112 28 -8 -4 -124 101 -47 31 87 -60 -53 48
0000b0 ab 56 d1 92 19 6c b4 bf 49 57 3b 2c 55 57 32 03
       -85 86 -47 -110 25 108 -76 -65 73 87 59 44 85 87 50 3
0000c0 29 21 b5 54 dc c0 4b 59 97 54 d0 70 6d f5 3d 85
       41 33 -75 84 -36 -64 75 89 -105 84 -48 112 109 -11 61 -123
0000d0 c7 e3 49 28 ab ea 6d 0c d4 40 5f 0e c3 51 4c 42
       -57 -29 73 40 -85 -22 109 12 -44 64 95 14 -61 81 76 66
0000e0 b5 de 93 8f ab 4c 60 e2 81 b7 07 f9 96 73 d6 aa
       -75 -34 -109 -113 -85 76 96 -30 -127 -73 7 -7 -106 115 -42 -86
0000f0 5d 2f 69 9b e7 28 05 05 b5 72 a9 04 f9 3f d7 4e
       93 47 105 -101 -25 40 5 5 -75 114 -87 4 -7 63 -41 78

model_1/block_6_expand/Conv2D i1 [96, 1, 1, 16]
000000 ec 66 ee 81 da da d9 c9 ef 24 f6 43 26 d0 df 2f
       -20 102 -18 -127 -38 -38 -39 -55 -17 36 -10 67 38 -48 -33 47
000010 db 0a e2 01 dc e8 2b c1 3a 34 c9 19 f7 0d 32 81
       -37 10 -30 1 -36 -24 43 -63 58 52 -55 25 -9 13 50 -127
000020 0b 0e cd 26 38 0b af ab 7f eb f8 0b 00 53 a1 0d
       11 14 -51 38 56 11 -81 -85 127 -21 -8 11 0 83 -95 13
000030 2b cd fa c9 0a ea f4 05 7f e9 51 28 1b 22 ee 50
       43 -51 -6 -55 10 -22 -12 5 127 -23 81 40 27 34 -18 80
000040 c1 31 24 09 02 d2 06 14 0c e5 19 e6 81 d3 de 05
       -63 49 36 9 2 -46 6 20 12 -27 25 -26 -127 -45 -34 5
000050 18 68 72 18 13 52 99 38 b6 57 e4 d1 28 b7 81 11
       24 104 114 24 19 82 -103 56 -74 87 -28 -47 40 -73 -127 17
000060 32 c6 70 81 45 f3 d2 5c c4 85 4b da 1c 57 c9 47
       50 -58 112 -127 69 -13 -46 92 -60 -123 75 -38 28 87 -55 71
000070 2d 77 db b0 55 07 0b c3 73 7f d4 16 15 e7 5e 48
       45 119 -37 -80 85 7 11 -61 115 127 -44 22 21 -25 94 72
000080 0d aa 07 a0 1c c3 0f b8 1a 42 49 03 18 7f 46 35
       13 -86 7 -96 28 -61 15 -72 26 66 73 3 24 127 70 53
000090 01 d8 03 7f 20 fa 2e cf c9 6d 1d f2 f6 cc f7 fd
       1 -40 3 127 32 -6 46 -49 -55 109 29 -14 -10 -52 -9 -3
0000a0 e9 13 d6 81 1c 0c e6 25 3e dc 22 f0 ec db de 14
       -23 19 -42 -127 28 12 -26 37 62 -36 34 -16 -20 -37 -34 20
0000b0 fe 12 1f ec 5b e9 4c c6 af 1c 01 18 07 7f a2 d1
       -2 18 31 -20 91 -23 76 -58 -81 28 1 24 7 127 -94 -47
0000c0 4b 09 81 c2 2b ab 0a 0c ff 3d b1 d5 f2 60 01 26
       75 9 -127 -62 43 -85 10 12 -1 61 -79 -43 -14 96 1 38
0000d0 f7 10 e4 14 fe 81 01 12 ff f1 03 f6 08 f6 0f 07
       -9 16 -28 20 -2 -127 1 18 -1 -15 3 -10 8 -10 15 7
0000e0 22 fb 5e e7 3a 08 81 89 ce d4 0e 09 f0 b1 19 ce
       34 -5 94 -25 58 8 -127 -119 -50 -44 14 9 -16 -79 25 -50
0000f0 82 0c 06 a5 14 1b 7f 31 f9 1f 6a f4 e4 56 34 f6
       -126 12 6 -91 20 27 127 49 -7 31 106 -12 -28 86 52 -10

model_1/block_5_project/Conv2D i1 [16, 1, 1, 96]
000000 f2 ef 07 e5 13 f7 cc 08 1a 0d f5 03 fb f3 e8 16
       -14 -17 7 -27 19 -9 -52 8 26 13 -11 3 -5 -13 -24 22
000010 fa 04 f5 fa 03 dc 08 09 f8 0f ee 7f 1a e5 1f 01
       -6 4 -11 -6 3 -36 8 9 -8 15 -18 127 26 -27 31 1
000020 f6 fe 06 0b fc 0e c9 01 f8 0a 06 28 04 03 07 00
       -10 -2 6 11 -4 14 -55 1 -8 10 6 40 4 3 7 0
000030 1b ff fb fe 19 f1 ef 4d 01 0b e0 de f4 1f fe e6
       27 -1 -5 -2 25 -15 -17 77 1 11 -32 -34 -12 31 -2 -26
000040 d6 ba f6 22 08 16 17 f2 f2 de fd ec e8 0c 03 02
       -42 -70 -10 34 8 22 23 -14 -14 -34 -3 -20 -24 12 3 2
000050 fe dd 19 18 01 f2 ea a3 fe ef 0a fd 2b d5 e1 f8
       -2 -35 25 24 1 -14 -22 -93 -2 -17 10 -3 43 -43 -31 -8
000060 2c af b7 cd 7f e4 36 31 ff c1 c0 ed 0f ec c7 40
       44 -81 -73 -51 127 -28 54 49 -1 -63 -64 -19 15 -20 -57 64
000070 ab ff 2d 28 04 19 f3 b4 f9 03 d2 be 1a f0 c0 3b
       -85 -1 45 40 4 25 -13 -76 -7 3 -46 -66 26 -16 -64 59
000080 db 07 04 1b 14 ef e6 1f eb 29 d4 f5 d7 5a 01 0f
       -37 7 4 27 20 -17 -26 31 -21 41 -44 -11 -41 90 1 15
000090 16 b2 05 be f4 27 2a 1a c7 f1 d6 d7 07 f3 fc d4
       22 -78 5 -66 -12 39 42 26 -57 -15 -42 -41 7 -13 -4 -44
0000a0 a4 63 e7 df f4 e9 ed 14 3a 91 de 07 1c c3 25 00
       -92 99 -25 -33 -12 -23 -19 20 58 -111 -34 7 28 -61 37 0
0000b0 0e d8 13 0a cd 19 db 11 1b ca 10 0d 10 fa 07 75
       14 -40 19 10 -51 25 -37 17 27 -54 16 13 16 -6 7 117
0000c0 f0 3a b0 fc 3c 45 22 37 ee 94 00 dc 03 fe 30 0f
       -16 58 -80 -4 60 69 34 55 -18 -108 0 -36 3 -2 48 15
0000d0 1d f0 f4 42 18 ec 4c 07 31 15 25 d9 2b fc 39 d8
       29 -16 -12 66 24 -20 76 7 49 21 37 -39 43 -4 57 -40
0000e0 1f 19 f2 0e 81 b6 2b 18 1f e8 06 e4 2b ef 03 37
       31 25 -14 14 -127 -74 43 24 31 -24 6 -28 43 -17 3 55
0000f0 e3 30 e8 07 38 ea 03 44 25 10 0f 0a 22 08 05 dc
       -29 48 -24 7 56 -22 3 68 37 16 15 10 34 8 5 -36

model_1/block_5_depthwise_BN/FusedBatchNormV3;model_1/block_5_depthwise/depthwise;model_1/block_6_expand/Conv2D i1 [1, 3, 3, 96]
000000 d5 b7 f5 7f 16 4e 52 c9 f0 ed f1 fb e6 01 26 06
       -43 -73 -11 127 22 78 82 -55 -16 -19 -15 -5 -26 1 38 6
000010 f5 d9 1b 13 13 81 7f 06 a7 04 33 e4 85 81 26 16
       -11 -39 27 19 19 -127 127 6 -89 4 51 -28 -123 -127 38 22
000020 0d 18 3d f1 e0 f6 19 fa f4 1b 95 4c 19 b7 22 2c
       13 24 61 -15 -32 -10 25 -6 -12 27 -107 76 25 -73 34 44
000030 ef 31 e8 16 04 fc 14 32 a5 d0 c4 ec f5 02 08 26
       -17 49 -24 22 4 -4 20 50 -91 -48 -60 -20 -11 2 8 38
000040 45 e8 4c 0d f8 10 13 7f 17 18 1a 00 f4 12 7f fc
       69 -24 76 13 -8 16 19 127 23 24 26 0 -12 18 127 -4
000050 f0 13 e2 15 7a 17 af f1 fe e1 f0 de 02 e8 f0 19
       -16 19 -30 21 122 23 -81 -15 -2 -31 -16 -34 2 -24 -16 25
000060 7f 81 43 68 d6 7f 28 8e 43 04 ed 7f 7f 9d f3 15
       127 -127 67 104 -42 127 40 -114 67 4 -19 127 127 -99 -13 21
000070 07 7f 7f 90 7f b6 50 45 8b 81 bd df cd 2d c3 ed
       7 127 127 -112 127 -74 80 69 -117 -127 -67 -33 -51 45 -61 -19
000080 a3 32 81 b1 d6 f4 c3 3f 01 7f 7f 51 cc 8b 91 cd
       -93 50 -127 -79 -42 -12 -61 63 1 127 127 81 -52 -117 -111 -51
000090 f1 81 2a 58 41 e2 33 55 ce 2b ad 8d d5 d9 c2 42
       -15 -127 42 88 65 -30 51 85 -50 43 -83 -115 -43 -39 -62 66
0000a0 49 c5 1c 1c ac 20 ec 58 78 7f 0e 12 02 3b de 35
       73 -59 28 28 -84 32 -20 88 120 127 14 18 2 59 -34 53
0000b0 3f 7f 7f ea f7 4b 8c 7f 85 9b 05 81 a8 81 d8 6c
       63 127 127 -22 -9 75 -116 127 -123 -101 5 -127 -88 -127 -40 108
0000c0 b9 f3 17 ae 0f e8 4e fa 4b dd e3 11 f0 f9 f8 f9
       -71 -13 23 -82 15 -24 78 -6 75 -35 -29 17 -16 -7 -8 -7
0000d0 f6 f4 09 fa ea 90 20 ff 81 64 05 ca 76 30 f1 08
       -10 -12 9 -6 -22 -112 32 -1 -127 100 5 -54 118 48 -15 8
0000e0 fd 11 0e e2 f6 22 0f 0d 19 0e 87 43 11 e9 22 0c
       -3 17 14 -30 -10 34 15 13 25 14 -121 67 17 -23 34 12
0000f0 f2 0b ef 09 f5 03 04 16 be 07 d7 33 01 2a 20 01
       -14 11 -17 9 -11 3 4 22 -66 7 -41 51 1 42 32 1

model_1/block_5_expand/Conv2D i1 [96, 1, 1, 16]
000000 1a 4b f0 4f 1b 32 fd 00 36 44 a6 77 08 86 13 81
       26 75 -16 79 27 50 -3 0 54 68 -90 119 8 -122 19 -127
000010 13 4f f2 ed 12 ea 79 81 f5 55 00 02 fb c3 2e 0b
       19 79 -14 -19 18 -22 121 -127 -11 85 0 2 -5 -61 46 11
000020 a8 0d 0f fb f5 f4 04 32 f3 1b 7f d1 dc 07 16 d9
       -88 13 15 -5 -11 -12 4 50 -13 27 127 -47 -36 7 22 -39
000030 ee 2b 1d 55 c5 3b 3f 5d 13 3e 81 08 2b c5 c3 d0
       -18 43 29 85 -59 59 63 93 19 62 -127 8 43 -59 -61 -48
000040 04 01 2b 4b e7 62 fd 14 29 f7 05 08 12 17 81 e8
       4 1 43 75 -25 98 -3 20 41 -9 5 8 18 23 -127 -24
000050 00 dd 39 e8 f7 d3 fb 26 bf 77 eb 81 fb 19 c2 f9
       0 -35 57 -24 -9 -45 -5 38 -65 119 -21 -127 -5 25 -62 -7
000060 0d fd 09 eb 2a 42 c0 b6 17 04 3e ce 7f ed e5 ca
       13 -3 9 -21 42 66 -64 -74 23 4 62 -50 127 -19 -27 -54
000070 1b fb 7f f4 ed e1 1d 00 b8 36 c2 b6 06 19 2e e9
       27 -5 127 -12 -19 -31 29 0 -72 54 -62 -74 6 25 46 -23
000080 2d 29 64 50 a5 7f 13 21 13 03 f9 99 a4 04 92 a5
       45 41 100 80 -91 127 19 33 19 3 -7 -103 -92 4 -110 -91
000090 27 af 2e 2e 07 e3 f5 0b 51 ed 41 09 ea fd 81 03
       39 -81 46 46 7 -29 -11 11 81 -19 65 9 -22 -3 -127 3
0000a0 e1 bd fd f9 c0 1e ff 32 64 7f 0d dd f6 3e 3f f9
       -31 -67 -3 -7 -64 30 -1 50 100 127 13 -35 -10 62 63 -7
0000b0 0f fb 23 87 16 e2 95 81 c7 1f ff de 09 f8 0b b2
       15 -5 35 -121 22 -30 -107 -127 -57 31 -1 -34 9 -8 11 -78
0000c0 2d fd 0f f0 cb ca 98 ef e0 c3 c5 eb 31 7f 40 31
       45 -3 15 -16 -53 -54 -104 -17 -32 -61 -59 -21 49 127 64 49
0000d0 d8 c1 9a 3a 00 a3 fc e8 3e 23 f3 0c 0c 1e 7f 21
       -40 -63 -102 58 0 -93 -4 -24 62 35 -13 12 12 30 127 33
0000e0 f6 c9 3a 1f 24 44 15 7f 2a 3e ff f8 28 2f cb 5c
       -10 -55 58 31 36 68 21 127 42 62 -1 -8 40 47 -53 92
0000f0 17 da 08 3e 04 fe 5a fe 04 81 02 ec 12 ee 02 da
       23 -38 8 62 4 -2 90 -2 4 -127 2 -20 18 -18 2 -38

model_1/block_4_project/Conv2D i1 [16, 1, 1, 96]
000000 f0 0e e8 11 36 4d de e2 28 05 09 07 f4 12 1e 36
       -16 14 -24 17 54 77 -34 -30 40 5 9 7 -12 18 30 54
000010 04 f6 f4 06 68 c5 fe f7 e5 e4 e1 9d 04 07 28 2b
       4 -10 -12 6 104 -59 -2 -9 -27 -28 -31 -99 4 7 40 43
000020 6f 0a 01 f8 01 ea f0 0e e4 04 12 e7 fb e9 f6 1f
       111 10 1 -8 1 -22 -16 14 -28 4 18 -25 -5 -23 -10 31
000030 f3 09 0b 03 eb 02 09 f8 24 17 ed dc c0 18 fe f0
       -13 9 11 3 -21 2 9 -8 36 23 -19 -36 -64 24 -2 -16
000040 07 0c 36 03 0b 03 00 ed b4 02 fc 0b ff a6 17 f1
       7 12 54 3 11 3 0 -19 -76 2 -4 11 -1 -90 23 -15
000050 1c e0 c7 d4 14 ef f0 15 f4 05 08 dd 20 22 fc 7f
       28 -32 -57 -44 20 -17 -16 21 -12 5 8 -35 32 34 -4 127
000060 3f bf 2a 54 f7 cd e8 c8 06 af ff 2b 21 b2 c2 d6
       63 -65 42 84 -9 -51 -24 -56 6 -81 -1 43 33 -78 -62 -42
000070 ba 05 10 1b e3 9b da 1b 7f c7 c1 1d 03 74 ee 3c
       -70 5 16 27 -29 -101 -38 27 127 -57 -63 29 3 116 -18 60
000080 1b 33 c1 fe e7 f4 48 ce f9 b5 3f e4 e1 f5 50 fa
       27 51 -63 -2 -25 -12 72 -50 -7 -75 63 -28 -31 -11 80 -6
000090 07 04 1f ce 4a ac 38 ec 04 16 d2 8c 29 be fa da
       7 4 31 -50 74 -84 56 -20 4 22 -46 -116 41 -66 -6 -38
0000a0 fc b1 16 23 29 2b 9c e1 94 3a dd 29 27 63 22 f9
       -4 -79 22 35 41 43 -100 -31 -108 58 -35 41 39 99 34 -7
0000b0 1d f2 b6 25 9e 50 ec 28 d0 1f 1b 0e 06 de 1e f5
       29 -14 -74 37 -98 80 -20 40 -48 31 27 14 6 -34 30 -11
0000c0 15 0a 0e e0 f3 ef fc 20 41 0a fe 41 f6 f6 29 03
       21 10 14 -32 -13 -17 -4 32 65 10 -2 65 -10 -10 41 3
0000d0 e0 02 0c fa e5 bd 1b b5 ea e9 e7 22 eb 06 75 c3
       -32 2 12 -6 -27 -67 27 -75 -22 -23 -25 34 -21 6 117 -61
0000e0 01 a9 e7 30 0a 7f df e0 f9 e4 fe 22 de cd c2 fe
       1 -87 -25 48 10 127 -33 -32 -7 -28 -2 34 -34 -51 -62 -2
0000f0 1c 15 dd e7 1c fe ef e4 df 12 0c 28 01 05 3d 54
       28 21 -35 -25 28 -2 -17 -28 -33 18 12 40 1 5 61 84

model_1/block_4_depthwise_BN/FusedBatchNormV3;model_1/block_4_depthwise/depthwise;model_1/block_6_expand/Conv2D i1 [1, 3, 3, 96]
000000 ef 05 eb 6f ef 15 bf c9 12 fb 61 f8 06 f8 fe 36
       -17 5 -21 111 -17 21 -65 -55 18 -5 97 -8 6 -8 -2 54
000010 05 10 e4 04 46 02 21 dd 02 0f 2a 30 14 0c 17 2f
       5 16 -28 4 70 2 33 -35 2 15 42 48 20 12 23 47
000020 fb 1a 0a f1 03 2f b7 e8 14 08 1a 13 aa cb 19 fa
       -5 26 10 -15 3 47 -73 -24 20 8 26 19 -86 -53 25 -6
000030 f6 eb f7 f9 33 05 f5 01 00 dd 1a e3 1b fd 7f 1a
       -10 -21 -9 -7 51 5 -11 1 0 -35 26 -29 27 -3 127 26
000040 f6 f5 0e c9 42 22 fd f9 4a dd 46 03 10 82 1b 39
       -10 -11 14 -55 66 34 -3 -7 74 -35 70 3 16 -126 27 57
000050 01 0c 7f f1 24 1e e6 ee 20 f9 f3 52 ff 13 ff 0e
       1 12 127 -15 36 30 -26 -18 32 -7 -13 82 -1 19 -1 14
000060 d0 0c f7 0b 34 f6 f3 81 26 0d 81 fb f3 f2 08 5a
       -48 12 -9 11 52 -10 -13 -127 38 13 -127 -5 -13 -14 8 90
000070 13 e1 f5 f1 4c 9e 7f 1a c4 de 95 f2 1a 23 ce 10
       19 -31 -11 -15 76 -98 127 26 -60 -34 -107 -14 26 35 -50 16
000080 74 0c f3 fe e9 7f bb 81 07 ed e0 0f 2f 81 7f d2
       116 12 -13 -2 -23 127 -69 -127 7 -19 -32 15 47 -127 127 -46
000090 b5 33 31 06 28 c0 1f 38 29 2b 9c 55 7f 22 03 eb
       -75 51 49 6 40 -64 31 56 41 43 -100 85 127 34 3 -21
0000a0 2c d9 a6 fd 26 e2 ed 2f d0 cd 6b fa e2 c3 dc 3c
       44 -39 -90 -3 38 -30 -19 47 -48 -51 107 -6 -30 -61 -36 60
0000b0 bf 3c ed 09 f3 2f 3a d9 e2 36 f5 4b 81 e0 19 81
       -65 60 -19 9 -13 47 58 -39 -30 54 -11 75 -127 -32 25 -127
0000c0 01 fc e9 b4 08 12 24 14 fc ff 04 3e 02 f3 f7 05
       1 -4 -23 -76 8 18 36 20 -4 -1 4 62 2 -13 -9 5
0000d0 f3 11 f4 10 05 18 19 e0 00 e0 08 0e f8 06 2c ae
       -13 17 -12 16 5 24 25 -32 0 -32 8 14 -8 6 44 -82
0000e0 2a 0f 0a e9 0b 06 d6 ec 08 03 ef 08 16 e4 14 00
       42 15 10 -23 11 6 -42 -20 8 3 -17 8 22 -28 20 0
0000f0 07 f9 04 fb 06 05 f9 08 fb 2c 06 fe 0c ee 03 ed
       7 -7 4 -5 6 5 -7 8 -5 44 6 -2 12 -18 3 -19

model_1/block_4_expand/Conv2D i1 [96, 1, 1, 16]
000000 0f fa 79 7f 2e f7 35 e8 5c 01 d7 c4 0e 48 d2 b8
       15 -6 121 127 46 -9 53 -24 92 1 -41 -60 14 72 -46 -72
000010 2a 66 f3 02 68 03 02 21 48 7f e6 4e 15 e6 76 b4
       42 102 -13 2 104 3 2 33 72 127 -26 78 21 -26 118 -76
000020 41 8f fc 11 d0 23 aa 53 cd a7 00 5b 34 85 44 81
       65 -113 -4 17 -48 35 -86 83 -51 -89 0 91 52 -123 68 -127
000030 7f 70 f1 38 8e e2 cb e8 0b 08 53 d1 ce 5e cb d0
       127 112 -15 56 -114 -30 -53 -24 11 8 83 -47 -50 94 -53 -48
000040 00 f8 24 1c f3 31 e9 24 e3 df f7 12 e5 81 29 ea
       0 -8 36 28 -13 49 -23 36 -29 -33 -9 18 -27 -127 41 -22
000050 65 db eb fc fa b5 e8 12 ec 08 81 f5 19 f5 f5 17
       101 -37 -21 -4 -6 -75 -24 18 -20 8 -127 -11 25 -11 -11 23
000060 81 bf f7 49 be 06 d0 1f 87 9f c8 d4 f2 3d 01 54
       -127 -65 -9 73 -66 6 -48 31 -121 -97 -56 -44 -14 61 1 84
000070 ce 03 a4 30 1a 81 eb 33 1a d5 29 f3 f9 2c da 15
       -50 3 -92 48 26 -127 -21 51 26 -43 41 -13 -7 44 -38 21
000080 25 c9 eb e8 10 2d a8 b6 fe 13 bf 02 81 fd 07 23
       37 -55 -21 -24 16 45 -88 -74 -2 19 -65 2 -127 -3 7 35
000090 02 e4 2d 61 08 2d 0b bb 7f de 0d 07 e7 12 d3 05
       2 -28 45 97 8 45 11 -69 127 -34 13 7 -25 18 -45 5
0000a0 8c 81 25 11 49 3f 0e 53 66 b7 a4 25 7b c6 c1 2e
       -116 -127 37 17 73 63 14 83 102 -73 -92 37 123 -58 -63 46
0000b0 21 04 81 19 2b 05 fd 1f e3 f2 f5 f7 08 01 e4 00
       33 4 -127 25 43 5 -3 31 -29 -14 -11 -9 8 1 -28 0
0000c0 41 d6 fc 08 d1 cb df fc 16 0c 81 f1 e0 f4 f8 4f
       65 -42 -4 8 -47 -53 -33 -4 22 12 -127 -15 -32 -12 -8 79
0000d0 03 c1 34 cd 56 fb b7 81 21 c1 26 12 e6 ec 32 fd
       3 -63 52 -51 86 -5 -73 -127 33 -63 38 18 -26 -20 50 -3
0000e0 c7 1e a5 cc 51 81 31 be 3a 26 f5 93 2b 6e fe 10
       -57 30 -91 -52 81 -127 49 -66 58 38 -11 -109 43 110 -2 16
0000f0 24 f4 49 23 33 c8 db f0 fd c6 b8 fb 81 c3 e8 40
       36 -12 73 35 51 -56 -37 -16 -3 -58 -72 -5 -127 -61 -24 64

model_1/block_3_project/Conv2D i1 [16, 1, 1, 48]
000000 f6 03 f0 0a 11 fc 02 62 cc 0d 26 f3 0d f3 fd 0a
       -10 3 -16 10 17 -4 2 98 -52 13 38 -13 13 -13 -3 10
000010 11 e9 fd fc 3a f9 16 7f f0 51 fc ed 12 ee 15 e8
       17 -23 -3 -4 58 -7 22 127 -16 81 -4 -19 18 -18 21 -24
000020 ea 35 17 d3 12 2e 0d fb 9d e2 19 28 2c 23 8e d0
       -22 53 23 -45 18 46 13 -5 -99 -30 25 40 44 35 -114 -48
000030 e0 f7 13 13 de 06 fe 2f c9 db 00 cd e8 e7 07 02
       -32 -9 19 19 -34 6 -2 47 -55 -37 0 -51 -24 -25 7 2
000040 ee 75 fd 12 08 11 e8 f3 1e d6 0e 14 e2 a7 e3 12
       -18 117 -3 18 8 17 -24 -13 30 -42 14 20 -30 -89 -29 18
000050 ea fb 25 00 06 dc fd 0c f1 e3 7f 13 0e ff 0f f8
       -22 -5 37 0 6 -36 -3 12 -15 -29 127 19 14 -1 15 -8
000060 e7 f0 ef d9 ff be 05 ec fe 09 0c 17 11 0c ee 0d
       -25 -16 -17 -39 -1 -66 5 -20 -2 9 12 23 17 12 -18 13
000070 fc eb eb f3 00 05 fe 81 f3 4c f3 00 02 ee fe fc
       -4 -21 -21 -13 0 5 -2 -127 -13 76 -13 0 2 -18 -2 -4
000080 fc 2f 11 01 16 0a 19 04 d7 07 ed fb f9 f5 0e 03
       -4 47 17 1 22 10 25 4 -41 7 -19 -5 -7 -11 14 3
000090 f7 24 03 e3 fe 00 ff fb ea 01 fc 28 81 06 f9 00
       -9 36 3 -29 -2 0 -1 -5 -22 1 -4 40 -127 6 -7 0
0000a0 fd 09 f1 fd e3 07 0b 0f fa f5 00 1d fa 11 ff 0c
       -3 9 -15 -3 -29 7 11 15 -6 -11 0 29 -6 17 -1 12
0000b0 fe 04 0e 16 f7 1a 2d 03 0d 04 15 de 09 f3 05 0e
       -2 4 14 22 -9 26 45 3 13 4 21 -34 9 -13 5 14
0000c0 25 d9 0b 06 15 25 10 e2 e2 ff f6 e5 02 04 08 0d
       37 -39 11 6 21 37 16 -30 -30 -1 -10 -27 2 4 8 13
0000d0 12 f6 a8 01 fd 15 1a 4a 04 da 01 36 0a a9 14 01
       18 -10 -88 1 -3 21 26 74 4 -38 1 54 10 -87 20 1
0000e0 0e d4 24 81 0e 22 fd 17 e8 1a 06 ea f4 ed 0f 06
       14 -44 36 -127 14 34 -3 23 -24 26 6 -22 -12 -19 15 6
0000f0 1a fc e7 39 04 f9 07 1e 02 00 26 0b 02 36 fb 04
       26 -4 -25 57 4 -7 7 30 2 0 38 11 2 54 -5 4

model_1/block_3_depthwise_BN/FusedBatchNormV3;model_1/block_3_depthwise/depthwise i1 [1, 3, 3, 48]
000000 4a a4 61 48 36 de 6a c0 3c a4 b3 33 34 d4 b7 a8
       74 -92 97 72 54 -34 106 -64 60 -92 -77 51 52 -44 -73 -88
000010 65 53 31 4e 42 b8 ae 35 e0 d8 bf c0 bb 3d c1 8e
       101 83 49 78 66 -72 -82 53 -32 -40 -65 -64 -69 61 -63 -114
000020 f3 29 44 3f c1 37 cd e7 34 b4 39 3d a6 0b 4d dd
       -13 41 68 63 -63 55 -51 -25 52 -76 57 61 -90 11 77 -35
000030 55 a0 7f 56 b4 bd c6 ac 5e 98 c2 4d 50 92 9f 5e
       85 -96 127 86 -76 -67 -58 -84 94 -104 -62 77 80 -110 -97 94
000040 db 63 54 7f 55 8f 34 48 cc b2 b9 b0 37 4d e2 81
       -37 99 84 127 85 -113 52 72 -52 -78 -71 -80 55 77 -30 -127
000050 aa 51 50 53 b1 53 ab ef 4c 9f 52 57 b9 81 5e 98
       -86 81 80 83 -79 83 -85 -17 76 -97 82 87 -71 -127 94 -104
000060 24 d2 48 26 14 d6 d1 da 29 e0 08 23 1e ae c9 00
       36 -46 72 38 20 -42 -47 -38 41 -32 8 35 30 -82 -55 0
000070 c9 27 23 47 22 cb 20 1a e5 d1 d1 e8 20 1e 57 a7
       -55 39 35 71 34 -53 32 26 -27 -47 -47 -24 32 30 87 -89
000080 ac 2f 22 22 e3 29 db f3 2a da 25 2a f9 f7 27 b7
       -84 47 34 34 -29 41 -37 -13 42 -38 37 42 -7 -9 39 -73
000090 5f 8e d5 5c 37 ad 7f a8 58 8f b8 54 54 8e f4 81
       95 -114 -43 92 55 -83 127 -88 88 -113 -72 84 84 -114 -12 -127
0000a0 7f 6e 4b d9 53 6b 81 48 49 b3 a3 9d 81 57 bb f6
       127 110 75 -39 83 107 -127 72 73 -77 -93 -99 -127 87 -69 -10
0000b0 ac 49 68 60 ab 50 b0 59 53 9c 56 5c a8 6c 5e a6
       -84 73 104 96 -85 80 -80 89 83 -100 86 92 -88 108 94 -90
0000c0 7f 81 be 7f 81 81 a4 81 7f 81 81 7f 7f 81 e9 62
       127 -127 -66 127 -127 -127 -92 -127 127 -127 -127 127 127 -127 -23 98
0000d0 c0 7f 7f cd 7f 7f 44 7f 7f 81 81 81 37 7f e4 0e
       -64 127 127 -51 127 127 68 127 127 -127 -127 -127 55 127 -28 14
0000e0 81 7f 7f 7f 81 7f 81 7f 7f 81 7f 7f 81 f6 7f 81
       -127 127 127 127 -127 127 -127 127 127 -127 127 127 -127 -10 127 -127
0000f0 41 b1 de 43 27 c1 ce c1 38 d9 c5 3a 32 c7 f0 0b
       65 -79 -34 67 39 -63 -50 -63 56 -39 -59 58 50 -57 -16 11

model_1/block_3_expand/Conv2D i1 [48, 1, 1, 8]
000000 81 01 fb 4d d9 30 1e e0 13 35 22 17 04 de 65 7f
       -127 1 -5 77 -39 48 30 -32 19 53 34 23 4 -34 101 127
000010 e7 ef fb fd 81 f5 00 fc 66 fa f3 9a 81 13 1b ec
       -25 -17 -5 -3 -127 -11 0 -4 102 -6 -13 -102 -127 19 27 -20
000020 81 27 e3 09 49 ff 41 10 a2 e6 18 ef 81 03 09 4a
       -127 39 -29 9 73 -1 65 16 -94 -26 24 -17 -127 3 9 74
000030 f2 81 0f f2 07 02 05 23 b6 fb ff 65 7f d7 d5 0e
       -14 -127 15 -14 7 2 5 35 -74 -5 -1 101 127 -41 -43 14
000040 58 0a 09 81 fc e2 d2 cd dd 81 fb f6 06 65 b3 63
       88 10 9 -127 -4 -30 -46 -51 -35 -127 -5 -10 6 101 -77 99
000050 9a 0a 06 0f 81 42 4e e5 7c 0b 2b 11 bf cb d6 81
       -102 10 6 15 -127 66 78 -27 124 11 43 17 -65 -53 -42 -127
000060 00 05 28 fe 09 bd 7f 47 4c e3 e3 f4 5d 7f 70 d1
       0 5 40 -2 9 -67 127 71 76 -29 -29 -12 93 127 112 -47
000070 64 23 db 03 81 07 ec 04 ec 81 0c f4 fe 07 04 26
       100 35 -37 3 -127 7 -20 4 -20 -127 12 -12 -2 7 4 38
000080 ca f1 05 fe 81 03 14 01 e3 68 9e 07 0b 81 63 b5
       -54 -15 5 -2 -127 3 20 1 -29 104 -98 7 11 -127 99 -75
000090 7f e3 e1 10 af 16 03 6a 7f cc f1 f3 28 ff 04 07
       127 -29 -31 16 -81 22 3 106 127 -52 -15 -13 40 -1 4 7
0000a0 7f 15 f7 6e fc 27 f9 c4 15 27 d1 03 eb 66 81 96
       127 21 -9 110 -4 39 -7 -60 21 39 -47 3 -21 102 -127 -106
0000b0 81 08 13 ff b1 08 b1 da d3 c4 04 1a 81 41 4a f0
       -127 8 19 -1 -79 8 -79 -38 -45 -60 4 26 -127 65 74 -16
0000c0 7f eb e9 ee bc 01 03 fd 13 f4 fd e7 7f 35 35 e7
       127 -21 -23 -18 -68 1 3 -3 19 -12 -3 -25 127 53 53 -25
0000d0 07 a1 02 dc 14 81 51 cc ef 81 1b f0 01 c9 1e f9
       7 -95 2 -36 20 -127 81 -52 -17 -127 27 -16 1 -55 30 -7
0000e0 87 2c db 29 09 e6 7f 7a f8 2e 0f 0f f9 22 9e 81
       -121 44 -37 41 9 -26 127 122 -8 46 15 15 -7 34 -98 -127
0000f0 7f ec 2d 17 9c f6 af c6 e2 f6 50 e0 05 81 7f 3e
       127 -20 45 23 -100 -10 -81 -58 -30 -10 80 -32 5 -127 127 62

model_1/block_2_project/Conv2D i1 [8, 1, 1, 48]
000000 e0 f2 ed 04 01 e2 f8 07 b3 7f e2 63 62 01 39 fb
       -32 -14 -19 4 1 -30 -8 7 -77 127 -30 99 98 1 57 -5
000010 fc f1 0b 01 f3 06 f4 e6 10 ad 0c 35 ef 14 0a de
       -4 -15 11 1 -13 6 -12 -26 16 -83 12 53 -17 20 10 -34
000020 fa c4 5f 14 fd 07 f3 ea 5a 00 29 f1 e8 0a e1 ec
       -6 -60 95 20 -3 7 -13 -22 90 0 41 -15 -24 10 -31 -20
000030 0a 19 7e fd fc dd 09 b1 23 0c 1e 0c e6 0a f9 81
       10 25 126 -3 -4 -35 9 -79 35 12 30 12 -26 10 -7 -127
000040 03 b5 05 05 db 1d 13 df f0 f7 0d 07 0a 01 08 f0
       3 -75 5 5 -37 29 19 -33 -16 -9 13 7 10 1 8 -16
000050 fd 0c 0e 13 ec df 3c be 09 32 ef 1b ee fa 0f f9
       -3 12 14 19 -20 -33 60 -66 9 50 -17 27 -18 -6 15 -7
000060 09 d2 13 d5 20 17 f6 e7 07 02 fd 0f f3 3f 01 fd
       9 -46 19 -43 32 23 -10 -25 7 2 -3 15 -13 63 1 -3
000070 db 7f e7 df f5 11 da f4 7a 07 03 f4 dd f8 05 d6
       -37 127 -25 -33 -11 17 -38 -12 122 7 3 -12 -35 -8 5 -42
000080 fc f0 02 12 fa 00 f2 04 0f ea e9 03 fb 1a e3 de
       -4 -16 2 18 -6 0 -14 4 15 -22 -23 3 -5 26 -29 -34
000090 07 ad fc 07 02 fe f9 00 fb fb 0f 17 0d f4 2d 05
       7 -83 -4 7 2 -2 -7 0 -5 -5 15 23 13 -12 45 5
0000a0 f1 e9 04 1c f7 1c e9 01 03 36 01 02 f9 06 7f 04
       -15 -23 4 28 -9 28 -23 1 3 54 1 2 -7 6 127 4
0000b0 08 0b ff f9 e7 f5 f6 09 fc 04 f9 1b fb fc fb 1c
       8 11 -1 -7 -25 -11 -10 9 -4 4 -7 27 -5 -4 -5 28
0000c0 9a 0d 0a fb 04 d8 06 0a 2f e1 1b ec e6 06 e9 fb
       -102 13 10 -5 4 -40 6 10 47 -31 27 -20 -26 6 -23 -5
0000d0 0c 08 fd 1b 09 e6 15 04 ff 33 04 60 00 08 fc e4
       12 8 -3 27 9 -26 21 4 -1 51 4 96 0 8 -4 -28
0000e0 07 81 df 17 1b 01 fd fc dd f6 ee 18 c9 09 01 0d
       7 -127 -33 23 27 1 -3 -4 -35 -10 -18 24 -55 9 1 13
0000f0 e9 14 1a 0e cd 13 06 36 26 0d 0a 13 03 ca 15 24
       -23 20 26 14 -51 19 6 54 38 13 10 19 3 -54 21 36

model_1/block_2_depthwise_BN/FusedBatchNormV3;model_1/block_2_depthwise/depthwise;model_1/block_3_depthwise/depthwise i1 [1, 3, 3, 48]
000000 04 fc 14 6f 05 50 00 1b 0f 08 09 08 f8 f8 d2 07
       4 -4 20 111 5 80 0 27 15 8 9 8 -8 -8 -46 7
000010 fd 08 eb 8e fb e9 7f f7 fd 06 fa 08 fb 04 0f 63
       -3 8 -21 -114 -5 -23 127 -9 -3 6 -6 8 -5 4 15 99
000020 13 1d 25 e5 01 22 fd 03 13 bb f7 f8 12 03 f9 f6
       19 29 37 -27 1 34 -3 3 19 -69 -9 -8 18 3 -7 -10
000030 7f 0a 0e 81 1c 57 0c 0a 7b 7f 09 2b cd e9 04 07
       127 10 14 -127 28 87 12 10 123 127 9 43 -51 -23 4 7
000040 7f c8 c4 c7 9d 19 93 0f 11 46 df ab 17 15 09 85
       127 -56 -60 -57 -99 25 -109 15 17 70 -33 -85 23 21 9 -123
000050 04 c4 7f 0b d8 d1 fa 76 b3 9d e0 04 e0 f8 81 18
       4 -60 127 11 -40 -47 -6 118 -77 -99 -32 4 -32 -8 -127 24
000060 e2 fd 07 10 00 42 05 11 1b 08 f3 20 f2 fe 0f 02
       -30 -3 7 16 0 66 5 17 27 8 -13 32 -14 -2 15 2
000070 98 1d fc 4a e1 f3 ee fa fb c3 fc 1c ef 05 03 ea
       -104 29 -4 74 -31 -13 -18 -6 -5 -61 -4 28 -17 5 3 -22
000080 07 e9 10 ee ff 2f 2a f5 33 25 ee 0c d7 03 ff fa
       7 -23 16 -18 -1 47 42 -11 51 37 -18 12 -41 3 -1 -6
000090 7d 06 01 9e 0e e5 23 ef 09 09 f4 34 f9 00 11 e0
       125 6 1 -98 14 -27 35 -17 9 9 -12 52 -7 0 17 -32
0000a0 ff cf c3 ab 0b b5 83 ee 05 63 f0 81 f8 20 0b 95
       -1 -49 -61 -85 11 -75 -125 -18 5 99 -16 -127 -8 32 11 -107
0000b0 10 cd fe 7f fd 3a d5 2a c3 81 26 a8 d5 f2 f3 fb
       16 -51 -2 127 -3 58 -43 42 -61 -127 38 -88 -43 -14 -13 -5
0000c0 1b 82 81 74 81 81 81 81 81 a0 7f 81 7f 7f 22 81
       27 -126 -127 116 -127 -127 -127 -127 -127 -96 127 -127 127 127 34 -127
0000d0 ad 7f 7f 98 7f 7f 70 7f 7f 81 81 1d 81 81 5f 7f
       -83 127 127 -104 127 127 112 127 127 -127 -127 29 -127 -127 95 127
0000e0 81 7f e6 d7 7f 81 7f 7f 7f b2 7f 7f 7f 87 65 6c
       -127 127 -26 -41 127 -127 127 127 127 -78 127 127 127 -121 101 108
0000f0 37 06 30 f4 05 c3 2d 12 e8 0e 97 f8 01 d9 7f 04
       55 6 48 -12 5 -61 45 18 -24 14 -105 -8 1 -39 127 4

model_1/block_2_expand/Conv2D i1 [48, 1, 1, 8]
000000 6d 25 f2 ef 7f 08 b5 e5 fb f8 00 7f 0e ee fb 1d
       109 37 -14 -17 127 8 -75 -27 -5 -8 0 127 14 -18 -5 29
000010 25 81 d5 2d f7 b6 5f 08 7f d7 fb 09 fc eb 24 03
       37 -127 -43 45 -9 -74 95 8 127 -41 -5 9 -4 -21 36 3
000020 07 cd 7f d9 e6 d1 19 8e 47 07 ff 05 7f 13 fa ff
       7 -51 127 -39 -26 -47 25 -114 71 7 -1 5 127 19 -6 -1
000030 ee 5f f6 7f 0e 30 a7 cf 00 7f f9 fd 07 f2 0c 00
       -18 95 -10 127 14 48 -89 -49 0 127 -7 -3 7 -14 12 0
000040 7f 31 fb 02 df fe 0c c6 81 13 fb 15 1e 02 e2 05
       127 49 -5 2 -33 -2 12 -58 -127 19 -5 21 30 2 -30 5
000050 95 dd 0c 7f 1f 25 ca fe 81 f9 11 cd 11 0e e1 da
       -107 -35 12 127 31 37 -54 -2 -127 -7 17 -51 17 14 -31 -38
000060 7f 11 19 0b a2 f2 f4 d6 f9 64 81 f2 06 65 9d 4b
       127 17 25 11 -94 -14 -12 -42 -7 100 -127 -14 6 101 -99 75
000070 d5 d2 fb 7f 1e 10 f0 fc fe 7f ff 00 fe f5 04 d1
       -43 -46 -5 127 30 16 -16 -4 -2 127 -1 0 -2 -11 4 -47
000080 f7 87 f9 16 f4 81 66 fe 14 7f 00 ff fb 4c ad f0
       -9 -121 -7 22 -12 -127 102 -2 20 127 0 -1 -5 76 -83 -16
000090 05 29 81 f6 08 35 e5 38 ac 17 f9 ff 81 f6 16 0c
       5 41 -127 -10 8 53 -27 56 -84 23 -7 -1 -127 -10 22 12
0000a0 81 f3 f4 ff 38 dc 1c fb a2 f7 04 f8 81 f7 0f 0c
       -127 -13 -12 -1 56 -36 28 -5 -94 -9 4 -8 -127 -9 15 12
0000b0 81 d7 03 fc 4d f3 1b 3a ec e7 fe ea f8 5a 81 9f
       -127 -41 3 -4 77 -13 27 58 -20 -25 -2 -22 -8 90 -127 -97
0000c0 f6 2e 81 ff 0d 2a eb 48 58 e2 02 7f c7 f2 04 cc
       -10 46 -127 -1 13 42 -21 72 88 -30 2 127 -57 -14 4 -52
0000d0 04 f6 f6 fe f1 67 7f dd 45 e8 06 0e 7f 2b 24 f3
       4 -10 -10 -2 -15 103 127 -35 69 -24 6 14 127 43 36 -13
0000e0 00 7e bb fa 19 52 f0 7f f6 0e 06 ff 04 4c 81 b3
       0 126 -69 -6 25 82 -16 127 -10 14 6 -1 4 76 -127 -77
0000f0 08 f9 fe 81 f1 fb fc f5 d0 0d fd ff 81 12 0b fb
       8 -7 -2 -127 -15 -5 -4 -11 -48 13 -3 -1 -127 18 11 -5

model_1/block_1_project/Conv2D i1 [8, 1, 1, 48]
000000 f4 00 0c a6 0d 18 06 06 fe 09 01 f8 64 00 01 07
       -12 0 12 -90 13 24 6 6 -2 9 1 -8 100 0 1 7
000010 00 fb fb fb 52 fc 04 03 1f 2a 0c 10 0b 07 07 81
       0 -5 -5 -5 82 -4 4 3 31 42 12 16 11 7 7 -127
000020 0b 06 01 fe ec 03 ed 20 05 e9 f5 ff 03 fe 01 01
       11 6 1 -2 -20 3 -19 32 5 -23 -11 -1 3 -2 1 1
000030 da f8 01 fc 2d 1e df 41 16 05 db e7 0b 00 0f 25
       -38 -8 1 -4 45 30 -33 65 22 5 -37 -25 11 0 15 37
000040 00 35 13 d0 03 1a 7f 17 e8 00 31 0b 11 02 11 f4
       0 53 19 -48 3 26 127 23 -24 0 49 11 17 2 17 -12
000050 11 fa f2 e8 08 c7 11 02 f9 fb a4 f5 e0 0b cc a2
       17 -6 -14 -24 8 -57 17 2 -7 -5 -92 -11 -32 11 -52 -94
000060 c0 0e 06 14 2b f3 22 10 f5 33 05 f5 fe 00 04 34
       -64 14 6 20 43 -13 34 16 -11 51 5 -11 -2 0 4 52
000070 00 0b 81 19 ff 0c fc ee dc 06 1d 0c 03 28 15 03
       0 11 -127 25 -1 12 -4 -18 -36 6 29 12 3 40 21 3
000080 0a f7 f8 f2 0e 05 04 07 24 f7 e3 fd 1c c4 1c 13
       10 -9 -8 -14 14 5 4 7 36 -9 -29 -3 28 -60 28 19
000090 fd 02 08 07 fe 22 04 fd 41 12 fd 00 18 00 e6 f8
       -3 2 8 7 -2 34 4 -3 65 18 -3 0 24 0 -26 -8
0000a0 00 01 f6 01 01 02 04 eb ef fc f4 06 f6 fd ff f7
       0 1 -10 1 1 2 4 -21 -17 -4 -12 6 -10 -3 -1 -9
0000b0 c9 2b c9 01 08 02 02 81 02 fd 03 cb fa f9 ff 06
       -55 43 -55 1 8 2 2 -127 2 -3 3 -53 -6 -7 -1 6
0000c0 ff f6 4a 20 03 f4 ff f8 04 fc fb f1 b3 00 f0 05
       -1 -10 74 32 3 -12 -1 -8 4 -4 -5 -15 -77 0 -16 5
0000d0 00 0a 0b 06 43 ff 03 fd ed 1d fc 27 f2 fe ff 5f
       0 10 11 6 67 -1 3 -3 -19 29 -4 39 -14 -2 -1 95
0000e0 03 02 01 f7 0b ed f8 ed fe 81 06 04 03 fc 00 06
       3 2 1 -9 11 -19 -8 -19 -2 -127 6 4 3 -4 0 6
0000f0 f7 2c 07 f9 03 2a 19 0f ee 1b 04 3a 15 00 81 fb
       -9 44 7 -7 3 42 25 15 -18 27 4 58 21 0 -127 -5

model_1/block_1_depthwise_BN/FusedBatchNormV3;model_1/block_1_depthwise/depthwise;model_1/block_3_depthwise/depthwise i1 [1, 3, 3, 48]
000000 d4 e9 fa ef 07 d8 b2 be e6 ce 0a 3c 22 b9 73 d5
       -44 -23 -6 -17 7 -40 -78 -66 -26 -50 10 60 34 -71 115 -43
000010 8f ab 25 f9 00 b4 90 b2 de 83 c1 ec 47 0e 5f 1a
       -113 -85 37 -7 0 -76 -112 -78 -34 -125 -63 -20 71 14 95 26
000020 81 a6 f8 37 12 2f 81 4e b3 f3 6a 94 ff dd a9 6a
       -127 -90 -8 55 18 47 -127 78 -77 -13 106 -108 -1 -35 -87 106
000030 4b 0c e5 e3 39 81 81 b0 3c b6 8c 68 26 ae 00 3d
       75 12 -27 -29 57 -127 -127 -80 60 -74 -116 104 38 -82 0 61
000040 cc 8e 3b 06 0c 8e 81 bc fd 81 87 da c8 14 c8 36
       -52 -114 59 6 12 -114 -127 -68 -3 -127 -121 -38 -56 20 -56 54
000050 1d 81 3f 57 0d 48 a4 7f 81 07 7c 81 03 ea 81 5d
       29 -127 63 87 13 72 -92 127 -127 7 124 -127 3 -22 -127 93
000060 df 2b 07 fa c2 96 c6 ef 58 f8 81 24 08 b9 9b f4
       -33 43 7 -6 -62 -106 -58 -17 88 -8 -127 36 8 -71 -101 -12
000070 81 e6 1b 0c f1 b0 dd e9 f5 e1 c7 f6 f6 10 e7 09
       -127 -26 27 12 -15 -80 -35 -23 -11 -31 -57 -10 -10 16 -25 9
000080 6b a7 45 21 0d 23 fd 0f b2 04 08 b3 f0 06 c9 0e
       107 -89 69 33 13 35 -3 15 -78 4 8 -77 -16 6 -55 14
000090 a9 81 d4 d5 f6 35 65 97 e7 96 ea 6e 5a c0 1b a0
       -87 -127 -44 -43 -10 53 101 -105 -25 -106 -22 110 90 -64 27 -96
0000a0 87 a3 58 b3 29 a8 99 81 2a 8e b3 d9 7f c4 7f 54
       -121 -93 88 -77 41 -88 -103 -127 42 -114 -77 -39 127 -60 127 84
0000b0 d4 a9 f2 55 dc b4 94 5a 28 3b 69 95 a7 89 50 79
       -44 -87 -14 85 -36 -76 -108 90 40 59 105 -107 -89 -119 80 121
0000c0 7f ac 81 81 7f 26 60 81 64 81 90 7f 7f f2 fa 7f
       127 -84 -127 -127 127 38 96 -127 100 -127 -112 127 127 -14 -6 127
0000d0 c4 81 7f 81 7f 81 88 8a 7f a1 81 81 86 81 ba 7f
       -60 -127 127 -127 127 -127 -120 -118 127 -95 -127 -127 -122 -127 -70 127
0000e0 1d 8c 7f 7f ba 81 9e 5a 3c 7f 7f 8f 92 81 7b 7f
       29 -116 127 127 -70 -127 -98 90 60 127 127 -113 -110 -127 123 127
0000f0 c9 1d c2 ad 8b e9 20 d9 7f ed b2 26 38 ba e7 d4
       -55 29 -62 -83 -117 -23 32 -39 127 -19 -78 38 56 -70 -25 -44

model_1/block_1_expand/Conv2D i1 [48, 1, 1, 8]
000000 0c 81 32 d5 18 ef cf 12 32 42 e8 b5 10 ea b9 7f
       12 -127 50 -43 24 -17 -49 18 50 66 -24 -75 16 -22 -71 127
000010 1e 0a e6 7c 20 7f 34 54 53 46 a2 7f a2 f8 03 0e
       30 10 -26 124 32 127 52 84 83 70 -94 127 -94 -8 3 14
000020 d9 a6 46 fe f9 1a d4 81 18 ff dc 36 f7 e2 22 7f
       -39 -90 70 -2 -7 26 -44 -127 24 -1 -36 54 -9 -30 34 127
000030 45 ef 89 a3 7f 0e 43 db 7f 17 21 f4 1b f9 56 cb
       69 -17 -119 -93 127 14 67 -37 127 23 33 -12 27 -7 86 -53
000040 19 9e 06 6c 00 0f ff 81 6b 81 0f 0b f0 12 82 6b
       25 -98 6 108 0 15 -1 -127 107 -127 15 11 -16 18 -126 107
000050 81 d9 83 09 fa ff 9b 28 e6 e1 01 9b 81 cf 36 f2
       -127 -39 -125 9 -6 -1 -101 40 -26 -31 1 -101 -127 -49 54 -14
000060 0e fc ca 3c b0 f4 44 7f 00 00 00 00 00 00 00 00
       14 -4 -54 60 -80 -12 68 127 0 0 0 0 0 0 0 0
000070 fa dd f9 09 23 7f 29 26 2d 03 0b 81 3f 26 ce 53
       -6 -35 -7 9 35 127 41 38 45 3 11 -127 63 38 -50 83
000080 00 00 00 00 00 00 00 00 17 16 7f 28 df ea 21 2d
       0 0 0 0 0 0 0 0 23 22 127 40 -33 -22 33 45
000090 52 81 1c 2d ff 11 85 0e 81 ea 20 52 c1 d7 9a 59
       82 -127 28 45 -1 17 -123 14 -127 -22 32 82 -63 -41 -102 89
0000a0 25 2a dd 70 ff 81 fd 39 37 1e 7f 08 f2 f5 4b 0f
       37 42 -35 112 -1 -127 -3 57 55 30 127 8 -14 -11 75 15
0000b0 bd f6 81 00 0b 03 ab 02 a1 7f f4 f3 0b f4 67 ba
       -67 -10 -127 0 11 3 -85 2 -95 127 -12 -13 11 -12 103 -70
0000c0 05 c8 ca 46 f2 c6 64 7f 02 1d 17 0a 7f 63 c7 ce
       5 -56 -54 70 -14 -58 100 127 2 29 23 10 127 99 -57 -50
0000d0 b3 e4 81 03 01 1c ba 0d 0d cf dc 09 b3 7f 4b 46
       -77 -28 -127 3 1 28 -70 13 13 -49 -36 9 -77 127 75 70
0000e0 fa f7 e2 2d 1f 7f 3d 43 5d 20 7f f7 ef 03 53 f5
       -6 -9 -30 45 31 127 61 67 93 32 127 -9 -17 3 83 -11
0000f0 b6 7f ee e4 0e fa 66 d3 cf a9 ec 12 2c b4 7c 7f
       -74 127 -18 -28 14 -6 102 -45 -49 -87 -20 18 44 -76 124 127

model_1/expanded_conv_project/Conv2D i1 [8, 1, 1, 16]
000000 00 f4 03 ff 7f f4 fd f9 01 86 a9 fe 00 75 00 00
       0 -12 3 -1 127 -12 -3 -7 1 -122 -87 -2 0 117 0 0
000010 00 e5 fc 59 44 09 19 06 01 f8 7f d2 00 1d f1 00
       0 -27 -4 89 68 9 25 6 1 -8 127 -46 0 29 -15 0
000020 00 ff 03 f5 c7 08 12 00 00 09 ec 04 00 7f f6 00
       0 -1 3 -11 -57 8 18 0 0 9 -20 4 0 127 -10 0
000030 00 fe f0 81 5a 0b 40 0a 01 3a fc 28 00 fd 17 00
       0 -2 -16 -127 90 11 64 10 1 58 -4 40 0 -3 23 0
000040 00 34 e5 25 ca 1e 7f 06 ff c6 0c f3 00 fa 12 00
       0 52 -27 37 -54 30 127 6 -1 -58 12 -13 0 -6 18 0
000050 00 f3 f5 fe e9 e3 ea 10 01 09 fd d4 00 fa 7f 00
       0 -13 -11 -2 -23 -29 -22 16 1 9 -3 -44 0 -6 127 0
000060 00 0e 01 05 36 f1 df fd 02 96 73 42 00 7f 3d 00
       0 14 1 5 54 -15 -33 -3 2 -106 115 66 0 127 61 0
000070 00 0d f3 7f 09 f8 0a 0f 01 45 cb 49 00 f5 39 00
       0 13 -13 127 9 -8 10 15 1 69 -53 73 0 -11 57 0

model_1/expanded_conv_depthwise_BN/FusedBatchNormV3;model_1/expanded_conv_depthwise/depthwise;model_1/block_5_project/Conv2D i1 [1, 3, 3, 16]
000000 94 12 ae 81 27 bc 50 b4 a6 fd f8 1d 81 04 36 b7
       -108 18 -82 -127 39 -68 80 -76 -90 -3 -8 29 -127 4 54 -73
000010 33 18 81 7f 7f 81 7f 81 ab 7f 81 33 97 05 7f e7
       51 24 -127 127 127 -127 127 -127 -85 127 -127 51 -105 5 127 -25
000020 18 e8 59 fe b8 40 a1 4d a1 e5 04 f0 3d 01 9b e3
       24 -24 89 -2 -72 64 -95 77 -95 -27 4 -16 61 1 -101 -29
000030 81 7f e9 0d d4 0e e3 0e e4 01 03 92 cf 08 e3 f2
       -127 127 -23 13 -44 14 -29 14 -28 1 3 -110 -49 8 -29 -14
000040 b2 d6 c6 f1 f8 e5 08 e4 94 a7 15 f4 98 81 01 17
       -78 -42 -58 -15 -8 -27 8 -28 -108 -89 21 -12 -104 -127 1 23
000050 0e 01 3f 02 03 1f e7 21 81 06 fe 01 eb 0b fc 2b
       14 1 63 2 3 31 -25 33 -127 6 -2 1 -21 11 -4 43
000060 8d b8 44 02 fa 25 d9 34 b4 00 00 05 28 02 e5 17
       -115 -72 68 2 -6 37 -39 52 -76 0 0 5 40 2 -27 23
000070 17 fc 1e fe e5 26 de 14 83 f3 00 54 c6 00 e4 91
       23 -4 30 -2 -27 38 -34 20 -125 -13 0 84 -58 0 -28 -111
000080 15 f9 12 00 04 0c 09 16 8d 04 ff 81 6b 03 11 81
       21 -7 18 0 4 12 9 22 -115 4 -1 -127 107 3 17 -127

model_1/Conv1/Conv2D i1 [16, 3, 3, 3]
000000 00 00 00 00 00 00 00 00 00 00 00 00 00 00 00 00
       0 0 0 0 0 0 0 0 0 0 0 0 0 0 0 0
000010 00 00 00 00 00 00 00 00 00 00 00 27 0a 1b f5 f9
       0 0 0 0 0 0 0 0 0 0 0 39 10 27 -11 -7
000020 0b 81 9e bb f9 01 fd e3 0c fa f8 ef 05 f5 16 01
       11 -127 -98 -69 -7 1 -3 -29 12 -6 -8 -17 5 -11 22 1
000030 f6 10 03 20 fa 13 13 05 f7 3d 77 fe 25 ec 07 03
       -10 16 3 32 -6 19 19 5 -9 61 119 -2 37 -20 7 3
000040 15 fa 38 7f e1 12 06 f7 28 c0 0d 3f d5 e6 1b cd
       21 -6 56 127 -31 18 6 -9 40 -64 13 63 -43 -26 27 -51
000050 09 0b 1d 01 2a 5f 13 08 0a ff 1c 1d 03 52 7f 18
       9 11 29 1 42 95 19 8 10 -1 28 29 3 82 127 24
000060 fb f0 08 10 01 08 29 1d 0b 09 01 09 1f 44 dd 08
       -5 -16 8 16 1 8 41 29 11 9 1 9 31 68 -35 8
000070 51 de e6 0e eb 11 51 fc 08 7d f0 04 38 cf 1d 57
       81 -34 -26 14 -21 17 81 -4 8 125 -16 4 56 -49 29 87
000080 f5 15 7f e0 d2 1d ea 1e 17 91 11 13 9d 0b 2e ed
       -11 21 127 -32 -46 29 -22 30 23 -111 17 19 -99 11 46 -19
000090 14 e4 81 0d df 85 0c 1c e9 04 11 ef 0a 05 f2 09
       20 -28 -127 13 -33 -123 12 28 -23 4 17 -17 10 5 -14 9
0000a0 15 f0 17 c0 22 2e a9 27 08 eb 09 22 9f 3c 3f 81
       21 -16 23 -64 34 46 -87 39 8 -21 9 34 -97 60 63 -127
0000b0 48 06 e3 12 16 de 0d 12 d6 1b f6 09 02 e1 0a ff
       72 6 -29 18 22 -34 13 18 -42 27 -10 9 2 -31 10 -1
0000c0 83 c7 f9 de 0e f9 02 f4 ff 81 91 f4 07 f4 01 f4
       -125 -57 -7 -34 14 -7 2 -12 -1 -127 -111 -12 7 -12 1 -12
0000d0 27 fc fd 10 04 f1 1f 00 7c 7f 74 7a 7f 73 7b 7d
       39 -4 -3 16 4 -15 31 0 124 127 116 122 127 115 123 125
0000e0 72 7c 7d 73 79 7c 71 7a 7c 71 7a 7c 72 79 7c 71
       114 124 125 115 121 124 113 122 124 113 122 124 114 121 124 113
0000f0 7a 7c 71 f0 f7 f8 fa f5 f0 0f 01 e5 6d 70 e7 57
       122 124 113 -16 -9 -8 -6 -11 -16 15 1 -27 109 112 -25 87
