trained.tflite (tflite, 56672 bytes, 21 tensors)

model_1/logits/Conv2D i1 [4, 1, 1, 32]
17 -22 -62 -33 127 -31 -6 -44
76 17 62 74 -71 -30 -6 -19
-1 -20 -109 43 4 40 -46 90
-24 -10 -14 32 70 -41 42 12
67 76 -84 -15 -59 39 123 45
-48 -79 -91 28 91 -57 96 -127
120 -103 8 -71 6 -75 -104 -20
-11 -105 67 -56 -39 -103 -28 -45
-38 107 26 94 -71 -7 102 43
-92 -118 95 -67 -93 91 -127 63
56 80 86 -75 -13 28 -59 -65
15 -75 93 -95 -22 19 61 66
75 -67 70 11 -25 98 33 -9
1 -104 33 87 71 -5 -127 -17
97 -85 110 -10 -103 6 -7 -33
92 2 -87 76 -69 100 19 43
00000000: 11ea c2df 7fe1 fad4 4c11 3e4a b9e2 faed
00000010: ffec 932b 0428 d25a e8f6 f220 46d7 2a0c
00000020: 434c acf1 c527 7b2d d0b1 a51c 5bc7 6081
00000030: 7899 08b9 06b5 98ec f597 43c8 d999 e4d3
00000040: da6b 1a5e b9f9 662b a48a 5fbd a35b 813f
00000050: 3850 56b5 f31c c5bf 0fb5 5da1 ea13 3d42
00000060: 4bbd 460b e762 21f7 0198 2157 47fb 81ef
00000070: 61ab 6ef6 9906 f9df 5c02 a94c bb64 132b

model_1/head/Conv2D i1 [32, 1, 1, 96]
-48 -56 109 -19 84 -5 -85 -114
47 -81 -112 6 40 5 -35 56
-46 -26 -74 -49 -76 -101 11 112
-112 16 86 -39 123 1 -15 -81
72 -85 -101 53 -98 -88 -109 15
73 -85 -98 105 51 -110 103 -16
14 -37 -63 100 -64 -83 -83 94
21 54 127 -104 -95 99 -50 67
-58 16 74 69 44 96 92 -123
110 -103 50 89 -97 21 -60 8
56 17 79 -11 -56 -42 -83 96
26 117 -6 -103 -4 44 13 19
-60 38 -71 -13 -53 72 31 12
72 -114 -110 108 59 -30 20 62
106 -49 35 127 -55 -10 34 21
31 22 -52 108 9 -8 97 -77
57 103 -29 33 50 57 -8 -68
-69 0 -21 -99 -37 40 -34 -57
-31 -85 121 40 5 76 -73 -49
12 86 75 70 -66 120 -73 -87
-63 29 73 49 90 31 7 -10
-107 84 -47 49 77 -51 -46 68
-93 93 -56 -121 22 111 -69 -79
71 86 112 26 66 75 41 0
39 31 -74 78 -5 -58 75 82
-95 93 -52 103 97 -3 62 -125
-57 -30 36 32 -87 -26 106 14
-36 79 102 18 -63 82 83 95
-76 -26 -95 -112 -93 78 92 -44
-127 -76 0 -13 -104 112 -41 -92
97 40 95 -86 -30 60 4 22
-67 107 -82 7 -7 52 -37 88
00000000: d0c8 6ded 54fb ab8e 2faf 9006 2805 dd38
00000010: d2e6 b6cf b49b 0b70 9010 56d9 7b01 f1af
00000020: 48ab 9b35 9ea8 930f 49ab 9e69 3392 67f0
00000030: 0edb c164 c0ad ad5e 1536 7f98 a163 ce43
00000040: c610 4a45 2c60 5c85 6e99 3259 9f15 c408
00000050: 3811 4ff5 c8d6 ad60 1a75 fa99 fc2c 0d13
00000060: c426 b9f3 cb48 1f0c 488e 926c 3be2 143e
00000070: 6acf 237f c9f6 2215 1f16 cc6c 09f8 61b3
00000080: 3967 e321 3239 f8bc bb00 eb9d db28 dec7
00000090: e1ab 7928 054c b7cf 0c56 4b46 be78 b7a9
000000a0: c11d 4931 5a1f 07f6 9554 d131 4dcd d244
000000b0: a35d c887 166f bbb1 4756 701a 424b 2900
000000c0: 271f b64e fbc6 4b52 a15d cc67 61fd 3e83
000000d0: c7e2 2420 a9e6 6a0e dc4f 6612 c152 535f
000000e0: b4e6 a190 a34e 5cd4 81b4 00f3 9870 d7a4
000000f0: 6128 5faa e23c 0416 bd6b ae07 f934 db58

model_1/block_6_expand/Conv2D i1 [96, 1, 1, 16]
-22 107 -14 -127 -30 -45 -30 -75
-29 18 -1 66 34 -56 -9 62
-54 8 -62 15 -57 -51 39 -96
87 91 -78 31 -9 14 73 -127
18 31 -60 38 87 15 -81 -109
127 -39 -8 -13 0 101 -85 45
78 -63 -26 -98 12 -35 -41 -2
127 -25 73 61 21 50 -22 91
-61 35 3 33 -30 -48 26 26
27 5 -2 -15 -127 -46 8 51
11 68 117 19 31 88 -85 79
-48 73 -26 -18 52 -41 -127 11
43 -68 121 -127 40 2 -45 106
-61 -118 56 -23 4 98 -38 65
46 127 -41 -64 81 1 8 -60
123 105 -37 9 35 -28 89 69
12 -78 11 -88 26 -66 18 -85
27 79 76 -14 11 127 79 71
11 -33 -1 127 20 -26 48 -48
-53 101 17 -22 -7 -54 4 7
-4 15 -38 -127 19 9 -23 29
39 -42 19 -11 -7 -37 -14 5
-4 23 23 -25 93 -24 91 -70
-82 26 6 36 -2 127 -66 -39
77 25 -127 -16 27 -84 6 3
3 52 -74 -62 -20 98 10 35
-17 0 -25 17 9 -127 -6 27
12 -13 7 -2 22 1 11 9
37 -11 76 -28 80 9 -127 -99
-30 -52 26 8 24 -61 -12 -37
-94 33 -15 -47 9 16 127 42
-34 21 87 -12 17 87 58 -28
00000000: ea6b f281 e2d3 e2b5 e312 ff42 22c8 f73e
00000010: ca08 c20f c7cd 27a0 575b b21f f70e 4981
00000020: 121f c426 570f af93 7fd9 f8f3 0065 ab2d
00000030: 4ec1 e69e 0cdd d7fe 7fe7 493d 1532 ea5b
00000040: c323 0321 e2d0 1a1a 1b05 fef1 81d2 0833
00000050: 0b44 7513 1f58 ab4f d049 e6ee 34d7 810b
00000060: 2bbc 7981 2802 d36a c38a 38e9 0462 da41
00000070: 2e7f d7c0 5101 08c4 7b69 db09 23e4 5945
00000080: 0cb2 0ba8 1abe 12ab 1b4f 4cf2 0b7f 4f47
00000090: 0bdf ff7f 14e6 30d0 cb65 11ea f9ca 0407
000000a0: fc0f da81 1309 e91d 27d6 13f5 f9db f205
000000b0: fc17 17e7 5de8 5bba ae1a 0624 fe7f bed9
000000c0: 4d19 81f0 1bac 0603 0334 b6c2 ec62 0a23
000000d0: ef00 e711 0981 fa1b 0cf3 07fe 1601 0b09
000000e0: 25f5 4ce4 5009 819d e2cc 1a08 18c3 f4db
000000f0: a221 f1d1 0910 7f2a de15 57f4 1157 3ae4

model_1/block_5_project/Conv2D i1 [16, 1, 1, 96]
-18 -20 7 -32 7 -7 -50 7
20 11 -7 -4 -14 -23 -24 21
-2 1 1 -4 2 -38 12 -3
-3 18 -11 127 32 -47 48 3
0 3 2 8 -5 21 -50 -6
-21 14 -3 43 12 16 19 -2
21 6 -14 0 20 -20 -9 86
8 15 -35 -46 -1 25 -11 -34
-50 -72 -21 48 0 9 21 -7
-13 -39 -4 -32 -15 11 -8 1
-11 -38 19 26 7 -18 -18 -105
-5 -23 -4 -13 54 -37 -30 -2
44 -80 -79 -69 122 -22 62 53
-30 -80 -50 -35 0 -31 -68 64
-59 2 50 36 1 31 -13 -81
12 4 -38 -78 32 -25 -68 54
-27 32 0 12 23 6 -20 13
-54 41 -38 -20 -35 84 22 -3
21 -66 6 -51 -20 42 61 20
-52 -17 -35 -43 31 -15 -19 -55
-96 107 -24 -32 -20 -39 -17 27
44 -121 -31 -13 47 -68 17 5
11 -41 27 1 -37 19 -28 24
16 -49 -16 -2 27 -2 42 127
-11 57 -87 6 83 65 59 49
-12 -127 -21 6 10 34 27 -5
-4 -1 -44 60 35 8 83 40
51 10 12 -36 29 -17 31 -68
29 42 -20 15 -113 -97 60 28
40 -30 13 -25 30 -31 -16 64
-15 10 -8 22 69 -16 -8 47
30 -2 20 -3 2 24 32 -12
00000000: eeec 07e0 07f9 ce07 140b f9fc f2e9 e815
00000010: fe01 01fc 02da 0cfd fd12 f57f 20d1 3003
00000020: 0003 0208 fb15 cefa eb0e fd2b 0c10 13fe
00000030: 1506 f200 14ec f756 080f ddd2 ff19 f5de
00000040: ceb8 eb30 0009 15f9 f3d9 fce0 f10b f801
00000050: f5da 131a 07ee ee97 fbe9 fcf3 36db e2fe
00000060: 2cb0 b1bb 7aea 3e35 e2b0 cedd 00e1 bc40
00000070: c502 3224 011f f3af 0c04 dab2 20e7 bc36
00000080: e520 000c 1706 ec0d ca29 daec dd54 16fd
00000090: 15be 06cd ec2a 3d14 ccef ddd5 1ff1 edc9
000000a0: a06b e8e0 ecd9 ef1b 2c87 e1f3 2fbc 1105
000000b0: 0bd7 1b01 db13 e418 10cf f0fe 1bfe 2a7f
000000c0: f539 a906 5341 3b31 f481 eb06 0a22 1bfb
000000d0: fcff d43c 2308 5328 330a 0cdc 1def 1fbc
000000e0: 1d2a ec0f 8f9f 3c1c 28e2 0de7 1ee1 f040
000000f0: f10a f816 45f0 f82f 1efe 14fd 0218 20f4

model_1/block_5_depthwise_BN/FusedBatchNormV3;model_1/block_5_depthwise/depthwise;model_1/block_6_expand/Conv2D i1 [1, 3, 3, 96]
-46 -73 -13 127 22 72 80 -57
-14 -17 -14 -3 -29 4 38 9
-8 -41 27 19 23 -127 127 12
-86 6 50 -28 -127 -127 37 21
11 28 64 -18 -31 -10 29 -6
-16 28 -105 75 24 -70 36 45
-18 50 -24 18 5 -5 17 49
-93 -48 -64 -19 -10 1 12 40
67 -24 79 13 -8 18 19 127
23 24 26 -3 -11 17 127 -7
-16 17 -27 20 125 19 -82 -16
-3 -34 -15 -37 1 -24 -15 28
127 -127 70 105 -43 127 41 -117
67 5 -17 127 127 -97 -12 23
12 127 127 -113 127 -75 82 75
-127 -115 -67 -34 -56 45 -60 -22
-92 54 -127 -84 -43 -16 -55 60
-2 127 127 85 -53 -113 -111 -50
-16 -127 42 84 67 -30 47 83
-48 44 -85 -114 -43 -41 -60 69
73 -59 30 29 -80 36 -18 91
119 127 14 18 2 58 -35 53
63 127 127 -23 -8 71 -120 127
-123 -105 5 -127 -90 -127 -38 109
-73 -14 26 -84 14 -23 65 -7
78 -33 -27 20 -19 -2 -7 -6
-6 -13 7 -7 -15 -102 30 3
-125 95 6 -54 115 48 -13 5
0 16 17 -29 -10 32 16 9
23 13 -120 62 17 -20 35 12
-15 9 -16 4 -6 3 -2 21
-68 7 -41 52 3 41 34 0
00000000: d2b7 f37f 1648 50c7 f2ef f2fd e304 2609
00000010: f8d7 1b13 1781 7f0c aa06 32e4 8181 2515
00000020: 0b1c 40ee e1f6 1dfa f01c 974b 18ba 242d
00000030: ee32 e812 05fb 1131 a3d0 c0ed f601 0c28
00000040: 43e8 4f0d f812 137f 1718 1afd f511 7ff9
00000050: f011 e514 7d13 aef0 fdde f1db 01e8 f11c
00000060: 7f81 4669 d57f 298b 4305 ef7f 7f9f f417
00000070: 0c7f 7f8f 7fb5 524b 818d bdde c82d c4ea
00000080: a436 81ac d5f0 c93c fe7f 7f55 cb8f 91ce
00000090: f081 2a54 43e2 2f53 d02c ab8e d5d7 c445
000000a0: 49c5 1e1d b024 ee5b 777f 0e12 023a dd35
000000b0: 3f7f 7fe9 f847 887f 8597 0581 a681 da6d
000000c0: b7f2 1aac 0ee9 41f9 4edf e514 edfe f9fa
000000d0: faf3 07f9 f19a 1e03 835f 06ca 7330 f305
000000e0: 0010 11e3 f620 1009 170d 883e 11ec 230c
000000f0: f109 f004 fa03 fe15 bc07 d734 0329 2200

model_1/block_5_expand/Conv2D i1 [96, 1, 1, 16]
-3 83 -23 52 28 24 -2 -19
52 32 -60 104 -8 -127 29 -96
16 87 -14 -28 39 -45 127 -125
-9 71 -16 -18 0 -47 33 8
-127 44 9 -7 27 -25 12 40
-9 17 108 -7 -38 36 20 -31
-49 48 59 103 -17 74 68 114
29 69 -127 -11 80 -76 -96 -41
-3 -23 39 92 -39 69 -6 62
41 -17 -4 19 3 2 -127 -23
-6 -21 55 -2 16 -24 1 57
-75 127 -25 -121 -8 26 -80 -44
11 2 27 -8 17 40 -33 -36
-13 -4 65 -33 127 -17 -4 -54
21 -10 127 -5 -17 -24 4 -7
-71 57 -74 -30 20 0 34 1
9 36 104 57 -64 96 17 59
52 21 14 -114 -54 6 -125 -127
24 -119 86 58 29 -23 19 29
113 6 108 13 -43 29 -127 -44
-4 -74 1 -30 -93 31 -11 72
77 127 27 -39 -27 61 88 -5
20 -66 64 -92 0 -6 -114 -127
-51 40 6 -42 35 0 48 -41
-4 -15 10 -36 -62 -52 -84 6
-61 -65 -14 -16 38 127 77 83
-13 -102 -58 57 -26 -80 -2 -13
92 0 -11 0 49 36 127 53
-7 -43 40 23 30 28 6 91
20 48 6 -42 8 24 -61 127
19 -18 -4 63 19 9 116 2
-3 -127 19 -26 6 -12 -11 -54
00000000: fd53 e934 1c18 feed 3420 c468 f881 1da0
00000010: 1057 f2e4 27d3 7f83 f747 f0ee 00d1 2108
00000020: 812c 09f9 1be7 0c28 f711 6cf9 da24 14e1
00000030: cf30 3b67 ef4a 4472 1d45 81f5 50b4 a0d7
00000040: fde9 275c d945 fa3e 29ef fc13 0302 81e9
00000050: faeb 37fe 10e8 0139 b57f e787 f81a b0d4
00000060: 0b02 1bf8 1128 dfdc f3fc 41df 7fef fcca
00000070: 15f6 7ffb efe8 04f9 b939 b6e2 1400 2201
00000080: 0924 6839 c060 113b 3415 0e8e ca06 8381
00000090: 1889 563a 1de9 131d 7106 6c0d d51d 81d4
000000a0: fcb6 01e2 a31f f548 4d7f 1bd9 e53d 58fb
000000b0: 14be 40a4 00fa 8e81 cd28 06d6 2300 30d7
000000c0: fcf1 0adc c2cc ac06 c3bf f2f0 267f 4d53
000000d0: f39a c639 e6b0 fef3 5c00 f500 3124 7f35
000000e0: f9d5 2817 1e1c 065b 1430 06d6 0818 c37f
000000f0: 13ee fc3f 1309 7402 fd81 13e6 06f4 f5ca

model_1/block_4_project/Conv2D i1 [16, 1, 1, 96]
-8 14 -22 21 50 88 -51 -25
39 16 -8 10 -1 8 26 66
-8 -7 -1 -4 103 -55 4 -6
-35 -23 -40 -110 -13 0 56 49
125 4 1 3 20 -27 -2 9
-23 3 14 -25 7 -32 -15 23
-20 29 6 -2 -32 -21 8 -6
44 35 -22 -39 -61 10 -9 -14
16 5 55 3 6 1 -13 -33
-81 6 -5 -1 -4 -92 17 -12
23 -14 -62 -55 29 -28 -19 23
9 4 21 -30 14 15 -7 127
59 -82 15 82 14 -59 -46 -46
-30 -77 -17 41 23 -66 -30 -63
-83 -1 10 31 -12 -105 -56 23
107 -49 -63 25 -40 100 -11 52
-10 34 -54 -9 -29 -17 75 -41
1 -71 50 -29 -52 -1 72 -10
21 21 -6 -52 68 -68 32 -27
33 28 -15 -94 37 -59 31 -39
-7 -98 15 27 42 66 -53 -9
-127 57 -7 67 39 83 20 -13
9 22 -65 25 -94 54 -20 54
-47 44 24 24 11 -41 36 -1
16 19 24 -27 -9 -18 6 31
65 -21 27 53 -13 6 38 15
-6 -16 4 -9 -21 -68 27 -63
-7 -14 -26 36 3 9 92 -39
8 -75 -15 50 12 127 -62 -22
-6 -19 5 38 -34 -47 -54 28
41 24 -19 -24 28 19 -8 -18
-35 0 -14 37 -1 14 64 83
00000000: f80e ea15 3258 cde7 2710 f80a ff08 1a42
00000010: f8f9 fffc 67c9 04fa dde9 d892 f300 3831
00000020: 7d04 0103 14e5 fe09 e903 0ee7 07e0 f117
00000030: ec1d 06fe e0eb 08fa 2c23 ead9 c30a f7f2
00000040: 1005 3703 0601 f3df af06 fbff fca4 11f4
00000050: 17f2 c2c9 1de4 ed17 0904 15e2 0e0f f97f
00000060: 3bae 0f52 0ec5 d2d2 e2b3 ef29 17be e2c1
00000070: adff 0a1f f497 c817 6bcf c119 d864 f534
00000080: f622 caf7 e3ef 4bd7 01b9 32e3 ccff 48f6
00000090: 1515 facc 44bc 20e5 211c f1a2 25c5 1fd9
000000a0: f99e 0f1b 2a42 cbf7 8139 f943 2753 14f3
000000b0: 0916 bf19 a236 ec36 d12c 1818 0bd7 24ff
000000c0: 1013 18e5 f7ee 061f 41eb 1b35 f306 260f
000000d0: faf0 04f7 ebbc 1bc1 f9f2 e624 0309 5cd9
000000e0: 08b5 f132 0c7f c2ea faed 0526 ded1 ca1c
000000f0: 2918 ede8 1c13 f8ee dd00 f225 ff0e 4053

model_1/block_4_depthwise_BN/FusedBatchNormV3;model_1/block_4_depthwise/depthwise;model_1/block_6_expand/Conv2D i1 [1, 3, 3, 96]
-17 6 -20 106 -17 25 -63 -55
19 -5 100 -8 3 -9 -4 51
6 16 -33 5 72 1 32 -33
0 17 41 47 22 11 21 49
-8 30 11 -13 5 49 -67 -27
19 10 28 19 -86 -57 24 -6
-11 -19 -9 -6 49 4 -9 1
-1 -37 27 -32 26 -2 127 27
-12 -11 8 -56 66 35 -1 -5
78 -35 68 4 18 -127 27 64
1 15 127 -16 39 28 -26 -17
36 -5 -14 79 0 19 -2 11
-48 13 -8 10 52 -6 -10 -127
41 15 -127 -4 -16 -13 5 90
18 -32 -16 -14 74 -96 127 27
-61 -32 -106 -17 28 35 -50 20
117 14 -12 1 -24 127 -69 -127
8 -18 -30 14 46 -127 127 -45
-76 54 47 7 40 -65 31 55
38 40 -98 84 127 34 4 -19
42 -39 -94 -5 37 -31 -18 47
-48 -50 105 -4 -29 -61 -34 64
-64 61 -14 7 -10 48 53 -38
-28 54 -12 71 -127 -31 23 -127
0 -3 -23 -76 8 21 38 20
-2 -1 5 63 1 -12 -10 6
-14 16 -14 16 6 26 25 -31
0 -31 7 12 -4 6 44 -76
41 20 11 -21 12 6 -39 -21
7 4 -15 9 23 -32 20 1
6 -5 4 -5 6 5 -8 7
-6 42 7 -3 11 -19 4 -17
00000000: ef06 ec6a ef19 c1c9 13fb 64f8 03f7 fc33
00000010: 0610 df05 4801 20df 0011 292f 160b 1531
00000020: f81e 0bf3 0531 bde5 130a 1c13 aac7 18fa
00000030: f5ed f7fa 3104 f701 ffdb 1be0 1afe 7f1b
00000040: f4f5 08c8 4223 fffb 4edd 4404 1281 1b40
00000050: 010f 7ff0 271c e6ef 24fb f24f 0013 fe0b
00000060: d00d f80a 34fa f681 290f 81fc f0f3 055a
00000070: 12e0 f0f2 4aa0 7f1b c3e0 96ef 1c23 ce14
00000080: 750e f401 e87f bb81 08ee e20e 2e81 7fd3
00000090: b436 2f07 28bf 1f37 2628 9e54 7f22 04ed
000000a0: 2ad9 a2fb 25e1 ee2f d0ce 69fc e3c3 de40
000000b0: c03d f207 f630 35da e436 f447 81e1 1781
000000c0: 00fd e9b4 0815 2614 feff 053f 01f4 f606
000000d0: f210 f210 061a 19e1 00e1 070c fc06 2cb4
000000e0: 2914 0beb 0c06 d9eb 0704 f109 17e0 1401
000000f0: 06fb 04fb 0605 f807 fa2a 07fd 0bed 04ef

model_1/block_4_expand/Conv2D i1 [96, 1, 1, 16]
25 -25 127 114 89 -34 42 -60
118 -13 -58 -80 15 70 -31 -91
38 108 5 14 125 -10 -10 31
59 127 -35 121 -51 -54 102 -113
2 -49 -11 2 -42 39 -40 88
-57 -69 19 80 -3 -127 84 -83
127 114 -20 30 -112 -22 -61 -33
-5 1 86 -75 -37 79 -31 -30
8 6 -1 18 -22 41 -10 63
-73 -28 -3 -24 -7 -127 18 -15
102 -44 -36 10 3 -116 -24 9
5 23 -127 14 21 -11 -20 32
-81 -62 -37 117 -26 -53 -38 43
-127 -73 -111 -25 36 43 7 126
-24 14 -91 43 25 -127 -12 58
-2 -25 18 -9 4 22 -48 35
18 -41 -10 1 17 22 -34 -46
-6 21 -65 14 -127 -1 10 5
4 -37 46 101 18 33 -4 -64
127 -91 22 -20 -4 38 -66 33
-127 -115 13 -44 105 32 31 68
110 -58 -73 -7 98 -68 -78 87
42 -14 -127 23 62 38 -45 40
-9 -46 -4 -2 -11 28 -45 3
126 -85 28 17 -18 -78 -62 -1
54 -7 -127 -9 -26 12 -7 65
58 -69 0 -58 84 16 -127 -118
6 -97 34 20 6 -30 44 3
-39 41 -91 -41 84 -127 48 -49
50 38 -23 -95 40 108 -13 12
27 -8 61 41 36 -52 -9 -18
14 -37 -69 -8 -127 -66 -16 65
00000000: 19e7 7f72 59de 2ac4 76f3 c6b0 0f46 e1a5
00000010: 266c 050e 7df6 f61f 3b7f dd79 cdca 668f
00000020: 02cf f502 d627 d858 c7bb 1350 fd81 54ad
00000030: 7f72 ec1e 90ea c3df fb01 56b5 db4f e1e2
00000040: 0806 ff12 ea29 f63f b7e4 fde8 f981 12f1
00000050: 66d4 dc0a 038c e809 0517 810e 15f5 ec20
00000060: afc2 db75 e6cb da2b 81b7 91e7 242b 077e
00000070: e80e a52b 1981 f43a fee7 12f7 0416 d023
00000080: 12d7 f601 1116 ded2 fa15 bf0e 81ff 0a05
00000090: 04db 2e65 1221 fcc0 7fa5 16ec fc26 be21
000000a0: 818d 0dd4 6920 1f44 6ec6 b7f9 62bc b257
000000b0: 2af2 8117 3e26 d328 f7d2 fcfe f51c d303
000000c0: 7eab 1c11 eeb2 c2ff 36f9 81f7 e60c f941
000000d0: 3abb 00c6 5410 818a 069f 2214 06e2 2c03
000000e0: d929 a5d7 5481 30cf 3226 e9a1 286c f30c
000000f0: 1bf8 3d29 24cc f7ee 0edb bbf8 81be f041

model_1/block_3_project/Conv2D i1 [16, 1, 1, 48]
-9 9 -14 15 14 -1 -1 102
-44 16 45 -2 14 -16 -4 19
18 -16 -4 -10 70 -9 21 127
-16 80 1 -14 26 -9 27 -29
-13 43 21 -47 12 50 19 -27
-100 -18 22 38 40 27 -116 -47
-26 -13 24 18 -33 4 4 57
-57 -42 -4 -51 -18 -25 -2 0
-23 122 -6 17 3 13 -25 -11
24 -46 10 20 -26 -91 -38 13
-17 -4 33 5 0 -40 -1 17
-12 -28 127 18 9 -5 15 -11
-22 -10 -10 -38 -2 -64 2 -22
-2 14 18 23 16 13 -16 5
-7 -17 -23 -16 -4 2 -2 -127
-12 74 -13 3 -1 -25 -2 2
-6 51 9 -3 21 12 27 7
-42 7 -20 -6 -2 -7 14 5
-6 40 3 -32 -7 -4 2 -1
-24 2 -2 38 -127 5 -4 -3
0 11 -15 1 -33 5 8 18
-13 -11 6 29 -9 23 3 16
2 3 13 19 -13 28 45 12
14 5 24 -34 15 -4 4 15
39 -26 14 9 21 33 30 -21
-23 0 -15 -20 0 10 -2 15
14 -11 -79 3 -5 9 22 76
5 -31 8 48 7 -75 17 -8
22 -45 37 -127 11 42 -2 17
-23 28 9 -21 -11 -27 6 5
27 0 -19 62 0 -14 10 29
1 -5 36 9 5 57 -2 0
00000000: f709 f20f 0eff ff66 d410 2dfe 0ef0 fc13
00000010: 12f0 fcf6 46f7 157f f050 01f2 1af7 1be3
00000020: f32b 15d1 0c32 13e5 9cee 1626 281b 8cd1
00000030: e6f3 1812 df04 0439 c7d6 fccd eee7 fe00
00000040: e97a fa11 030d e7f5 18d2 0a14 e6a5 da0d
00000050: effc 2105 00d8 ff11 f4e4 7f12 09fb 0ff5
00000060: eaf6 f6da fec0 02ea fe0e 1217 100d f005
00000070: f9ef e9f0 fc02 fe81 f44a f303 ffe7 fe02
00000080: fa33 09fd 150c 1b07 d607 ecfa fef9 0e05
00000090: fa28 03e0 f9fc 02ff e802 fe26 8105 fcfd
000000a0: 000b f101 df05 0812 f3f5 061d f717 0310
000000b0: 0203 0d13 f31c 2d0c 0e05 18de 0ffc 040f
000000c0: 27e6 0e09 1521 1eeb e900 f1ec 000a fe0f
000000d0: 0ef5 b103 fb09 164c 05e1 0830 07b5 11f8
000000e0: 16d3 2581 0b2a fe11 e91c 09eb f5e5 0605
000000f0: 1b00 ed3e 00f2 0a1d 01fb 2409 0539 fe00

model_1/block_3_depthwise_BN/FusedBatchNormV3;model_1/block_3_depthwise/depthwise i1 [1, 3, 3, 48]
69 -94 97 71 53 -33 108 -65
58 -89 -80 48 53 -43 -71 -89
104 77 50 79 66 -73 -82 52
-32 -42 -63 -62 -66 63 -62 -114
-13 41 68 65 -65 54 -52 -24
49 -73 58 61 -92 12 77 -34
81 -97 127 85 -77 -69 -54 -85
94 -102 -63 74 79 -108 -95 91
-40 98 84 127 84 -115 53 70
-51 -80 -69 -79 55 80 -29 -127
-86 80 80 84 -82 84 -84 -16
73 -94 83 88 -74 -127 96 -104
34 -47 71 38 18 -41 -45 -39
41 -33 5 34 30 -79 -55 -1
-56 36 35 70 33 -55 32 27
-27 -46 -44 -23 31 32 89 -88
-85 45 36 34 -29 41 -39 -10
41 -38 35 44 -7 -7 37 -73
93 -112 -40 95 55 -82 127 -91
86 -114 -71 81 84 -110 -14 -127
127 107 74 -39 84 108 -127 72
72 -77 -94 -98 -127 86 -70 -10
-90 70 106 98 -86 78 -80 88
81 -100 87 92 -88 110 96 -91
127 -127 -64 127 -127 -127 -90 -127
127 -127 -127 127 127 -127 -23 96
-69 127 127 -51 127 127 70 127
127 -127 -127 -127 51 127 -28 16
-127 127 127 127 -127 127 -127 127
127 -127 127 127 -127 -10 127 -127
64 -81 -31 67 36 -61 -49 -64
55 -41 -60 58 49 -55 -17 11
00000000: 45a2 6147 35df 6cbf 3aa7 b030 35d5 b9a7
00000010: 684d 324f 42b7 ae34 e0d6 c1c2 be3f c28e
00000020: f329 4441 bf36 cce8 31b7 3a3d a40c 4dde
00000030: 519f 7f55 b3bb caab 5e9a c14a 4f94 a15b
00000040: d862 547f 548d 3546 cdb0 bbb1 3750 e381
00000050: aa50 5054 ae54 acf0 49a2 5358 b681 6098
00000060: 22d1 4726 12d7 d3d9 29df 0522 1eb1 c9ff
00000070: c824 2346 21c9 201b e5d2 d4e9 1f20 59a8
00000080: ab2d 2422 e329 d9f6 29da 232c f9f9 25b7
00000090: 5d90 d85f 37ae 7fa5 568e b951 5492 f281
000000a0: 7f6b 4ad9 546c 8148 48b3 a29e 8156 baf6
000000b0: a646 6a62 aa4e b058 519c 575c a86e 60a5
000000c0: 7f81 c07f 8181 a681 7f81 817f 7f81 e960
000000d0: bb7f 7fcd 7f7f 467f 7f81 8181 337f e410
000000e0: 817f 7f7f 817f 817f 7f81 7f7f 81f6 7f81
000000f0: 40af e143 24c3 cfc0 37d7 c43a 31c9 ef0b

model_1/block_3_expand/Conv2D i1 [48, 1, 1, 8]
-127 5 3 61 -33 39 19 -31
2 63 36 22 6 -33 106 127
-30 4 -4 1 -127 -13 13 -3
96 5 -4 -118 -127 11 32 -20
-127 43 -11 3 54 -10 51 24
-110 -21 29 -3 -127 4 8 91
-17 -127 26 -11 3 8 4 30
-80 -1 11 95 127 -43 -52 6
91 10 13 -127 3 -39 -66 -41
-14 -127 -8 -10 -17 87 -54 83
-87 12 14 14 -127 58 65 -21
125 12 35 21 -65 -48 -43 -127
-1 9 45 -10 10 -88 127 67
56 -13 -1 -23 113 106 127 -47
123 25 -12 17 -127 4 -32 3
-18 -127 12 -16 -5 6 9 41
-58 -13 14 -6 -127 -3 15 9
-35 116 -127 7 13 -125 113 -96
127 -35 -39 23 -68 16 -2 126
127 -60 -24 2 49 3 23 1
127 19 -25 101 -1 38 -5 -63
11 46 -66 -7 -20 104 -127 -107
-127 32 22 -5 -49 2 -37 -21
-39 -60 -1 20 -127 70 81 -23
124 -3 4 -11 -127 2 7 -8
23 -21 -5 -28 127 52 47 -25
10 -113 3 -34 7 -127 97 -62
-16 -127 27 -17 -5 -54 35 -8
-112 24 -29 12 -55 -21 127 81
-9 47 10 8 -10 37 -112 -127
127 -26 -3 16 -50 15 -48 -33
-22 -29 58 -22 5 -114 127 85
00000000: 8105 033d df27 13e1 023f 2416 06df 6a7f
00000010: e204 fc01 81f3 0dfd 6005 fc8a 810b 20ec
00000020: 812b f503 36f6 3318 92eb 1dfd 8104 085b
00000030: ef81 1af5 0308 041e b0ff 0b5f 7fd5 cc06
00000040: 5b0a 0d81 03d9 bed7 f281 f8f6 ef57 ca53
00000050: a90c 0e0e 813a 41eb 7d0c 2315 bfd0 d581
00000060: ff09 2df6 0aa8 7f43 38f3 ffe9 716a 7fd1
00000070: 7b19 f411 8104 e003 ee81 0cf0 fb06 0929
00000080: c6f3 0efa 81fd 0f09 dd74 8107 0d83 71a0
00000090: 7fdd d917 bc10 fe7e 7fc4 e802 3103 1701
000000a0: 7f13 e765 ff26 fbc1 0b2e bef9 ec68 8195
000000b0: 8120 16fb cf02 dbeb d9c4 ff14 8146 51e9
000000c0: 7cfd 04f5 8102 07f8 17eb fbe4 7f34 2fe7
000000d0: 0a8f 03de 0781 61c2 f081 1bef fbca 23f8
000000e0: 9018 e30c c9eb 7f51 f72f 0a08 f625 9081
000000f0: 7fe6 fd10 ce0f d0df eae3 3aea 058e 7f55

model_1/block_2_project/Conv2D i1 [8, 1, 1, 48]
-38 -14 -44 15 6 -24 3 -4
-116 127 -44 115 121 10 83 -18
1 -26 15 13 -10 -5 -23 -44
24 -98 15 50 -1 13 19 -30
3 -85 125 23 1 -6 2 -19
111 1 44 -30 -35 21 -18 -10
-3 35 117 8 -2 -31 14 -75
35 -2 29 4 -26 9 -3 -127
11 -65 5 2 -27 29 26 -30
-12 -10 16 6 9 1 13 -10
-4 2 20 10 -21 -37 60 -58
5 44 -11 24 -17 -1 26 -9
10 -49 14 -40 33 25 -10 -26
7 1 -8 20 -8 59 7 -4
-37 127 -24 -35 -15 18 -42 -6
116 2 -1 -8 -28 -14 -1 -41
-8 -16 4 12 -7 -4 -14 8
17 -19 -14 -4 2 25 -23 -37
-2 -89 -8 5 3 -14 -6 2
-10 -19 16 16 18 -9 44 -3
-8 -25 7 30 -6 23 -25 9
8 58 0 11 -13 8 127 -6
13 6 -7 -7 -24 -18 -8 11
-18 10 -9 34 -11 1 -1 26
-101 12 5 -1 6 -41 9 3
53 -43 18 -17 -33 4 -14 -4
9 9 6 28 14 -38 20 -7
-7 47 9 101 10 -10 -3 -33
-3 -127 -28 18 10 4 3 0
-43 -16 -17 11 -63 9 6 10
-28 33 17 3 -57 7 -3 48
12 1 11 3 3 -50 4 35
00000000: daf2 d40f 06e8 03fc 8c7f d473 790a 53ee
00000010: 01e6 0f0d f6fb e9d4 189e 0f32 ff0d 13e2
00000020: 03ab 7d17 01fa 02ed 6f01 2ce2 dd15 eef6
00000030: fd23 7508 fee1 0eb5 23fe 1d04 e609 fd81
00000040: 0bbf 0502 e51d 1ae2 f4f6 1006 0901 0df6
00000050: fc02 140a ebdb 3cc6 052c f518 efff 1af7
00000060: 0acf 0ed8 2119 f6e6 0701 f814 f83b 07fc
00000070: db7f e8dd f112 d6fa 7402 fff8 e4f2 ffd7
00000080: f8f0 040c f9fc f208 11ed f2fc 0219 e9db
00000090: fea7 f805 03f2 fa02 f6ed 1010 12f7 2cfd
000000a0: f8e7 071e fa17 e709 083a 000b f308 7ffa
000000b0: 0d06 f9f9 e8ee f80b ee0a f722 f501 ff1a
000000c0: 9b0c 05ff 06d7 0903 35d5 12ef df04 f2fc
000000d0: 0909 061c 0eda 14f9 f92f 0965 0af6 fddf
000000e0: fd81 e412 0a04 0300 d5f0 ef0b c109 060a
000000f0: e421 1103 c707 fd30 0c01 0b03 03ce 0423

model_1/block_2_depthwise_BN/FusedBatchNormV3;model_1/block_2_depthwise/depthwise;model_1/block_3_depthwise/depthwise i1 [1, 3, 3, 48]
5 -4 20 111 4 81 -1 27
14 7 10 7 -8 -9 -44 8
-3 8 -23 -112 -6 -22 127 -9
-4 6 -5 9 -5 3 16 98
20 29 39 -28 2 33 -2 1
18 -70 -8 -9 19 3 -7 -10
127 10 15 -127 28 87 11 10
122 127 7 43 -50 -24 4 8
127 -56 -59 -55 -99 25 -108 16
16 70 -30 -83 24 19 11 -123
5 -60 127 10 -39 -48 -6 114
-78 -99 -29 2 -32 -8 -127 22
-32 -3 7 16 0 66 4 17
26 8 -14 31 -13 -3 16 3
-104 29 -2 76 -30 -12 -17 -5
-4 -59 -3 28 -16 3 4 -21
8 -23 16 -19 0 47 42 -13
50 36 -15 11 -40 3 -2 -6
127 6 1 -99 13 -26 34 -17
8 8 -12 52 -5 0 19 -33
0 -49 -62 -83 11 -75 -123 -18
5 98 -14 -127 -8 31 12 -107
17 -52 -2 127 -2 58 -42 41
-60 -127 39 -86 -42 -15 -13 -5
27 -127 -127 115 -127 -127 -127 -127
-127 -98 127 -127 127 127 34 -127
-83 127 127 -105 127 127 112 127
127 -127 -127 28 -127 -127 96 127
-127 127 -28 -42 127 -127 127 127
127 -79 127 127 127 -124 101 106
53 5 49 -14 5 -61 44 17
-25 14 -105 -9 1 -39 127 4
00000000: 05fc 146f 0451 ff1b 0e07 0a07 f8f7 d408
00000010: fd08 e990 faea 7ff7 fc06 fb09 fb03 1062
00000020: 141d 27e4 0221 fe01 12ba f8f7 1303 f9f6
00000030: 7f0a 0f81 1c57 0b0a 7a7f 072b cee8 0408
00000040: 7fc8 c5c9 9d19 9410 1046 e2ad 1813 0b85
00000050: 05c4 7f0a d9d0 fa72 b29d e302 e0f8 8116
00000060: e0fd 0710 0042 0411 1a08 f21f f3fd 1003
00000070: 981d fe4c e2f4 effb fcc5 fd1c f003 04eb
00000080: 08e9 10ed 002f 2af3 3224 f10b d803 fefa
00000090: 7f06 019d 0de6 22ef 0808 f434 fb00 13df
000000a0: 00cf c2ad 0bb5 85ee 0562 f281 f81f 0c95
000000b0: 11cc fe7f fe3a d629 c481 27aa d6f1 f3fb
000000c0: 1b81 8173 8181 8181 819e 7f81 7f7f 2281
000000d0: ad7f 7f97 7f7f 707f 7f81 811c 8181 607f
000000e0: 817f e4d6 7f81 7f7f 7fb1 7f7f 7f84 656a
000000f0: 3505 31f2 05c3 2c11 e70e 97f7 01d9 7f04

model_1/block_2_expand/Conv2D i1 [48, 1, 1, 8]
110 47 -10 -1 127 23 -56 -41
-3 -12 3 127 5 -9 -1 25
43 -127 -32 57 -3 -88 100 9
127 -38 -22 14 -13 -38 35 9
3 -50 127 -16 -12 -63 7 -101
77 2 -5 1 127 24 -21 -15
-32 122 -25 127 38 54 -92 -70
-9 127 -5 0 4 -21 12 5
127 67 1 15 -39 -21 -14 -48
-127 8 9 16 36 5 -10 5
-94 -16 7 127 42 44 -27 4
-127 -11 24 -63 35 11 -37 -40
127 22 11 14 -37 -3 -9 -50
-5 94 -127 9 11 123 -76 63
-32 -41 -5 127 12 4 -10 -6
-5 127 2 -2 -4 -14 9 -49
-10 -127 -35 -15 -1 -118 111 -26
28 127 1 -5 16 79 -87 -17
-8 61 -127 9 6 71 -41 47
-54 31 4 9 -127 5 49 -3
-127 -32 9 2 56 -22 18 4
-76 -12 -4 -5 -127 3 19 10
-127 -28 7 7 81 -21 38 50
-19 -16 -18 -7 -13 73 -127 -93
-10 43 -127 5 13 56 -14 73
86 -45 1 127 -54 -21 -1 -29
-3 -11 -11 0 -8 116 127 -35
70 -7 -2 23 127 32 34 -19
2 124 -72 5 12 80 -22 127
-5 16 -1 -3 2 83 -127 -88
1 2 -3 -127 -11 -5 -13 -17
-63 4 1 17 -127 10 13 -3
00000000: 6e2f f6ff 7f17 c8d7 fdf4 037f 05f7 ff19
00000010: 2b81 e039 fda8 6409 7fda ea0e f3da 2309
00000020: 03ce 7ff0 f4c1 079b 4d02 fb01 7f18 ebf1
00000030: e07a e77f 2636 a4ba f77f fb00 04eb 0c05
00000040: 7f43 010f d9eb f2d0 8108 0910 2405 f605
00000050: a2f0 077f 2a2c e504 81f5 18c1 230b dbd8
00000060: 7f16 0b0e dbfd f7ce fb5e 8109 0b7b b43f
00000070: e0d7 fb7f 0c04 f6fa fb7f 02fe fcf2 09cf
00000080: f681 ddf1 ff8a 6fe6 1c7f 01fb 104f a9ef
00000090: f83d 8109 0647 d72f ca1f 0409 8105 31fd
000000a0: 81e0 0902 38ea 1204 b4f4 fcfb 8103 130a
000000b0: 81e4 0707 51eb 2632 edf0 eef9 f349 81a3
000000c0: f62b 8105 0d38 f249 56d3 017f caeb ffe3
000000d0: fdf5 f500 f874 7fdd 46f9 fe17 7f20 22ed
000000e0: 027c b805 0c50 ea7f fb10 fffd 0253 81a8
000000f0: 0102 fd81 f5fb f3ef c104 0111 810a 0dfd

model_1/block_1_project/Conv2D i1 [8, 1, 1, 48]
-7 4 11 -85 10 25 6 13
0 10 0 -13 96 0 -1 6
0 -7 -4 0 83 0 0 7
25 46 16 14 7 6 2 -127
11 10 -2 -3 -27 2 -11 31
5 -27 -10 2 0 0 1 2
-36 -5 -6 -5 47 27 -34 79
22 7 -35 -29 12 0 15 37
0 45 19 -50 -1 20 127 24
-27 -5 51 2 21 -4 18 -10
18 -5 -10 -21 5 -59 9 2
-2 -6 -86 -7 -37 10 -51 -97
-62 13 1 10 47 -19 33 20
-12 58 10 -4 3 0 9 54
0 11 -127 29 -2 10 2 -15
-38 2 33 9 3 38 18 -1
5 -11 -9 -13 11 8 10 7
40 -13 -27 4 27 -56 28 21
0 -3 -1 5 -4 32 5 -7
64 15 2 -5 29 0 -31 -8
0 -8 -8 0 6 5 1 -20
-10 -7 -15 4 -10 -1 1 -4
-46 34 -52 0 3 -3 -2 -127
5 -1 7 -48 2 -5 5 12
-2 -2 76 33 3 -22 -2 -5
2 -9 -2 -14 -80 0 -13 4
0 6 7 4 67 4 -2 -5
-18 34 -7 42 -14 2 2 100
6 -3 0 0 9 -18 -9 -19
-1 -127 5 5 0 -4 2 4
-3 46 5 -10 0 50 22 16
-21 32 8 58 26 0 -127 -1
00000000: f904 0bab 0a19 060d 000a 00f3 6000 ff06
00000010: 00f9 fc00 5300 0007 192e 100e 0706 0281
00000020: 0b0a fefd e502 f51f 05e5 f602 0000 0102
00000030: dcfb fafb 2f1b de4f 1607 dde3 0c00 0f25
00000040: 002d 13ce ff14 7f18 e5fb 3302 15fc 12f6
00000050: 12fb f6eb 05c5 0902 fefa aaf9 db0a cd9f
00000060: c20d 010a 2fed 2114 f43a 0afc 0300 0936
00000070: 000b 811d fe0a 02f1 da02 2109 0326 12ff
00000080: 05f5 f7f3 0b08 0a07 28f3 e504 1bc8 1c15
00000090: 00fd ff05 fc20 05f9 400f 02fb 1d00 e1f8
000000a0: 00f8 f800 0605 01ec f6f9 f104 f6ff 01fc
000000b0: d222 cc00 03fd fe81 05ff 07d0 02fb 050c
000000c0: fefe 4c21 03ea fefb 02f7 fef2 b000 f304
000000d0: 0006 0704 4304 fefb ee22 f92a f202 0264
000000e0: 06fd 0000 09ee f7ed ff81 0505 00fc 0204
000000f0: fd2e 05f6 0032 1610 eb20 083a 1a00 81ff

model_1/block_1_depthwise_BN/FusedBatchNormV3;model_1/block_1_depthwise/depthwise;model_1/block_3_depthwise/depthwise i1 [1, 3, 3, 48]
-44 -21 -8 -17 7 -40 -79 -68
-27 -50 8 60 33 -71 115 -43
-113 -84 36 -6 0 -74 -111 -80
-35 -127 -64 -21 70 15 94 27
-127 -88 -8 53 18 47 -127 77
-77 -14 106 -108 -3 -34 -87 109
75 12 -29 -29 57 -127 -127 -81
61 -76 -116 103 38 -82 0 61
-52 -114 59 7 11 -112 -127 -70
-5 -127 -120 -40 -52 21 -57 54
29 -127 64 82 12 71 -91 127
-127 6 125 -127 1 -22 -127 96
-33 44 6 -5 -65 -109 -58 -18
86 -7 -127 36 7 -71 -101 -11
-127 -25 26 12 -15 -75 -35 -24
-12 -30 -57 -11 -10 17 -25 9
107 -86 70 31 13 35 -5 16
-79 4 7 -79 -17 6 -55 16
-87 -127 -44 -44 -10 54 97 -106
-26 -109 -21 109 89 -64 28 -96
-121 -95 90 -76 42 -88 -104 -127
42 -116 -79 -41 127 -60 127 85
-43 -87 -15 84 -35 -76 -106 88
42 60 104 -108 -90 -116 81 119
127 -82 -127 -127 127 41 92 -127
101 -127 -112 127 127 -14 -6 127
-60 -127 127 -127 127 -127 -122 -119
127 -93 -127 -127 -117 -127 -70 127
29 -114 127 127 -68 -127 -94 89
60 127 127 -116 -112 -127 124 127
-53 31 -61 -84 -119 -22 30 -36
127 -21 -76 36 55 -70 -25 -43
00000000: d4eb f8ef 07d8 b1bc e5ce 083c 21b9 73d5
00000010: 8fac 24fa 00b6 91b0 dd81 c0eb 460f 5e1b
00000020: 81a8 f835 122f 814d b3f2 6a94 fdde a96d
00000030: 4b0c e3e3 3981 81af 3db4 8c67 26ae 003d
00000040: cc8e 3b07 0b90 81ba fb81 88d8 cc15 c736
00000050: 1d81 4052 0c47 a57f 8106 7d81 01ea 8160
00000060: df2c 06fb bf93 c6ee 56f9 8124 07b9 9bf5
00000070: 81e7 1a0c f1b5 dde8 f4e2 c7f5 f611 e709
00000080: 6baa 461f 0d23 fb10 b104 07b1 ef06 c910
00000090: a981 d4d4 f636 6196 e693 eb6d 59c0 1ca0
000000a0: 87a1 5ab4 2aa8 9881 2a8c b1d7 7fc4 7f55
000000b0: d5a9 f154 ddb4 9658 2a3c 6894 a68c 5177
000000c0: 7fae 8181 7f29 5c81 6581 907f 7ff2 fa7f
000000d0: c481 7f81 7f81 8689 7fa3 8181 8b81 ba7f
000000e0: 1d8e 7f7f bc81 a259 3c7f 7f8c 9081 7c7f
000000f0: cb1f c3ac 89ea 1edc 7feb b424 37ba e7d5

model_1/block_1_expand/Conv2D i1 [48, 1, 1, 8]
9 -127 57 -56 21 -29 -59 21
70 57 -29 -108 16 -7 -75 127
36 11 -39 127 44 125 50 97
77 67 -78 127 -91 -9 -9 17
-42 -86 64 22 10 35 -33 -127
13 -1 -40 34 -4 -31 39 127
48 -20 -127 -101 127 20 50 -50
127 12 19 -23 29 -2 80 -60
9 -96 5 116 15 12 -13 -127
123 -124 7 3 -10 5 -127 98
-127 -50 -121 24 -2 17 -101 55
-31 -40 -6 -105 -127 -45 51 -15
15 1 -40 69 -77 -29 59 127
0 0 0 0 0 0 0 0
-8 -39 -13 11 39 127 39 43
39 8 14 -127 68 32 -50 76
0 0 0 0 0 0 0 0
16 26 127 20 -34 -10 26 35
94 -127 18 48 -2 18 -118 3
-127 -11 35 76 -43 -31 -85 72
30 32 -38 122 -16 -127 -13 68
63 18 127 12 -11 -9 68 13
-70 -21 -127 0 1 6 -92 4
-95 119 -24 -19 14 -7 127 -67
9 -65 -61 76 -15 -61 109 127
13 36 24 18 120 127 -78 -45
-86 -30 -127 -7 6 22 -92 -4
-5 -38 -52 3 -37 127 82 43
0 -15 -17 34 29 127 56 66
82 33 127 -5 -6 2 55 -12
-93 127 -36 -32 10 -15 111 -50
-34 -90 -19 3 28 -75 127 111
00000000: 0981 39c8 15e3 c515 4639 e394 10f9 b57f
00000010: 240b d97f 2c7d 3261 4d43 b27f a5f7 f711
00000020: d6aa 4016 0a23 df81 0dff d822 fce1 277f
00000030: 30ec 819b 7f14 32ce 7f0c 13e9 1dfe 50c4
00000040: 09a0 0574 0f0c f381 7b84 0703 f605 8162
00000050: 81ce 8718 fe11 9b37 e1d8 fa97 81d3 33f1
00000060: 0f01 d845 b3e3 3b7f 0000 0000 0000 0000
00000070: f8d9 f30b 277f 272b 2708 0e81 4420 ce4c
00000080: 0000 0000 0000 0000 101a 7f14 def6 1a23
00000090: 5e81 1230 fe12 8a03 81f5 234c d5e1 ab48
000000a0: 1e20 da7a f081 f344 3f12 7f0c f5f7 440d
000000b0: baeb 8100 0106 a404 a177 e8ed 0ef9 7fbd
000000c0: 09bf c34c f1c3 6d7f 0d24 1812 787f b2d3
000000d0: aae2 81f9 0616 a4fc fbda cc03 db7f 522b
000000e0: 00f1 ef22 1d7f 3842 5221 7ffb fa02 37f4
000000f0: a37f dce0 0af1 6fce dea6 ed03 1cb5 7f6f

model_1/expanded_conv_project/Conv2D i1 [8, 1, 1, 16]
0 -22 6 -3 125 0 3 1
0 -127 -92 -8 0 120 -4 0
0 -30 2 89 75 14 21 7
0 -2 127 -48 0 36 -6 0
0 0 0 -8 -59 4 13 2
1 5 -17 0 0 127 -8 0
0 -16 -21 -127 79 23 67 16
0 59 -1 37 0 -1 19 0
0 39 -28 33 -53 31 127 10
0 -64 11 -18 0 -9 28 0
0 -15 -16 0 -22 -23 -13 16
0 9 -4 -44 0 -6 127 0
0 20 -3 4 48 -22 -28 -8
0 -110 117 64 0 127 55 0
0 14 -13 127 11 -3 8 9
0 65 -58 77 0 -9 53 0
00000000: 00ea 06fd 7d00 0301 0081 a4f8 0078 fc00
00000010: 00e2 0259 4b0e 1507 00fe 7fd0 0024 fa00
00000020: 0000 00f8 c504 0d02 0105 ef00 007f f800
00000030: 00f0 eb81 4f17 4310 003b ff25 00ff 1300
00000040: 0027 e421 cb1f 7f0a 00c0 0bee 00f7 1c00
00000050: 00f1 f000 eae9 f310 0009 fcd4 00fa 7f00
00000060: 0014 fd04 30ea e4f8 0092 7540 007f 3700
00000070: 000e f37f 0bfd 0809 0041 c64d 00f7 3500

model_1/expanded_conv_depthwise_BN/FusedBatchNormV3;model_1/expanded_conv_depthwise/depthwise;model_1/block_5_project/Conv2D i1 [1, 3, 3, 16]
-108 18 -83 -126 39 -67 80 -76
-90 -3 -8 29 -127 5 54 -73
51 25 -127 127 127 -127 127 -127
-85 127 -127 51 -105 5 127 -25
24 -24 88 -2 -72 67 -93 77
-95 -28 4 -15 61 1 -101 -29
-127 127 -24 13 -44 15 -28 14
-28 0 3 -108 -49 8 -29 -14
-78 -42 -58 -15 -8 -26 8 -28
-108 -89 21 -11 -104 -127 1 23
14 1 63 2 3 34 -25 33
-127 6 -2 2 -21 12 -4 43
-115 -73 67 2 -6 39 -38 52
-76 0 0 4 40 2 -27 23
23 -4 30 -2 -27 40 -33 21
-125 -13 0 83 -58 0 -28 -111
21 -7 18 0 4 14 10 22
-115 4 -1 -127 107 3 17 -127
00000000: 9412 ad82 27bd 50b4 a6fd f81d 8105 36b7
00000010: 3319 817f 7f81 7f81 ab7f 8133 9705 7fe7
00000020: 18e8 58fe b843 a34d a1e4 04f1 3d01 9be3
00000030: 817f e80d d40f e40e e400 0394 cf08 e3f2
00000040: b2d6 c6f1 f8e6 08e4 94a7 15f5 9881 0117
00000050: 0e01 3f02 0322 e721 8106 fe02 eb0c fc2b
00000060: 8db7 4302 fa27 da34 b400 0004 2802 e517
00000070: 17fc 1efe e528 df15 83f3 0053 c600 e491
00000080: 15f9 1200 040e 0a16 8d04 ff81 6b03 1181

model_1/Conv1/Conv2D i1 [16, 3, 3, 3]
0 0 0 0 0 0 0 0
0 0 0 0 0 0 0 0
0 0 0 0 0 0 0 0
0 0 0 46 0 33 -5 -19
18 -127 -113 -61 1 -5 1 -22
3 -3 1 -29 9 -3 18 3
-3 9 2 42 -14 19 13 2
-11 54 116 -3 32 -19 6 1
22 -3 47 127 -27 12 10 -6
39 -53 13 57 -33 -24 21 -42
9 4 37 3 34 100 23 2
7 -3 15 39 5 61 127 24
-12 -19 4 7 7 7 25 27
11 -2 -5 4 36 69 -15 14
80 -13 -15 9 -4 38 84 35
29 123 23 30 56 -16 50 78
24 44 127 7 -17 35 16 8
2 -119 -3 1 -103 -5 28 -27
5 -42 -127 0 -44 -114 -1 13
-23 -2 9 -17 3 -1 -10 2
14 -10 23 -65 29 45 -88 35
8 -22 5 35 -97 57 62 -127
67 7 -29 14 22 -33 13 15
-42 25 -11 9 -1 -31 17 4
-108 -39 1 -24 23 2 -13 -8
1 -127 -93 -7 -6 -5 5 -23
30 -9 -13 11 0 -22 25 -3
122 127 110 121 127 108 120 124
106 119 121 104 115 119 102 118
120 102 117 120 104 116 120 103
117 119 102 -22 -3 2 -14 -5
-7 3 6 -15 97 112 -17 77
00000000: 0000 0000 0000 0000 0000 0000 0000 0000
00000010: 0000 0000 0000 0000 0000 002e 0021 fbed
00000020: 1281 8fc3 01fb 01ea 03fd 01e3 09fd 1203
00000030: fd09 022a f213 0d02 f536 74fd 20ed 0601
00000040: 16fd 2f7f e50c 0afa 27cb 0d39 dfe8 15d6
00000050: 0904 2503 2264 1702 07fd 0f27 053d 7f18
00000060: f4ed 0407 0707 191b 0bfe fb04 2445 f10e
00000070: 50f3 f109 fc26 5423 1d7b 171e 38f0 324e
00000080: 182c 7f07 ef23 1008 0289 fd01 99fb 1ce5
00000090: 05d6 8100 d48e ff0d e9fe 09ef 03ff f602
000000a0: 0ef6 17bf 1d2d a823 08ea 0523 9f39 3e81
000000b0: 4307 e30e 16df 0d0f d619 f509 ffe1 1104
000000c0: 94d9 01e8 1702 f3f8 0181 a3f9 fafb 05e9
000000d0: 1ef7 f30b 00ea 19fd 7a7f 6e79 7f6c 787c
000000e0: 6a77 7968 7377 6676 7866 7578 6874 7867
000000f0: 7577 66ea fd02 f2fb f903 06f1 6170 ef4d
