trained.tflite (tflite, 56672 bytes, 21 tensors)

model_1/logits/Conv2D i1 [4, 1, 1, 32]
25 -27 -57 -24 127 -32 -1 -54
90 -11 65 69 -81 -31 -1 -9
-8 -40 -109 47 -7 41 -73 95
-8 9 -22 26 63 -40 32 -2
62 74 -84 -12 -72 38 123 45
-50 -85 -94 32 94 -61 88 -127
122 -103 9 -95 5 -89 -94 -27
-17 -98 66 -56 -60 -105 -19 -35
-37 101 24 84 -68 -10 96 40
-90 -111 83 -69 -95 84 -127 70
51 83 86 -81 -17 18 -70 -52
24 -44 86 -93 -69 12 77 65
67 -60 67 -1 -19 96 31 -9
-4 -94 31 80 68 -6 -127 -16
94 -82 96 -4 -101 4 0 -44
90 -22 -84 77 -84 97 35 53
00000000: 19e5 c7e8 7fe0 ffca 5af5 4145 afe1 fff7
00000010: f8d8 932f f929 b75f f809 ea1a 3fd8 20fe
00000020: 3e4a acf4 b826 7b2d ceab a220 5ec3 5881
00000030: 7a99 09a1 05a7 a2e5 ef9e 42c8 c497 eddd
00000040: db65 1854 bcf6 6028 a691 53bb a154 8146
00000050: 3353 56af ef12 bacc 18d4 56a3 bb0c 4d41
00000060: 43c4 43ff ed60 1ff7 fca2 1f50 44fa 81f0
00000070: 5eae 60fc 9b04 00d4 5aea ac4d ac61 2335

model_1/head/Conv2D i1 [32, 1, 1, 96]
-40 -45 99 1 96 -16 -84 -103
44 -97 -106 0 53 -4 -37 55
-50 -28 -58 -47 -72 -101 4 107
-106 5 75 -49 118 -10 -29 -65
77 -80 -92 62 -103 -80 -94 30
76 -81 -94 99 52 -109 105 -11
8 -40 -57 94 -67 -66 -81 91
14 65 127 -105 -95 94 -45 42
0 17 70 80 61 96 88 -111
104 -93 54 81 -94 15 -58 3
55 14 77 -9 -59 -42 -83 103
25 112 9 -85 -6 65 11 22
-74 25 -76 -20 -49 62 31 -8
76 -107 -112 110 48 -31 20 56
99 -43 21 127 -52 -14 25 19
33 19 -40 103 5 -12 95 -64
55 87 -12 19 43 58 -28 -73
-67 2 -30 -104 -35 35 -33 -61
-31 -94 109 56 -8 67 -72 -43
2 77 56 62 -55 109 -73 -82
-71 30 67 27 88 19 0 -3
-116 96 -64 39 74 -59 -48 56
-84 82 -55 -121 24 109 -80 -71
73 81 81 23 72 68 31 -15
49 36 -77 96 -22 -81 74 86
-94 76 -45 97 91 -9 67 -127
-61 -30 33 33 -89 -25 104 12
-34 84 91 0 -75 73 76 92
-77 -17 -100 -106 -94 90 90 -39
-118 -78 9 -12 -98 112 -30 -90
91 37 94 -92 -44 69 3 22
-68 107 -81 12 -9 55 -39 62
00000000: d8d3 6301 60f0 ac99 2c9f 9600 35fc db37
00000010: cee4 c6d1 b89b 046b 9605 4bcf 76f6 e3bf
00000020: 4db0 a43e 99b0 a21e 4caf a263 3493 69f5
00000030: 08d8 c75e bdbe af5b 0e41 7f97 a15e d32a
00000040: 0011 4650 3d60 5891 68a3 3651 a20f c603
00000050: 370e 4df7 c5d6 ad67 1970 09ab fa41 0b16
00000060: b619 b4ec cf3e 1ff8 4c95 906e 30e1 1438
00000070: 63d5 157f ccf2 1913 2113 d867 05f4 5fc0
00000080: 3757 f413 2b3a e4b7 bd02 e298 dd23 dfc3
00000090: e1a2 6d38 f843 b8d5 024d 383e c96d b7ae
000000a0: b91e 431b 5813 00fd 8c60 c027 4ac5 d038
000000b0: ac52 c987 186d b0b9 4951 5117 4844 1ff1
000000c0: 3124 b360 eaaf 4a56 a24c d361 5bf7 4381
000000d0: c3e2 2121 a7e7 680c de54 5b00 b549 4c5c
000000e0: b3ef 9c96 a25a 5ad9 8ab2 09f4 9e70 e2a6
000000f0: 5b25 5ea4 d445 0316 bc6b af0c f737 d93e

model_1/block_6_expand/Conv2D i1 [96, 1, 1, 16]
-14 85 -5 -127 -57 -42 -12 -59
-10 9 -7 80 30 -64 -11 59
-57 9 -59 -14 -62 -54 33 -101
88 77 -67 26 -18 13 72 -127
13 13 -56 32 79 11 -75 -101
127 -50 -11 -8 -9 93 -97 57
44 -66 20 -81 24 -6 -21 6
127 -5 69 60 6 54 6 75
-71 55 16 48 -15 -41 10 37
25 -3 20 -29 -127 -17 -6 41
14 88 112 5 38 77 -87 82
-75 70 -25 -38 49 -63 -127 4
41 -61 126 -127 42 -8 -45 95
-73 -121 61 -43 17 107 -52 84
34 105 -29 -80 94 3 8 -52
127 118 -27 12 22 -29 71 77
19 -96 21 -83 31 -58 12 -73
29 58 67 -16 28 127 68 72
12 -36 6 127 30 -14 37 -47
-63 114 20 -20 -8 -56 -3 -8
-15 35 -51 -127 13 14 -17 37
47 -33 29 -10 -9 -44 -17 1
-5 22 15 -31 91 -28 95 -67
-88 43 9 37 3 127 -79 -38
109 -11 -116 22 43 -108 26 22
-2 49 -127 -67 -21 125 -23 18
-6 0 -25 15 8 -127 -7 15
-5 -16 3 -6 11 -9 10 12
26 -24 80 -40 77 6 -127 -105
-40 -49 29 10 -6 -66 -15 -37
-99 41 -20 -45 11 23 127 56
-44 43 101 2 11 90 55 -24
00000000: f255 fb81 c7d6 f4c5 f609 f950 1ec0 f53b
00000010: c709 c5f2 c2ca 219b 584d bd1a ee0d 4881
00000020: 0d0d c820 4f0b b59b 7fce f5f8 f75d 9f39
00000030: 2cbe 14af 18fa eb06 7ffb 453c 0636 064b
00000040: b937 1030 f1d7 0a25 19fd 14e3 81ef fa29
00000050: 0e58 7005 264d a952 b546 e7da 31c1 8104
00000060: 29c3 7e81 2af8 d35f b787 3dd5 116b cc54
00000070: 2269 e3b0 5e03 08cc 7f76 e50c 16e3 474d
00000080: 13a0 15ad 1fc6 0cb7 1d3a 43f0 1c7f 4448
00000090: 0cdc 067f 1ef2 25d1 c172 14ec f8c8 fdf8
000000a0: f123 cd81 0d0e ef25 2fdf 1df6 f7d4 ef01
000000b0: fb16 0fe1 5be4 5fbd a82b 0925 037f b1da
000000c0: 6df5 8c16 2b94 1a16 fe31 81bd eb7d e912
000000d0: fa00 e70f 0881 f90f fbf0 03fa 0bf7 0a0c
000000e0: 1ae8 50d8 4d06 8197 d8cf 1d0a fabe f1db
000000f0: 9d29 ecd3 0b17 7f38 d42b 6502 0b5a 37e8

model_1/block_5_project/Conv2D i1 [16, 1, 1, 96]
-14 -18 10 -33 14 -1 -50 4
15 0 -13 -3 -3 -21 -30 22
-3 -4 -1 -6 12 -39 12 2
-5 13 -8 127 44 -44 44 4
5 17 6 -3 -4 16 -50 -8
-34 12 -5 27 14 4 12 -1
23 2 -10 3 19 -17 -8 75
2 9 -17 -32 -6 14 3 -34
-49 -73 -27 46 -6 11 11 -8
-14 -32 -5 -26 -13 11 -5 3
-5 -43 27 23 7 -8 -19 -101
-5 -20 9 -9 53 -45 -34 -10
45 -83 -87 -56 127 -3 72 33
-7 -105 -69 -26 -11 -17 -68 18
-70 -5 60 47 22 34 -5 -90
18 -1 -3 -73 33 -32 -67 54
-14 57 15 9 24 5 -8 26
-26 53 -43 -13 -36 93 20 -4
23 -73 13 -55 -21 52 58 24
-69 -21 -35 -40 16 -33 -16 -60
-111 119 -39 -44 -10 -70 -23 25
49 -113 -39 -5 42 -70 61 17
17 -47 35 -1 -53 61 -25 36
26 -42 2 -9 38 1 47 116
-16 69 -90 -4 74 85 54 60
-6 -106 2 -1 -10 12 48 9
6 -4 -56 92 22 9 68 37
62 21 15 -36 6 7 47 -72
21 18 -31 36 -127 -67 52 17
37 -48 9 -10 28 -15 15 75
-22 13 -23 8 79 -5 -13 75
24 21 18 2 25 33 21 -13
00000000: f2ee 0adf 0eff ce04 0f00 f3fd fdeb e216
00000010: fdfc fffa 0cd9 0c02 fb0d f87f 2cd4 2c04
00000020: 0511 06fd fc10 cef8 de0c fb1b 0e04 0cff
00000030: 1702 f603 13ef f84b 0209 efe0 fa0e 03de
00000040: cfb7 e52e fa0b 0bf8 f2e0 fbe6 f30b fb03
00000050: fbd5 1b17 07f8 ed9b fbec 09f7 35d3 def6
00000060: 2dad a9c8 7ffd 4821 f997 bbe6 f5ef bc12
00000070: bafb 3c2f 1622 fba6 12ff fdb7 21e0 bd36
00000080: f239 0f09 1805 f81a e635 d5f3 dc5d 14fc
00000090: 17b7 0dc9 eb34 3a18 bbeb ddd8 10df f0c4
000000a0: 9177 d9d4 f6ba e919 318f d9fb 2aba 3d11
000000b0: 11d1 23ff cb3d e724 1ad6 02f7 2601 2f74
000000c0: f045 a6fc 4a55 363c fa96 02ff f60c 3009
000000d0: 06fc c85c 1609 4425 3e15 0fdc 0607 2fb8
000000e0: 1512 e124 81bd 3411 25d0 09f6 1cf1 0f4b
000000f0: ea0d e908 4ffb f34b 1815 1202 1921 15f3

model_1/block_5_depthwise_BN/FusedBatchNormV3;model_1/block_5_depthwise/depthwise;model_1/block_6_expand/Conv2D i1 [1, 3, 3, 96]
-46 -72 -11 127 22 72 84 -55
-14 -17 -15 -6 -29 1 36 4
-8 -44 27 23 21 -127 127 7
-79 3 49 -27 -124 -127 39 22
12 27 60 -18 -29 -12 29 -6
-15 27 -108 68 25 -64 38 46
-19 52 -25 18 7 -6 18 48
-92 -48 -60 -18 -9 0 10 37
67 -23 74 13 -7 17 19 127
24 22 24 -2 -11 17 127 -5
-13 12 -29 21 124 23 -73 -16
-1 -33 -16 -39 2 -25 -17 26
127 -127 72 106 -44 127 44 -113
69 5 -18 127 127 -93 -14 15
11 127 127 -112 127 -78 82 69
-127 -121 -69 -33 -54 45 -58 -23
-90 55 -127 -85 -42 -17 -50 65
-1 127 127 75 -50 -109 -111 -49
-15 -127 43 83 73 -31 48 81
-48 42 -81 -115 -42 -42 -62 68
73 -58 27 32 -79 35 -18 90
120 127 13 20 1 57 -34 51
67 127 127 -23 -8 74 -103 127
-120 -101 4 -127 -89 -127 -40 106
-75 -12 26 -84 14 -23 71 -5
81 -35 -29 19 -17 -5 -9 -15
-8 -18 7 -4 -21 -112 30 -1
-121 97 5 -53 117 49 -15 5
0 17 14 -30 -8 31 20 16
25 12 -120 61 19 -17 36 15
-15 10 -17 4 -3 2 0 19
-66 7 -32 52 3 41 35 -2
00000000: d2b8 f57f 1648 54c9 f2ef f1fa e301 2404
00000010: f8d4 1b17 1581 7f07 b103 31e5 8481 2716
00000020: 0c1b 3cee e3f4 1dfa f11b 9444 19c0 262e
00000030: ed34 e712 07fa 1230 a4d0 c4ee f700 0a25
00000040: 43e9 4a0d f911 137f 1816 18fe f511 7ffb
00000050: f30c e315 7c17 b7f0 ffdf f0d9 02e7 ef1a
00000060: 7f81 486a d47f 2c8f 4505 ee7f 7fa3 f20f
00000070: 0b7f 7f90 7fb2 5245 8187 bbdf ca2d c6e9
00000080: a637 81ab d6ef ce41 ff7f 7f4b ce93 91cf
00000090: f181 2b53 49e1 3051 d02a af8d d6d6 c244
000000a0: 49c6 1b20 b123 ee5a 787f 0d14 0139 de33
000000b0: 437f 7fe9 f84a 997f 889b 0481 a781 d86a
000000c0: b5f4 1aac 0ee9 47fb 51dd e313 effb f7f1
000000d0: f8ee 07fc eb90 1eff 8761 05cb 7531 f105
000000e0: 0011 0ee2 f81f 1410 190c 883d 13ef 240f
000000f0: f10a ef04 fd02 0013 be07 e034 0329 23fe

model_1/block_5_expand/Conv2D i1 [96, 1, 1, 16]
8 93 -55 57 34 40 38 -22
44 37 -53 102 38 -123 41 -127
19 51 -1 -16 -2 -33 123 -127
-8 79 -20 -32 12 -48 40 26
-125 50 -28 -17 7 20 26 74
-26 14 127 -14 -76 13 49 -57
-33 23 28 75 -14 55 50 110
-2 66 -127 2 58 -78 -93 -71
5 -9 53 79 -50 75 9 43
27 -12 -5 0 37 -21 -127 -14
-12 -35 68 -13 8 -35 9 39
-87 127 -36 -109 -32 9 -58 -43
-17 3 51 -25 59 88 -66 -58
-17 4 80 -21 127 -8 -13 -43
22 -5 127 -7 -29 -52 9 -23
-77 43 -64 -35 -20 -20 51 -6
9 42 77 46 -86 58 24 35
67 20 11 -98 -68 -2 -127 -81
16 -127 102 53 14 -24 -10 10
110 -16 91 9 -36 12 -118 -36
-42 -74 10 -17 -58 13 -36 44
80 127 34 -30 -42 61 53 -9
33 -37 46 -95 23 -15 -103 -127
-63 52 -17 -16 37 -24 25 -61
25 15 -5 -64 -49 -42 -114 -30
-89 -82 -53 -18 31 127 81 43
-57 -93 -71 59 -2 -64 14 -14
51 23 7 12 35 37 127 28
-2 -52 51 17 39 25 16 126
7 75 19 -40 3 46 -55 127
38 -24 -19 43 17 -7 94 -5
-9 -127 6 -48 7 -25 -7 -37
00000000: 085d c939 2228 26ea 2c25 cb66 2685 2981
00000010: 1333 fff0 fedf 7b81 f84f ece0 0cd0 281a
00000020: 8332 e4ef 0714 1a4a e60e 7ff2 b40d 31c7
00000030: df17 1c4b f237 326e fe42 8102 3ab2 a3b9
00000040: 05f7 354f ce4b 092b 1bf4 fb00 25eb 81f2
00000050: f4dd 44f3 08dd 0927 a97f dc93 e009 c6d5
00000060: ef03 33e7 3b58 bec6 ef04 50eb 7ff8 f3d5
00000070: 16fb 7ff9 e3cc 09e9 b32b c0dd ecec 33fa
00000080: 092a 4d2e aa3a 1823 4314 0b9e bcfe 81af
00000090: 1081 6635 0ee8 f60a 6ef0 5b09 dc0c 8adc
000000a0: d6b6 0aef c60d dc2c 507f 22e2 d63d 35f7
000000b0: 21db 2ea1 17f1 9981 c134 eff0 25e8 19c3
000000c0: 190f fbc0 cfd6 8ee2 a7ae cbee 1f7f 512b
000000d0: c7a3 b93b fec0 0ef2 3317 070c 2325 7f1c
000000e0: fecc 3311 2719 107e 074b 13d8 032e c97f
000000f0: 26e8 ed2b 11f9 5efb f781 06d0 07e7 f9db

model_1/block_4_project/Conv2D i1 [16, 1, 1, 96]
-3 19 -16 24 48 66 -39 -29
54 2 7 14 -19 9 23 65
10 -5 0 -6 99 -50 6 -25
-27 -45 -41 -103 0 2 51 40
113 -19 -8 4 0 -13 -31 -1
-39 4 16 -26 4 -14 -18 23
-14 20 -9 -7 -29 -14 -3 -18
43 28 -19 -27 -56 30 -12 7
8 12 53 3 -6 -4 -9 -14
-64 -5 -2 -7 -8 -84 12 -29
32 -13 -55 -41 21 -13 -3 21
-11 -1 13 -23 20 24 -9 127
62 -89 26 83 4 -65 -15 -39
-15 -78 -21 19 8 -52 -30 -62
-91 -18 22 31 -31 -113 -26 45
127 -55 -62 26 -30 88 -4 45
5 14 -52 11 -22 6 52 -36
3 -81 91 -26 -57 5 65 2
23 33 -26 -61 65 -70 58 -18
23 31 -20 -91 25 -54 19 -31
-3 -65 39 34 11 47 -50 -12
-95 40 -12 81 39 88 27 -34
54 20 -81 37 -95 75 1 53
-26 17 23 0 14 -48 43 5
20 16 15 -33 4 -16 -6 29
49 3 21 58 9 1 37 -3
-35 -23 5 -11 -24 -72 18 -60
-9 -12 -33 45 -8 26 113 -48
6 -54 -24 63 25 127 -34 -18
1 -11 2 35 -38 -63 -61 20
43 25 -22 -23 26 13 -16 -21
-30 8 -10 35 2 -3 66 85
00000000: fd13 f018 3042 d9e3 3602 070e ed09 1741
00000010: 0afb 00fa 63ce 06e7 e5d3 d799 0002 3328
00000020: 71ed f804 00f3 e1ff d904 10e6 04f2 ee17
00000030: f214 f7f9 e3f2 fdee 2b1c ede5 c81e f407
00000040: 080c 3503 fafc f7f2 c0fb fef9 f8ac 0ce3
00000050: 20f3 c9d7 15f3 fd15 f5ff 0de9 1418 f77f
00000060: 3ea7 1a53 04bf f1d9 f1b2 eb13 08cc e2c2
00000070: a5ee 161f e18f e62d 7fc9 c21a e258 fc2d
00000080: 050e cc0b ea06 34dc 03af 5be6 c705 4102
00000090: 1721 e6c3 41ba 3aee 171f eca5 19ca 13e1
000000a0: fdbf 2722 0b2f cef4 a128 f451 2758 1bde
000000b0: 3614 af25 a14b 0135 e611 1700 0ed0 2b05
000000c0: 1410 0fdf 04f0 fa1d 3103 153a 0901 25fd
000000d0: dde9 05f5 e8b8 12c4 f7f4 df2d f81a 71d0
000000e0: 06ca e83f 197f deee 01f5 0223 dac1 c314
000000f0: 2b19 eae9 1a0d f0eb e208 f623 02fd 4255

model_1/block_4_depthwise_BN/FusedBatchNormV3;model_1/block_4_depthwise/depthwise;model_1/block_6_expand/Conv2D i1 [1, 3, 3, 96]
-17 4 -20 105 -18 24 -63 -54
17 -5 99 -9 5 -9 -4 55
4 15 -37 1 77 0 33 -33
2 16 42 47 21 12 24 49
-9 27 12 -15 5 49 -61 -27
21 9 26 18 -84 -58 24 -5
-10 -17 -9 -8 48 6 -11 1
-2 -35 26 -31 27 -3 127 27
-13 -11 10 -51 65 35 -1 -9
76 -33 66 7 15 -127 29 65
2 14 127 -15 37 30 -29 -20
34 -6 -14 79 3 20 -2 12
-48 12 -8 11 53 -7 -11 -127
37 15 -127 -5 -17 -12 5 96
18 -32 -19 -18 76 -97 127 27
-61 -32 -106 -16 27 32 -48 19
112 11 -12 0 -24 127 -63 -127
9 -19 -29 14 48 -127 127 -44
-75 52 48 6 39 -65 30 56
36 41 -102 82 127 35 3 -20
42 -38 -94 -1 38 -29 -17 45
-48 -50 103 -2 -32 -60 -34 63
-64 61 -17 8 -8 48 54 -42
-27 52 -12 71 -127 -31 23 -127
0 -6 -23 -75 9 21 37 20
-4 0 5 63 0 -12 -10 10
-13 16 -22 15 9 24 25 -32
0 -32 10 12 -6 5 47 -77
41 16 10 -23 12 6 -30 -22
8 4 -16 8 24 -33 20 1
8 -3 4 -6 5 5 -6 7
-7 43 5 -4 13 -16 2 -17
00000000: ef04 ec69 ee18 c1ca 11fb 63f7 05f7 fc37
00000010: 040f db01 4d00 21df 0210 2a2f 150c 1831
00000020: f71b 0cf1 0531 c3e5 1509 1a12 acc6 18fb
00000030: f6ef f7f8 3006 f501 fedd 1ae1 1bfd 7f1b
00000040: f3f5 0acd 4123 fff7 4cdf 4207 0f81 1d41
00000050: 020e 7ff1 251e e3ec 22fa f24f 0314 fe0c
00000060: d00c f80b 35f9 f581 250f 81fb eff4 0560
00000070: 12e0 edee 4c9f 7f1b c3e0 96f0 1b20 d013
00000080: 700b f400 e87f c181 09ed e30e 3081 7fd4
00000090: b534 3006 27bf 1e38 2429 9a52 7f23 03ec
000000a0: 2ada a2ff 26e3 ef2d d0ce 67fe e0c4 de3f
000000b0: c03d ef08 f830 36d6 e534 f447 81e1 1781
000000c0: 00fa e9b5 0915 2514 fc00 053f 00f4 f60a
000000d0: f310 ea0f 0918 19e0 00e0 0a0c fa05 2fb3
000000e0: 2910 0ae9 0c06 e2ea 0804 f008 18df 1401
000000f0: 08fd 04fa 0505 fa07 f92b 05fc 0df0 02ef

model_1/block_4_expand/Conv2D i1 [96, 1, 1, 16]
36 -18 127 102 57 -24 29 -31
88 -32 -68 -57 24 75 -39 -60
43 127 -27 -1 113 -13 -8 -11
70 60 -29 89 5 -17 79 -95
6 -46 -13 3 -56 28 -43 71
-59 -71 21 69 -14 -127 81 -77
103 116 4 25 -127 -24 -60 -36
0 -1 112 -76 -56 75 -35 -25
14 7 11 14 -28 27 -10 17
-62 -20 -23 -4 6 -127 32 -1
77 -41 1 -9 -13 -81 -25 0
1 4 -127 -3 15 -4 1 31
-91 -89 -23 127 -44 24 -56 49
-123 -95 -107 -28 75 84 -5 102
-29 28 -75 45 14 -127 -6 57
15 -16 31 -8 5 1 -31 21
6 -42 -5 -10 17 40 -53 -51
-2 14 -54 12 -127 7 -7 13
29 -37 55 123 -8 30 1 -98
127 -101 -1 -11 -7 47 -60 36
-94 -91 46 -14 88 69 10 45
127 -77 -40 21 55 -61 -64 36
42 -5 -127 9 58 23 -32 31
-11 -32 -12 -21 2 33 -53 3
127 -54 2 -1 -1 -88 -49 -32
51 16 -92 -27 -65 -43 36 44
16 -63 19 -52 55 20 -96 -127
15 -55 9 0 16 -14 25 7
-68 50 -78 -45 85 -127 69 -72
55 48 -16 -114 36 110 -6 3
42 -17 76 47 65 -45 -44 -2
19 -93 -79 -5 -127 -21 -35 66
00000000: 24ee 7f66 39e8 1de1 58e0 bcc7 184b d9c4
00000010: 2b7f e5ff 71f3 f8f5 463c e359 05ef 4fa1
00000020: 06d2 f303 c81c d547 c5b9 1545 f281 51b3
00000030: 6774 0419 81e8 c4dc 00ff 70b4 c84b dde7
00000040: 0e07 0b0e e41b f611 c2ec e9fc 0681 20ff
00000050: 4dd7 01f7 f3af e700 0104 81fd 0ffc 011f
00000060: a5a7 e97f d418 c831 85a1 95e4 4b54 fb66
00000070: e31c b52d 0e81 fa39 0ff0 1ff8 0501 e115
00000080: 06d6 fbf6 1128 cbcd fe0e ca0c 8107 f90d
00000090: 1ddb 377b f81e 019e 7f9b fff5 f92f c424
000000a0: a2a5 2ef2 5845 0a2d 7fb3 d815 37c3 c024
000000b0: 2afb 8109 3a17 e01f f5e0 f4eb 0221 cb03
000000c0: 7fca 02ff ffa8 cfe0 3310 a4e5 bfd5 242c
000000d0: 10c1 13cc 3714 a081 0fc9 0900 10f2 1907
000000e0: bc32 b2d3 5581 45b8 3730 f08e 246e fa03
000000f0: 2aef 4c2f 41d3 d4fe 13a3 b1fb 81eb dd42

model_1/block_3_project/Conv2D i1 [16, 1, 1, 48]
-11 0 -13 10 23 -7 2 92
-55 16 33 -12 19 -12 -12 16
21 -17 -8 -4 56 -7 21 125
-18 80 2 -16 26 -14 24 -30
-15 53 20 -46 12 53 12 -13
-101 -31 24 49 44 28 -127 -47
-32 -14 28 17 -29 8 -3 56
-47 -38 5 -42 -18 -23 -7 2
-21 125 -7 21 11 8 -24 -12
20 -47 9 20 -25 -89 -39 18
-16 -3 32 3 -5 -44 -2 14
-15 -30 127 15 6 4 22 -15
-24 -9 -12 -34 -2 -62 4 -20
2 8 10 24 15 10 -13 5
-6 -17 -19 -11 -2 1 -2 -127
-9 74 -14 4 1 -21 -4 -3
-5 51 12 3 23 8 27 3
-41 7 -20 -8 -2 -12 17 6
-7 39 5 -30 -3 -2 3 -1
-16 -4 -1 39 -127 7 -2 -5
-2 2 -16 -2 -31 7 6 17
-6 -11 2 24 -14 12 0 15
2 1 16 20 -10 26 43 7
9 9 19 -27 8 -11 0 16
39 -32 6 19 24 32 23 -24
-31 5 -20 -21 4 9 6 17
22 -9 -79 8 0 11 18 81
2 -36 11 54 9 -83 10 -2
21 -43 34 -127 12 36 -3 22
-14 24 6 -17 -8 -25 4 -1
32 0 -24 62 3 -13 7 29
2 -9 35 9 4 49 8 6
00000000: f500 f30a 17f9 025c c910 21f4 13f4 f410
00000010: 15ef f8fc 38f9 157d ee50 02f0 1af2 18e2
00000020: f135 14d2 0c35 0cf3 9be1 1831 2c1c 81d1
00000030: e0f2 1c11 e308 fd38 d1da 05d6 eee9 f902
00000040: eb7d f915 0b08 e8f4 14d1 0914 e7a7 d912
00000050: f0fd 2003 fbd4 fe0e f1e2 7f0f 0604 16f1
00000060: e8f7 f4de fec2 04ec 0208 0a18 0f0a f305
00000070: faef edf5 fe01 fe81 f74a f204 01eb fcfd
00000080: fb33 0c03 1708 1b03 d707 ecf8 fef4 1106
00000090: f927 05e2 fdfe 03ff f0fc ff27 8107 fefb
000000a0: fe02 f0fe e107 0611 faf5 0218 f20c 000f
000000b0: 0201 1014 f61a 2b07 0909 13e5 08f5 0010
000000c0: 27e0 0613 1820 17e8 e105 eceb 0409 0611
000000d0: 16f7 b108 000b 1251 02dc 0b36 09ad 0afe
000000e0: 15d5 2281 0c24 fd16 f218 06ef f8e7 04ff
000000f0: 2000 e83e 03f3 071d 02f7 2309 0431 0806

model_1/block_3_depthwise_BN/FusedBatchNormV3;model_1/block_3_depthwise/depthwise i1 [1, 3, 3, 48]
71 -93 98 72 54 -35 105 -64
58 -90 -81 49 51 -44 -71 -90
101 79 49 77 66 -76 -82 52
-32 -39 -64 -63 -69 63 -65 -113
-13 42 68 63 -63 56 -50 -21
50 -75 58 61 -93 10 75 -35
83 -97 127 85 -76 -68 -57 -85
93 -105 -62 75 79 -107 -95 90
-40 95 83 127 84 -117 54 72
-52 -76 -69 -79 55 80 -32 -127
-88 79 82 83 -82 85 -83 -16
74 -96 84 88 -73 -127 93 -104
35 -48 70 37 19 -42 -48 -39
41 -32 6 34 29 -77 -56 -2
-53 36 35 71 34 -55 33 26
-29 -45 -45 -23 30 32 88 -88
-88 46 37 34 -30 40 -37 -9
39 -41 34 42 -5 -9 36 -76
93 -113 -42 93 56 -83 127 -89
87 -111 -69 82 83 -109 -13 -127
127 110 74 -38 83 107 -127 72
74 -76 -93 -97 -127 87 -71 -9
-87 72 106 96 -85 80 -82 91
84 -102 86 92 -86 106 93 -90
127 -127 -67 127 -127 -127 -89 -127
127 -127 -127 127 127 -127 -22 96
-65 127 127 -52 127 127 69 127
127 -127 -127 -127 54 127 -30 16
-127 127 127 127 -127 127 -127 127
127 -127 127 127 -127 -12 127 -127
64 -80 -34 67 37 -62 -49 -62
55 -43 -58 57 49 -54 -17 9
00000000: 47a3 6248 36dd 69c0 3aa6 af31 33d4 b9a6
00000010: 654f 314d 42b4 ae34 e0d9 c0c1 bb3f bf8f
00000020: f32a 443f c138 ceeb 32b5 3a3d a30a 4bdd
00000030: 539f 7f55 b4bc c7ab 5d97 c24b 4f95 a15a
00000040: d85f 537f 548b 3648 ccb4 bbb1 3750 e081
00000050: a84f 5253 ae55 adf0 4aa0 5458 b781 5d98
00000060: 23d0 4625 13d6 d0d9 29e0 0622 1db3 c8fe
00000070: cb24 2347 22c9 211a e3d3 d3e9 1e20 58a8
00000080: a82e 2522 e228 dbf7 27d7 222a fbf7 24b4
00000090: 5d8f d65d 38ad 7fa7 5791 bb52 5393 f381
000000a0: 7f6e 4ada 536b 8148 4ab4 a39f 8157 b9f7
000000b0: a948 6a60 ab50 ae5b 549a 565c aa6a 5da6
000000c0: 7f81 bd7f 8181 a781 7f81 817f 7f81 ea60
000000d0: bf7f 7fcc 7f7f 457f 7f81 8181 367f e210
000000e0: 817f 7f7f 817f 817f 7f81 7f7f 81f4 7f81
000000f0: 40b0 de43 25c2 cfc2 37d5 c639 31ca ef09

model_1/block_3_expand/Conv2D i1 [48, 1, 1, 8]
-127 4 2 61 -38 37 20 -36
29 64 34 20 16 -37 84 127
-33 10 8 4 -127 -20 15 -2
86 -5 -16 -113 -127 23 36 -15
-127 47 -12 -15 68 -22 44 25
-100 -20 24 -1 -127 -6 -1 91
-12 -127 22 -12 4 0 -10 34
-69 -3 1 99 127 -36 -41 5
83 8 -8 -127 2 -38 -65 -38
-33 -127 -12 -12 -2 105 -39 99
-89 -19 7 28 -127 85 65 -24
114 9 34 15 -57 -45 -37 -127
-1 14 40 -6 13 -82 127 65
61 -29 -1 -21 123 127 102 -63
127 88 -6 16 -77 -43 -31 -31
-11 -127 18 -8 -6 -2 -3 34
-60 -17 0 2 -127 3 16 8
-21 87 -94 8 24 -127 86 -80
127 -32 -45 16 -70 27 3 114
127 -43 -13 -16 43 0 31 -1
127 16 -18 117 -10 30 5 -51
5 46 -63 -4 -28 94 -127 -103
-127 23 30 -8 -36 7 -63 -42
-49 -57 5 19 -127 77 86 -22
127 -2 1 -7 -67 -14 -2 -1
27 -16 -5 -26 127 66 59 -43
6 -115 7 -44 7 -127 89 -62
-15 -127 27 -14 -6 -60 33 -8
-66 33 -16 36 -20 -20 127 53
-8 43 15 10 -3 37 -108 -127
127 -22 9 26 -68 12 -30 -31
-3 -27 61 -12 5 -107 127 65
00000000: 8104 023d da25 14dc 1d40 2214 10db 547f
00000010: df0a 0804 81ec 0ffe 56fb f08f 8117 24f1
00000020: 812f f4f1 44ea 2c19 9cec 18ff 81fa ff5b
00000030: f481 16f4 0400 f622 bbfd 0163 7fdc d705
00000040: 5308 f881 02da bfda df81 f4f4 fe69 d963
00000050: a7ed 071c 8155 41e8 7209 220f c7d3 db81
00000060: ff0e 28fa 0dae 7f41 3de3 ffeb 7b7f 66c1
00000070: 7f58 fa10 b3d5 e1e1 f581 12f8 fafe fd22
00000080: c4ef 0002 8103 1008 eb57 a208 1881 56b0
00000090: 7fe0 d310 ba1b 0372 7fd5 f3f0 2b00 1fff
000000a0: 7f10 ee75 f61e 05cd 052e c1fc e45e 8199
000000b0: 8117 1ef8 dc07 c1d6 cfc7 0513 814d 56ea
000000c0: 7ffe 01f9 bdf2 feff 1bf0 fbe6 7f42 3bd5
000000d0: 068d 07d4 0781 59c2 f181 1bf2 fac4 21f8
000000e0: be21 f024 ecec 7f35 f82b 0f0a fd25 9481
000000f0: 7fea 091a bc0c e2e1 fde5 3df4 0595 7f41

model_1/block_2_project/Conv2D i1 [8, 1, 1, 48]
-51 -18 -37 17 3 -20 1 -9
-98 127 -30 103 114 -3 58 -11
-5 -37 10 0 -10 -20 -17 -33
14 -72 9 52 0 -3 14 -32
1 -77 110 24 -8 3 -2 -9
95 -9 24 -18 -21 26 -5 -5
2 29 127 12 -1 -24 5 -97
20 8 28 4 -22 7 -8 -123
13 -69 10 3 -34 31 26 -40
-17 2 8 0 13 -2 7 -5
-5 3 21 10 -18 -40 64 -63
17 35 -20 35 -22 -1 33 0
5 -53 18 -46 30 25 -7 -30
8 0 -9 18 -4 58 13 -1
-37 127 -27 -40 -19 18 -41 -7
122 1 1 -8 -26 -11 5 -44
-2 -17 3 16 -6 -1 -14 11
13 -21 -10 -8 -2 31 -27 -38
6 -86 -3 5 5 -9 -6 -4
-4 -19 14 15 13 -12 48 1
-10 -22 6 18 -6 13 -25 3
7 58 1 14 -9 8 127 -3
9 8 -8 2 -20 -17 -9 14
-17 4 -12 30 -13 5 2 31
-115 6 -3 -1 -3 -37 0 8
49 -35 15 -23 -35 -3 -12 -4
1 3 0 24 14 -33 15 4
-9 52 3 104 6 0 -9 -26
-4 -127 -26 8 0 3 -3 4
-53 -6 -20 19 -59 0 8 11
-19 33 23 11 -47 14 -1 48
13 -2 9 7 -8 -46 12 32
00000000: cdee db11 03ec 01f7 9e7f e267 72fd 3af5
00000010: fbdb 0a00 f6ec efdf 0eb8 0934 00fd 0ee0
00000020: 01b3 6e18 f803 fef7 5ff7 18ee eb1a fbfb
00000030: 021d 7f0c ffe8 059f 1408 1c04 ea07 f885
00000040: 0dbb 0a03 de1f 1ad8 ef02 0800 0dfe 07fb
00000050: fb03 150a eed8 40c1 1123 ec23 eaff 2100
00000060: 05cb 12d2 1e19 f9e2 0800 f712 fc3a 0dff
00000070: db7f e5d8 ed12 d7f9 7a01 01f8 e6f5 05d4
00000080: feef 0310 faff f20b 0deb f6f8 fe1f e5da
00000090: 06aa fd05 05f7 fafc fced 0e0f 0df4 3001
000000a0: f6ea 0612 fa0d e703 073a 010e f708 7ffd
000000b0: 0908 f802 ecef f70e ef04 f41e f305 021f
000000c0: 8d06 fdff fddb 0008 31dd 0fe9 ddfd f4fc
000000d0: 0103 0018 0edf 0f04 f734 0368 0600 f7e6
000000e0: fc81 e608 0003 fd04 cbfa ec13 c500 080b
000000f0: ed21 170b d10e ff30 0dfe 0907 f8d2 0c20

model_1/block_2_depthwise_BN/FusedBatchNormV3;model_1/block_2_depthwise/depthwise;model_1/block_3_depthwise/depthwise i1 [1, 3, 3, 48]
2 -3 21 108 4 82 -1 29
14 8 9 7 -8 -9 -46 9
-2 8 -23 -115 -7 -22 127 -9
-2 7 -5 9 -5 5 14 99
20 29 38 -28 1 34 -2 2
17 -70 -7 -10 18 3 -6 -10
127 10 15 -127 28 88 11 11
121 127 7 43 -49 -23 4 8
127 -56 -58 -57 -101 26 -108 15
17 71 -31 -84 23 21 8 -123
5 -61 127 10 -41 -47 -5 116
-79 -97 -29 2 -32 -7 -127 22
-33 -3 8 14 0 65 4 18
26 8 -14 31 -14 -2 15 4
-103 29 -2 78 -32 -12 -18 -6
-4 -59 -3 29 -16 5 5 -21
7 -24 16 -18 0 47 43 -12
49 38 -15 10 -41 4 -2 -7
127 7 0 -98 14 -27 35 -16
7 8 -13 52 -7 -1 18 -32
0 -49 -58 -86 10 -75 -123 -18
6 98 -15 -127 -9 33 11 -107
16 -52 -3 127 -3 58 -43 41
-62 -127 40 -89 -43 -14 -12 -5
29 -127 -127 114 -127 -127 -127 -127
-127 -97 127 -127 127 127 34 -127
-83 127 127 -107 127 127 113 127
127 -127 -127 29 -127 -127 93 127
-127 127 -30 -42 127 -127 127 127
127 -80 127 127 127 -121 102 106
54 6 48 -14 5 -61 43 19
-25 14 -105 -8 0 -40 127 5
00000000: 02fd 156c 0452 ff1d 0e08 0907 f8f7 d209
00000010: fe08 e98d f9ea 7ff7 fe07 fb09 fb05 0e63
00000020: 141d 26e4 0122 fe02 11ba f9f6 1203 faf6
00000030: 7f0a 0f81 1c58 0b0b 797f 072b cfe9 0408
00000040: 7fc8 c6c7 9b1a 940f 1147 e1ac 1715 0885
00000050: 05c3 7f0a d7d1 fb74 b19f e302 e0f9 8116
00000060: dffd 080e 0041 0412 1a08 f21f f2fe 0f04
00000070: 991d fe4e e0f4 eefa fcc5 fd1d f005 05eb
00000080: 07e8 10ee 002f 2bf4 3126 f10a d704 fef9
00000090: 7f07 009e 0ee5 23f0 0708 f334 f9ff 12e0
000000a0: 00cf c6aa 0ab5 85ee 0662 f181 f721 0b95
000000b0: 10cc fd7f fd3a d529 c281 28a7 d5f2 f4fb
000000c0: 1d81 8172 8181 8181 819f 7f81 7f7f 2281
000000d0: ad7f 7f95 7f7f 717f 7f81 811d 8181 5d7f
000000e0: 817f e2d6 7f81 7f7f 7fb0 7f7f 7f87 666a
000000f0: 3606 30f2 05c3 2b13 e70e 97f8 00d8 7f05

model_1/block_2_expand/Conv2D i1 [48, 1, 1, 8]
70 37 6 4 127 18 -28 -25
-1 6 3 127 12 -6 9 2
28 -127 -14 41 -2 -62 71 17
127 -31 -11 15 -1 -30 30 4
2 -48 127 -19 -14 -63 14 -97
61 -7 0 -13 127 18 -5 12
-15 85 -7 127 36 50 -68 -43
-9 127 -2 1 -1 -3 12 -15
127 61 -17 2 -46 -24 8 -37
-127 2 -1 10 56 9 -17 11
-97 7 29 127 51 28 -18 6
-127 -15 16 -50 28 15 -24 -38
127 34 3 15 -50 -12 4 -51
0 92 -127 2 12 105 -88 62
-42 -32 0 127 29 5 -3 -17
-4 127 3 -1 0 -18 14 -49
-6 -127 -35 -5 -3 -101 107 -23
28 127 4 -8 3 73 -88 -18
-14 40 -127 -2 12 58 -32 68
-65 26 1 -11 -127 3 28 7
-127 -30 -3 1 57 -22 40 6
-68 -7 -5 2 -127 -3 19 3
-127 -18 0 -10 75 -21 32 48
-27 -21 -10 -6 -9 79 -127 -96
-1 38 -127 0 8 44 -17 67
112 -49 5 127 -80 -7 12 -41
-2 -20 -7 -3 -15 117 127 -29
60 -11 -6 1 127 26 33 -12
3 127 -82 -12 5 90 -21 112
-4 13 -5 0 1 86 -127 -87
4 -5 3 -127 -11 0 -5 -15
-77 22 11 -6 -127 20 20 -18
00000000: 4625 0604 7f12 e4e7 ff06 037f 0cfa 0902
00000010: 1c81 f229 fec2 4711 7fe1 f50f ffe2 1e04
00000020: 02d0 7fed f2c1 0e9f 3df9 00f3 7f12 fb0c
00000030: f155 f97f 2432 bcd5 f77f fe01 fffd 0cf1
00000040: 7f3d ef02 d2e8 08db 8102 ff0a 3809 ef0b
00000050: 9f07 1d7f 331c ee06 81f1 10ce 1c0f e8da
00000060: 7f22 030f cef4 04cd 005c 8102 0c69 a83e
00000070: d6e0 007f 1d05 fdef fc7f 03ff 00ee 0ecf
00000080: fa81 ddfb fd9b 6be9 1c7f 04f8 0349 a8ee
00000090: f228 81fe 0c3a e044 bf1a 01f5 8103 1c07
000000a0: 81e2 fd01 39ea 2806 bcf9 fb02 81fd 1303
000000b0: 81ee 00f6 4beb 2030 e5eb f6fa f74f 81a0
000000c0: ff26 8100 082c ef43 70cf 057f b0f9 0cd7
000000d0: feec f9fd f175 7fe3 3cf5 fa01 7f1a 21f4
000000e0: 037f aef4 055a eb70 fc0d fb00 0156 81a9
000000f0: 04fb 0381 f500 fbf1 b316 0bfa 8114 14ee

model_1/block_1_project/Conv2D i1 [8, 1, 1, 48]
-16 3 10 -84 14 21 6 10
1 0 -2 -5 91 0 -2 7
0 -8 -2 3 74 -4 0 7
24 38 12 18 -1 1 1 -127
10 5 4 -1 -29 8 -9 29
9 -27 -7 5 1 -2 3 3
-40 -6 1 -5 41 26 -32 79
24 5 -33 -25 10 0 16 38
0 47 18 -52 0 22 127 23
-28 -4 50 12 20 2 13 -13
16 -7 -10 -22 5 -52 9 3
-7 -11 -88 -11 -42 9 -51 -98
-62 16 0 10 43 -14 27 24
-10 54 11 -4 3 0 9 55
0 12 -127 20 1 13 7 -18
-38 1 39 13 9 32 18 -1
6 -11 -11 -15 11 2 4 -2
34 -11 -29 -3 27 -57 31 15
1 1 2 6 -1 25 0 -5
56 16 2 -4 26 0 -28 -10
0 -1 -10 4 4 0 10 -15
-9 -2 -7 3 -6 -6 -3 -7
-48 39 -47 1 5 0 4 -127
0 1 0 -41 -5 -2 -4 9
-3 -2 77 35 3 -17 -3 -5
-1 -6 -1 -3 -78 0 -12 5
0 10 5 2 63 4 -1 -8
-15 34 -5 42 -10 -4 -3 94
3 2 1 -1 14 -20 -8 -17
1 -127 4 0 -4 -4 0 4
-7 43 8 -5 1 50 23 15
-20 28 8 58 20 0 -127 -6
00000000: f003 0aac 0e15 060a 0100 fefb 5b00 fe07
00000010: 00f8 fe03 4afc 0007 1826 0c12 ff01 0181
00000020: 0a05 04ff e308 f71d 09e5 f905 01fe 0303
00000030: d8fa 01fb 291a e04f 1805 dfe7 0a00 1026
00000040: 002f 12cc 0016 7f17 e4fc 320c 1402 0df3
00000050: 10f9 f6ea 05cc 0903 f9f5 a8f5 d609 cd9e
00000060: c210 000a 2bf2 1b18 f636 0bfc 0300 0937
00000070: 000c 8114 010d 07ee da01 270d 0920 12ff
00000080: 06f5 f5f1 0b02 04fe 22f5 e3fd 1bc7 1f0f
00000090: 0101 0206 ff19 00fb 3810 02fc 1a00 e4f6
000000a0: 00ff f604 0400 0af1 f7fe f903 fafa fdf9
000000b0: d027 d101 0500 0481 0001 00d7 fbfe fc09
000000c0: fdfe 4d23 03ef fdfb fffa fffd b200 f405
000000d0: 000a 0502 3f04 fff8 f122 fb2a f6fc fd5e
000000e0: 0302 01ff 0eec f8ef 0181 0400 fcfc 0004
000000f0: f92b 08fb 0132 170f ec1c 083a 1400 81fa

model_1/block_1_depthwise_BN/FusedBatchNormV3;model_1/block_1_depthwise/depthwise;model_1/block_3_depthwise/depthwise i1 [1, 3, 3, 48]
-43 -22 -7 -17 7 -40 -79 -68
-28 -50 8 62 34 -71 114 -43
-113 -83 35 -6 -2 -71 -111 -78
-34 -124 -65 -17 69 15 95 27
-127 -89 -6 54 17 48 -127 77
-76 -14 106 -109 -2 -34 -87 108
75 12 -29 -29 57 -127 -127 -81
62 -77 -116 107 38 -82 -1 62
-52 -111 59 7 9 -112 -127 -68
-4 -127 -122 -35 -55 21 -57 54
29 -127 64 83 12 73 -91 127
-127 6 124 -127 2 -22 -127 94
-32 42 6 -5 -65 -106 -59 -18
88 -9 -127 38 8 -71 -101 -11
-127 -26 27 12 -16 -76 -35 -23
-12 -30 -57 -10 -12 17 -25 10
107 -87 71 32 13 35 -3 17
-79 3 7 -78 -17 6 -55 14
-85 -127 -43 -44 -10 52 98 -105
-27 -109 -21 109 89 -64 27 -97
-121 -93 88 -76 42 -88 -101 -127
42 -118 -77 -38 127 -60 127 85
-43 -84 -13 85 -35 -76 -108 88
42 59 103 -111 -91 -118 82 120
127 -82 -127 -127 127 39 93 -127
102 -127 -111 127 127 -14 -7 127
-60 -127 127 -127 127 -127 -118 -116
127 -98 -127 -127 -120 -127 -71 127
29 -111 127 127 -67 -127 -97 89
60 127 127 -116 -112 -127 125 127
-52 30 -61 -84 -120 -22 30 -37
127 -21 -76 36 55 -70 -26 -44
00000000: d5ea f9ef 07d8 b1bc e4ce 083e 22b9 72d5
00000010: 8fad 23fa feb9 91b2 de84 bfef 450f 5f1b
00000020: 81a7 fa36 1130 814d b4f2 6a93 fede a96c
00000030: 4b0c e3e3 3981 81af 3eb3 8c6b 26ae ff3e
00000040: cc91 3b07 0990 81bc fc81 86dd c915 c736
00000050: 1d81 4053 0c49 a57f 8106 7c81 02ea 815e
00000060: e02a 06fb bf96 c5ee 58f7 8126 08b9 9bf5
00000070: 81e6 1b0c f0b4 dde9 f4e2 c7f6 f411 e70a
00000080: 6ba9 4720 0d23 fd11 b103 07b2 ef06 c90e
00000090: ab81 d5d4 f634 6297 e593 eb6d 59c0 1b9f
000000a0: 87a3 58b4 2aa8 9b81 2a8a b3da 7fc4 7f55
000000b0: d5ac f355 ddb4 9458 2a3b 6791 a58a 5278
000000c0: 7fae 8181 7f27 5d81 6681 917f 7ff2 f97f
000000d0: c481 7f81 7f81 8a8c 7f9e 8181 8881 b97f
000000e0: 1d91 7f7f bd81 9f59 3c7f 7f8c 9081 7d7f
000000f0: cc1e c3ac 88ea 1edb 7feb b424 37ba e6d4

model_1/block_1_expand/Conv2D i1 [48, 1, 1, 8]
10 -127 55 -51 33 -20 -59 16
57 68 -23 -81 4 -21 -60 127
35 7 -44 127 54 123 43 87
78 72 -73 127 -95 -7 -11 17
-45 -77 66 21 12 32 -33 -127
13 -1 -37 35 -7 -20 34 127
49 -17 -127 -70 108 18 53 -37
127 17 21 -18 31 -5 84 -61
36 -109 5 125 8 6 -8 -127
109 -127 16 1 -17 24 -121 96
-127 -53 -125 14 1 12 -124 74
-27 -48 -14 -124 -127 -42 55 -15
15 2 -40 67 -82 -22 57 127
0 0 0 0 0 0 0 0
-2 -35 -11 10 52 127 47 40
31 12 16 -127 63 32 -47 71
0 0 0 0 0 0 0 0
13 22 127 25 -23 -9 20 29
85 -127 20 35 -12 21 -111 5
-127 -5 52 81 -96 -64 -85 84
33 29 -38 95 -13 -127 -9 49
56 22 127 9 -14 -10 67 11
-81 -21 -127 -3 4 15 -94 2
-94 127 -10 -11 6 -14 118 -66
10 -61 -51 80 -12 -62 97 127
9 50 29 30 124 127 -70 -56
-86 -32 -127 -4 11 13 -92 0
-4 -29 -38 7 -40 127 71 44
-7 -7 -18 33 23 127 54 62
86 31 127 7 -15 -23 88 -6
-73 127 -18 -27 11 -2 94 -50
-38 -95 -25 -3 20 -67 127 109
00000000: 0a81 37cd 21ec c510 3944 e9af 04eb c47f
00000010: 2307 d47f 367b 2b57 4e48 b77f a1f9 f511
00000020: d3b3 4215 0c20 df81 0dff db23 f9ec 227f
00000030: 31ef 81ba 6c12 35db 7f11 15ee 1ffb 54c3
00000040: 2493 057d 0806 f881 6d81 1001 ef18 8760
00000050: 81cb 830e 010c 844a e5d0 f284 81d6 37f1
00000060: 0f02 d843 aeea 397f 0000 0000 0000 0000
00000070: fedd f50a 347f 2f28 1f0c 1081 3f20 d147
00000080: 0000 0000 0000 0000 0d16 7f19 e9f7 141d
00000090: 5581 1423 f415 9105 81fb 3451 a0c0 ab54
000000a0: 211d da5f f381 f731 3816 7f09 f2f6 430b
000000b0: afeb 81fd 040f a202 a27f f6f5 06f2 76be
000000c0: 0ac3 cd50 f4c2 617f 0932 1d1e 7c7f bac8
000000d0: aae0 81fc 0b0d a400 fce3 da07 d87f 472c
000000e0: f9f9 ee21 177f 363e 561f 7f07 f1e9 58fa
000000f0: b77f eee5 0bfe 5ece daa1 e7fd 14bd 7f6d

model_1/expanded_conv_project/Conv2D i1 [8, 1, 1, 16]
0 -24 6 -3 127 0 2 1
-1 -123 -92 -5 0 117 -3 0
0 -28 5 90 80 14 25 10
0 3 127 -44 0 36 -9 0
0 -3 -2 -12 -54 3 13 3
1 7 -15 1 0 127 -8 0
0 -11 -21 -127 83 23 67 15
-1 61 -3 40 0 -1 18 0
0 41 -28 33 -47 25 127 10
-1 -56 15 -9 0 -7 20 0
0 -18 -10 -2 -21 -24 -9 16
-1 8 -3 -42 0 -6 127 0
0 14 -1 3 54 -22 -28 -10
-1 -111 112 67 0 127 58 0
0 6 -14 127 4 -4 8 9
1 69 -59 72 0 -8 53 0
00000000: 00e8 06fd 7f00 0201 ff85 a4fb 0075 fd00
00000010: 00e4 055a 500e 190a 0003 7fd4 0024 f700
00000020: 00fd fef4 ca03 0d03 0107 f101 007f f800
00000030: 00f5 eb81 5317 430f ff3d fd28 00ff 1200
00000040: 0029 e421 d119 7f0a ffc8 0ff7 00f9 1400
00000050: 00ee f6fe ebe8 f710 ff08 fdd6 00fa 7f00
00000060: 000e ff03 36ea e4f6 ff91 7043 007f 3a00
00000070: 0006 f27f 04fc 0809 0145 c548 00f8 3500

model_1/expanded_conv_depthwise_BN/FusedBatchNormV3;model_1/expanded_conv_depthwise/depthwise;model_1/block_5_project/Conv2D i1 [1, 3, 3, 16]
-108 18 -82 -127 39 -67 80 -76
-90 -3 -8 29 -127 5 54 -73
51 25 -127 127 127 -127 127 -127
-85 127 -127 51 -105 5 127 -25
24 -24 89 -2 -73 67 -94 77
-95 -27 4 -15 61 1 -101 -29
-127 127 -23 13 -44 15 -28 14
-28 0 3 -109 -49 8 -29 -14
-78 -42 -58 -15 -8 -26 8 -28
-108 -89 21 -12 -104 -127 1 23
14 1 63 2 2 34 -25 33
-127 6 -2 2 -21 12 -4 43
-115 -73 67 2 -7 39 -39 52
-76 0 0 4 40 2 -27 23
23 -4 30 -2 -27 40 -34 21
-125 -13 0 84 -58 0 -28 -111
21 -7 18 0 4 14 9 22
-115 4 -1 -127 107 3 17 -127
00000000: 9412 ae81 27bd 50b4 a6fd f81d 8105 36b7
00000010: 3319 817f 7f81 7f81 ab7f 8133 9705 7fe7
00000020: 18e8 59fe b743 a24d a1e5 04f1 3d01 9be3
00000030: 817f e90d d40f e40e e400 0393 cf08 e3f2
00000040: b2d6 c6f1 f8e6 08e4 94a7 15f4 9881 0117
00000050: 0e01 3f02 0222 e721 8106 fe02 eb0c fc2b
00000060: 8db7 4302 f927 d934 b400 0004 2802 e517
00000070: 17fc 1efe e528 de15 83f3 0054 c600 e491
00000080: 15f9 1200 040e 0916 8d04 ff81 6b03 1181

model_1/Conv1/Conv2D i1 [16, 3, 3, 3]
0 0 0 0 0 0 0 0
0 0 0 0 0 0 0 0
0 0 0 0 0 0 0 0
0 0 0 39 -3 26 -10 -20
10 -127 -105 -67 0 -4 -4 -23
3 -9 -6 -26 -1 -5 15 -5
-7 6 -7 33 -16 8 17 -16
-28 66 114 -20 35 -48 -10 -3
5 -22 59 127 -52 17 -11 -25
47 -77 4 72 -55 -40 37 -62
2 17 30 2 43 93 23 5
7 1 35 34 3 84 127 28
-11 -19 8 13 -6 1 37 22
8 -1 -4 6 37 82 12 10
93 12 -28 8 16 38 89 69
24 127 52 16 47 0 47 66
47 39 121 28 -35 21 34 6
3 -118 -4 2 -103 -7 24 -30
1 -43 -127 -2 -45 -113 -5 9
-26 -8 4 -20 0 -7 -13 -3
8 -15 23 -66 29 45 -89 35
8 -23 5 35 -96 58 62 -127
68 7 -29 15 19 -38 11 13
-46 24 -13 5 -2 -31 17 4
-108 -39 1 -24 23 2 -13 -8
1 -127 -93 -7 -6 -5 5 -23
30 -9 -13 11 0 -22 25 -3
125 127 111 124 127 110 124 125
109 125 126 110 122 124 108 124
124 108 123 124 109 122 124 108
123 124 108 -22 -5 -5 -10 -3
-11 8 8 -18 86 108 -20 68
00000000: 0000 0000 0000 0000 0000 0000 0000 0000
00000010: 0000 0000 0000 0000 0000 0027 fd1a f6ec
00000020: 0a81 97bd 00fc fce9 03f7 fae6 fffb 0ffb
00000030: f906 f921 f008 11f0 e442 72ec 23d0 f6fd
00000040: 05ea 3b7f cc11 f5e7 2fb3 0448 c9d8 25c2
00000050: 0211 1e02 2b5d 1705 0701 2322 0354 7f1c
00000060: f5ed 080d fa01 2516 08ff fc06 2552 0c0a
00000070: 5d0c e408 1026 5945 187f 3410 2f00 2f42
00000080: 2f27 791c dd15 2206 038a fc02 99f9 18e2
00000090: 01d5 81fe d38f fb09 e6f8 04ec 00f9 f3fd
000000a0: 08f1 17be 1d2d a723 08e9 0523 a03a 3e81
000000b0: 4407 e30f 13da 0b0d d218 f305 fee1 1104
000000c0: 94d9 01e8 1702 f3f8 0181 a3f9 fafb 05e9
000000d0: 1ef7 f30b 00ea 19fd 7d7f 6f7c 7f6e 7c7d
000000e0: 6d7d 7e6e 7a7c 6c7c 7c6c 7b7c 6d7a 7c6c
000000f0: 7b7c 6cea fbfb f6fd f508 08ee 566c ec44
